log/SpectralFormer_patch_houston.pt (torch, 971164 bytes, 69 tensors)

pos_embedding f4 [1, 145, 64]
0.0013595562 0.00053192425 -0.004183225 0.002810132 0.0019327136 0.004064373 0.0030566584 0.0027757003
0.011572165 0.03394283 -0.0045372634 0.00091877516 0.010325153 0.0007464836 0.0041087675 0.002314785
-0.00076434744 0.006647065 0.0043400466 -0.032223847 0.0021282583 0.0033607474 0.0018754787 -0.0061687385
0.0017463409 0.0018275174 0.004575028 -0.065600164 0.002741091 0.0030183778 0.0014518625 0.0020310006
-0.0012278365 0.0030040117 0.002907899 0.0033437032 0.02231856 0.0022695567 0.0025647304 0.0023837667
-0.023943538 0.0031869458 0.0031464188 0.014710848 -0.004663616 0.012293463 0.0012977851 0.002370246
-7.5481556e-05 -0.00035146356 -0.005265649 0.0019378511 0.0012077633 0.003461306 0.01921249 0.02300128
-0.04379016 0.0027630178 0.0014026097 0.0025049057 0.0012419845 -0.025298173 0.0025599534 0.0017640874
0.00023680911 -0.0003648461 0.0031190533 -0.00027607116 -5.6345634e-05 0.0015597522 -0.0024742857 0.00062076066
-0.0005095649 -0.011111144 0.0098519055 -0.002303409 -0.020293333 0.00019402703 -0.0027201923 0.0032319988
0.00090750033 -0.0034255967 -0.005981051 -0.011952344 -0.0013877499 -0.001831957 -0.0014465047 0.007399978
-0.0032467484 -0.0016124159 -0.0031708253 -0.033373293 0.00020696443 -0.0017029198 -0.0016109786 -0.0027705845
0.02304178 -0.001883063 -0.00037815075 0.008031344 -0.0016341627 4.558889e-05 0.000113974434 -0.0010863169
0.004780805 -0.0012695218 -0.0010134799 -0.016304048 -0.0014578113 -0.004449418 0.026111502 -0.0011853089
-0.012282005 -0.0008514822 0.016328657 0.0037924335 -0.00023863328 0.0009979664 -0.027592124 -0.014344141
0.023686156 -0.0014477514 -0.0028257607 0.0022372152 -0.005548533 0.034352105 0.00053680874 0.001248057
-0.00014370235 0.0009353009 0.008827931 0.0004971076 0.0008158113 -0.00076804287 0.00108986 5.8175727e-05
0.012831405 0.0065191174 0.002011846 -0.0007986969 -0.01393542 -0.0006236968 -0.0037892885 0.0029911543
-0.0036984354 0.010843315 0.00019211069 0.002927559 -0.00037285552 -0.0016790932 -0.00063465675 0.018801788
0.00034346135 0.0019958063 -0.0060494645 -0.026953341 0.00037992082 -0.00094519084 0.004957591 0.0038556769
0.01734883 0.0015668538 0.00085647695 -0.013754994 0.0025116445 -0.0022134758 -0.0005176503 0.0014338993
0.002618205 -0.00047464832 0.0014951898 -0.008476656 -0.00290411 -0.003117302 -0.008804856 0.0022522025
0.0037871196 0.00396203 -0.00019602595 0.004794256 0.0015210052 0.00094816077 0.02942348 -0.0044035898
-0.0052533713 0.0022666021 -0.002512496 0.001516336 -0.0035241842 0.005470255 -0.00014078905 0.0010647364
0.0010983492 -0.00044751915 0.0022116057 -0.00042440474 -0.0020766733 0.00023368113 -0.00084692513 0.0012269899
0.020767318 -0.008217871 0.016165735 -0.004398212 -0.0058762245 0.00055155315 -0.0033178222 0.0016041393
-0.004247164 0.0037156402 -0.0034074332 -0.0072429264 -0.00031229583 0.0011823758 -0.0007521917 -0.0051259347
-0.000833983 -0.0016211317 -0.003183538 -0.038662165 -0.0011736788 -0.00023797747 -0.0005431867 3.2806267e-05
0.014122656 -0.0010129759 -0.0011454166 0.006213664 0.0068787397 -0.0017034269 0.0005915293 0.0019421427
0.008569453 0.00031674057 0.0016728378 -0.0068991105 -0.0015565053 0.0022083938 0.017588845 0.00041620966
-0.02719489 -4.318085e-05 0.008749322 0.0008170897 -0.00047273026 -0.0006306664 -0.0069442308 -0.012859338
0.01914108 -0.001580187 -0.0030179042 0.0004884772 -0.0023574645 0.028759468 -0.0015381719 -0.00027393372
00000000: 2333 b23a d570 0b3a 6f13 89bb 312a 383b
00000010: 1b53 fd3a 6f2e 853b 3852 483b 86e8 353b
00000020: 2e99 3d3c a307 0b3d 53ad 94bb f5d9 703a
00000030: d52a 293c abaf 433a d7a2 863b a6b3 173b
00000040: 7d5e 48ba 9fcf d93b f336 8e3b 27fd 03bd
00000050: 407a 0b3b fc3f 5c3b 9fd2 f53a 2123 cabb
00000060: 7ae5 e43a 4f89 ef3a 1eea 953b 6159 86bd
00000070: e0a3 333b facf 453b 6c4c be3a 891a 053b
00000080: 5bef a0ba f4de 443b 7392 3e3b 0822 5b3b
00000090: 6ad5 b63c d8bc 143b 0915 283b f838 1c3b
000000a0: 3d25 c4bc 14dc 503b 2634 4e3b c505 713c
000000b0: 3fd1 98bb 856a 493c 711a aa3a 2156 1b3b
000000c0: da4b 9eb8 a444 b8b9 778b acbb 7eff fd3a
000000d0: d04d 9e3a 14d7 623b 8363 9d3c 2e6d bc3c
000000e0: 505d 33bd bf13 353b c6d7 b73a 5829 243b
000000f0: 16ca a23a 1d3e cfbc e4c4 273b f338 e73a
00000100: f64f 7839 d148 bfb9 0869 4c3b a5bd 90b9
00000110: aa54 6cb8 9970 cc3a a027 22bb 8bba 223a
00000120: 5294 05ba 840b 36bc e369 213c caf4 16bb
00000130: 343e a6bc bc73 4b39 4145 32bb f1cf 533b
00000140: 51e5 6d3a fa7f 60bb b1fc c3bb c4d3 43bc
00000150: 29e5 b5ba 471e f0ba a598 bdba 847b f23b
00000160: 66c7 54bb b357 d3ba 9fcd 4fbb 6fb2 08bd
00000170: 9704 5939 8234 dfba 7927 d3ba b292 35bb
00000180: 1dc2 bc3c 1cd1 f6ba 8942 c6b9 e695 033c
00000190: 6731 d6ba b336 3f38 8f05 ef38 bf62 8eba
000001a0: 4da8 9c3b 1566 a6ba bed6 84ba 1190 85bc
000001b0: 0814 bfba 6ccc 91bb cae7 d53c 5e5c 9bba
000001c0: 763a 49bc 0136 5fba adc3 853c 7a8a 783b
000001d0: a239 7ab9 32ce 823a e108 e2bc b003 6bbc
000001e0: 7809 c23c 7ac2 bdba 6630 39bb 3e9e 123b
000001f0: 78d0 b5bb cbb4 0c3d a0b8 0c3a d895 a33a
00000200: ceae 16b9 fb2e 753a 07a3 103c 5450 023a
00000210: 2bdc 553a 7c56 49ba a2d9 8e3a b601 7438
00000220: d03a 523c 529e d53b 2dd9 033b a45f 51ba
00000230: 6351 64bc 957f 23ba b655 78bb 3e07 443b
00000240: 7361 72bb 29a8 313c 5271 4939 4adc 3f3b
00000250: d27b c3b9 0515 dcba 185f 26ba 3506 9a3c
00000260: 9a12 b439 13cc 023b 963a c6bb 41cd dcbc
00000270: 1c30 c739 afc6 77ba 4a73 a23b 86af 7c3b
00000280: 221f 8e3c e45e cd3a 3285 603a a05c 61bc
00000290: 679a 243b f60f 11bb ecb2 07ba adf1 bb3a
000002a0: 3196 2b3b 38da f8b9 3ffa c33a ace1 0abc
000002b0: e152 3ebb a64b 4cbb 3e42 10bc b099 133b
000002c0: 5331 783b ebd3 813b 518c 4db9 2219 9d3b
000002d0: 775c c73a fe8d 783a 8309 f13c fd4b 90bb
000002e0: 7924 acbb 468b 143b b0a8 24bb cbbf c63a
000002f0: 00f6 66bb d33f b33b c6a0 13b9 a08e 8b3a
00000300: 7cf6 8f3a 01a1 eab9 96f0 103b a482 deb9
00000310: cc18 08bb 4d08 7539 2f04 5eba f3d2 a03a
00000320: 3920 aa3c 40a4 06bc 016e 843c e01e 90bb
00000330: 588d c0bb 1b96 103a d26f 59bb fc41 d23a
00000340: cb2b 8bbb 1982 733b 3e4f 5fbb 1256 edbb
00000350: a3bb a3b9 f3f9 9a3a bb2e 45ba 75f7 a7bb
00000360: a79f 5aba 277c d4ba e8a2 50bb 385c 1ebd
00000370: 20d6 99ba 9789 79b9 a464 0eba 7699 0938
00000380: b662 673c d5c5 84ba ce21 96ba fe9b cb3b
00000390: 0d67 e13b 8645 dfba dc10 1b3a 7f8f fe3a
000003a0: e466 0c3c 3310 a639 1f43 db3a ef11 e2bb
000003b0: a703 ccba b3ba 103b 7b16 903c b736 da39
000003c0: d1c7 debc 161d 35b8 5159 0f3c f631 563a
000003d0: c8d8 f7b9 4e53 25ba 6e8c e3bb f9af 52bc
000003e0: c1cd 9c3c 471e cfba 08c8 45bb 260d 003a
000003f0: b17f 1abb fa98 eb3c 7c9c c9ba c39e 8fb9

cls_token f4 [1, 1, 64]
0.0013595561 0.00053192413 -0.0041832235 0.002810132 0.0019327131 0.0040643737 0.003056657 0.0027756996
0.011647758 0.033942856 -0.004537265 0.00091877446 0.010325154 0.0007464836 0.004108767 0.002314785
-0.0007643483 0.0066470494 0.004340048 -0.032226887 0.0021282593 0.0033607483 0.0018754784 -0.006168861
0.001746341 0.0018275174 0.0045750285 -0.06560016 0.0027410907 0.0030183778 0.001451865 0.002031001
-0.0012278192 0.0030040122 0.002907899 0.0033420438 0.022318562 0.002269556 0.00256473 0.002383767
-0.023943536 0.0031869463 0.0031464188 0.014710846 -0.0046636146 0.012293432 0.0013426291 0.002370246
-7.472331e-05 -0.0003514624 -0.0052656457 0.0019378508 0.0012077631 0.003461306 0.019212425 0.023001287
-0.04379027 0.0027630175 0.0014026099 0.0025049062 0.0012419854 -0.025285468 0.0025599534 0.0017640874
00000000: 2233 b23a d370 0b3a 6c13 89bb 312a 383b
00000010: 1753 fd3a 702e 853b 3252 483b 83e8 353b
00000020: 3dd6 3e3c aa07 0b3d 56ad 94bb e9d9 703a
00000030: d62a 293c abaf 433a d6a2 863b a6b3 173b
00000040: 8c5e 48ba 7ecf d93b f636 8e3b 5700 04bd
00000050: 447a 0b3b 0040 5c3b 9dd2 f53a 2824 cabb
00000060: 7be5 e43a 4f89 ef3a 1fea 953b 6059 86bd
00000070: dfa3 333b facf 453b 814c be3a 8b1a 053b
00000080: c7ee a0ba f6de 443b 7392 3e3b 3106 5b3b
00000090: 6bd5 b63c d5bc 143b 0715 283b f938 1c3b
000000a0: 3c25 c4bc 16dc 503b 2634 4e3b c305 713c
000000b0: 3cd1 98bb 646a 493c 28fb af3a 2156 1b3b
000000c0: c6b4 9cb8 7c44 b8b9 708b acbb 7cff fd3a
000000d0: ce4d 9e3a 14d7 623b 6063 9d3c 326d bc3c
000000e0: 6d5d 33bd be13 353b c7d7 b73a 5a29 243b
000000f0: 1dca a23a 7823 cfbc e4c4 273b f338 e73a

patch_to_embedding.weight f4 [64, 147]
5.2816053e-05 0.0014822466 0.002286522 0.002435619 -0.0010505526 -0.0010214061 -0.00027250682 -0.0015452025
0.0007646953 0.0015843791 0.002138299 -0.0002948312 -0.0013611969 0.00015631893 -0.0012173813 0.0012216925
0.0023953018 0.001983158 0.0007912791 -0.0005620864 0.0012545134 0.00028454346 0.0009353701 0.0018894678
0.0020669652 0.0011079831 0.00028955066 0.00070747605 0.0024644374 0.002105508 0.0021287021 0.0007734647
0.0001818031 0.00063250953 -0.0005623941 0.0014495846 0.0012177567 0.0012633636 -9.818453e-05 0.0010272756
0.0005426377 -0.001157632 0.001999627 0.0011157261 -0.00029945807 -8.621694e-05 -0.0002742063 0.0012418398
-0.0017941163 9.467965e-05 0.0015646194 0.0024088342 0.0025832038 -0.0009391429 -0.0009668109 -0.00020318375
-0.0013701207 0.0010477267 0.0016963396 0.00236335 -0.00010292521 -0.0013408684 8.9652174e-05 -0.0012061807
0.0013845108 0.0025725663 0.002175245 0.0010619053 -0.00043425147 0.0011910738 0.00030271837 0.00094546145
0.0019691421 0.0022052184 0.0011718324 0.00038398345 0.0006089812 0.0026300477 0.0021024006 0.0022319392
0.00079498376 0.0002305453 0.00061790086 -0.00061851356 0.0016052326 0.001229493 0.0012525342 -0.00020499073
0.0009912923 0.00044624016 -0.0014363705 0.0020076241 0.0010181513 -0.00032091903 -0.00017560802 -0.0004327647
0.0010383822 -0.0020184375 -0.00025599694 0.001259763 0.0020799444 0.002342108 -0.0012067927 -0.0013703383
-0.00071720197 -0.0017811051 0.0007476164 0.0013564127 0.002064535 -0.00036584015 -0.0018472259 -0.00043570148
-0.0016215389 0.0009992687 0.0021982582 0.0018399135 0.00065876247 -0.00090476376 0.00056391396 -3.469514e-05
0.0005417258 0.0015087295 0.0018000734 0.00076930947 -0.00012840467 -0.000104833 0.0022290829 0.001677454
0.0018412499 0.0003932103 -0.00022953333 8.937956e-05 -0.001252174 0.0010319136 0.00072791165 0.00083319214
-0.00056010834 0.0005248712 -0.00015279758 -0.0021141053 0.0014069114 0.0005135364 -0.0008066211 -0.0007596955
-0.0009381307 0.0005290837 -0.0025101814 0.0014574154 0.0010193038 0.0002711986 -0.00028347722 -0.0020582557
-0.001377644 -7.720687e-05 -0.00015990403 0.00029823912 -0.00031350655 0.00074596924 0.0005833848 0.00029796027
0.00067548826 -0.0007126513 -0.00051901746 6.423452e-05 0.0011750986 0.0011611772 -0.00046966362 0.00117567
-0.0006252627 0.00021693078 0.0003133399 0.0026668005 0.0025771845 0.0016915026 0.0003736896 -0.0016921815
-0.000731436 -0.00045421103 0.002169512 0.002394769 0.0006023063 -0.0003194888 0.0019200261 8.2459104e-05
0.00031480755 0.0019774665 0.00064594456 -0.0012296595 -0.0010902844 0.0014262105 -0.00026737934 -0.00032654466
0.0021512592 0.0005704439 -0.00011743708 -0.0027648786 0.0017535157 0.0011816636 0.00036728676 -0.00033486914
-0.002221785 -0.001612004 -0.00016177427 -0.00011964497 0.0003623058 -0.00030973626 0.0007645003 0.00056022714
8.172398e-05 0.0005413417 -0.0007529199 -0.00048991846 6.9361995e-05 0.0011717777 0.0010682688 -0.0005800518
0.0010384445 -0.00048074682 0.0001191645 0.00029024907 0.0025390543 0.0024502862 0.0015144716 0.00017933389
-0.0015018696 -0.0007215062 -0.0004319522 0.0020386407 0.0022684874 0.00040307906 -0.00054376374 0.0019413715
7.0664064e-05 0.0002845849 0.0017931875 0.00054957345 -0.0013927221 -0.0013790027 0.0013945462 -0.00039666516
-0.00058773474 0.0019338408 0.0003973124 -0.00041129225 -0.003065794 0.001851732 0.0012135447 0.00023813789
-0.0005366805 -0.0024459267 -0.0020166694 -0.00063404726 -0.00012786522 0.00025315597 -0.0005530021 0.0006074834
00000000: ce86 5d38 f147 c23a 79d9 153b e89e 1f3b
00000010: b2b2 89ba b4e0 85ba 3fdf 8eb9 6488 caba
00000020: d575 483a f1aa cf3a b422 0c3b 9393 9ab9
00000030: 306a b2ba 8be9 2339 8a90 9fba 3321 a03a
00000040: 7ffa 1c3b dff7 013b d76d 4f3a fb58 13ba
00000050: 7c6e a43a c72e 9539 a033 753a 05a8 f73a
00000060: ec75 073b be39 913a d5ce 9739 ea75 393a
00000070: 6682 213b 90fc 093b b281 0b3b 56c2 4a3a
00000080: 66a2 3e39 ffce 253a a16d 13ba fdff bd3a
00000090: 229d 9f3a 7397 a53a 6be8 cdb8 a6a5 863a
000000a0: cd3f 0e3a afbb 97ba 2d0c 033b 8e3d 923a
000000b0: 9500 9db9 5ecf b4b8 59c3 8fb9 3bc5 a23a
000000c0: 8e28 ebba c08e c638 ea13 cd3a 88dd 1d3b
000000d0: f84a 293b d030 76ba 9571 7dba b90d 55b9
000000e0: 9f95 b3ba e053 893a b657 de3a 6fe2 1a3b
000000f0: 8dd9 d7b8 14c0 afba a503 bc38 b518 9eba
00000100: 7978 b53a 8098 283b 8e8e 0e3b a12f 8b3a
00000110: 3fac e3b9 ce1d 9c3a 2cb6 9e39 d8d8 773a
00000120: b90c 013b 6d85 103b 2c98 993a 6351 c939
00000130: 09a4 1f3a e15c 2c3b 6ec8 093b ba45 123b
00000140: 7566 503a 88be 7139 a0fa 213a be23 22ba
00000150: ab66 d23a f026 a13a 132c a43a c8f2 56b9
00000160: 40ee 813a 57f5 e939 9944 bcba 5892 033b
00000170: 7d73 853a 0641 a8b9 6b23 38b9 b2e4 e2b9
00000180: 531a 883a c347 04bb 5437 86b9 a21e a53a
00000190: ad4f 083b 0d7e 193b 3e2d 9eba ec9c b3ba
000001a0: 9c02 3cba f873 e9ba b0fb 433a a8c9 b13a
000001b0: 264d 073b 3cce bfb9 9e1e f2ba dd6e e4b9
000001c0: d189 d4ba e5f9 823a a710 103b 4129 f13a
000001d0: cdb0 2c3a ab2d 6dba a0d3 133a 9f85 11b8
000001e0: 9a02 0e3a 90c0 c53a 71f0 eb3a 7cab 493a
000001f0: 5ea4 06b9 cad9 dbb8 ce15 123b 04de db3a
00000200: 1856 f13a cb27 ce39 e2ae 70b9 4971 bb38
00000210: fd1f a4ba 4641 873a 53d1 3e3a 946a 5a3a
00000220: 3cd4 12ba 8397 093a 4a38 20b9 cd8c 0abb
00000230: 1d68 b83a d89e 063a 6d73 53ba 4d26 47ba
00000240: e3ec 75ba 35b2 0a3a db81 24bb bf06 bf3a
00000250: 299a 853a a92f 8e39 ab9f 94b9 cde3 06bb
00000260: 1092 b4ba 1fea a1b8 e9ab 27b9 fa5c 9c39
00000270: 235e a4b9 268d 433a 4bee 183a 8d37 9c39
00000280: 4013 313a 38d1 3aba ac0e 08ba a5b5 8638
00000290: c405 9a3a a432 983a 2f3d f6b9 f018 9a3a
000002a0: abe8 23ba ea77 6339 c547 a439 7dc5 2e3b
000002b0: fbe5 283b 69b5 dd3a c5eb c339 30cc ddba
000002c0: d7bd 3fba 2c23 eeb9 5f2e 0e3b 8ff1 1c3b
000002d0: 17e4 1d3a 1081 a7b9 63a9 fb3a e5ed ac38
000002e0: c10c a539 6298 013b 9b54 293a 872c a1ba
000002f0: e0e7 8eba afef ba3a 0c2f 8cb9 1534 abb9
00000300: 24fc 0c3b d889 153a 8d48 f6b8 f732 35bb
00000310: 39d6 e53a 0de2 9a3a 6590 c039 6091 afb9
00000320: 5e9b 11bb e149 d3ba f3a1 29b9 e7e9 fab8
00000330: dcf3 bd39 1964 a2b9 bf68 483a 35dc 123a
00000340: 3a63 ab38 d4e8 0d3a 995f 45ba df6d 00ba
00000350: 7076 9138 5696 993a 2705 8c3a 9e0e 18ba
00000360: 6a1c 883a bf0c fcb9 f4e7 f938 922c 9839
00000370: 4366 263b fb94 203b 3c81 c63a 930b 3c39
00000380: 62da c4ba 7623 3dba a577 e2b9 b79a 053b
00000390: e7aa 143b 5b54 d339 5e8b 0eba 9e75 fe3a
000003a0: 7b31 9438 5734 9539 6309 eb3a 4011 103a
000003b0: 008c b6ba a7bf b4ba 35c9 b63a 7ff7 cfb9
000003c0: 3612 1aba ee78 fd3a 5e4e d039 b6a2 d7b9
000003d0: 7deb 48bb d1b5 f23a ce0f 9f3a a7b4 7939
000003e0: 05b0 0cba d74b 20bb 192a 04bb 3136 26ba
000003f0: 8f13 06b9 05ba 8439 58f7 10ba 853f 1f3a

patch_to_embedding.bias f4 [64]
-0.0019396109 -0.000524458 -0.046119116 -0.002364671 -0.0045555537 -0.0027057813 -0.002240163 -0.0035477043
-0.17024453 -0.09382588 -0.07245157 -0.0021740582 0.13400762 -0.003996492 0.014629045 0.015266746
0.06616869 -0.030056795 5.459401e-05 0.156617 0.000572583 -0.00290928 0.0012143549 -0.110121705
-0.0026264705 -0.002629371 0.011423979 0.17015588 -0.0012542969 -0.0019421518 0.115070894 -0.0019979246
-0.1515715 -0.0024491637 -0.002176971 0.06493257 -0.09180933 -0.0031791283 -0.0020352693 -0.003601765
-0.10275303 -0.0029179044 -0.0034578545 0.13856329 -0.013507144 0.04528037 -0.10867704 -0.0011035895
0.10157336 -0.011121257 -0.105279714 -0.01331404 -0.002452059 -0.0020293286 0.12287768 0.1298707
0.04225972 -0.00041273783 -0.0021923115 -0.0002956087 -0.000629656 -0.18110089 -0.0010924785 -0.0024356043
00000000: 8b3a feba c87b 09ba 66e7 3cbd 99f8 1abb
00000010: c146 95bb 7a53 31bb b3cf 12bb 9a80 68bb
00000020: 9554 2ebe c827 c0bd 7d61 94bd a57a 0ebb
00000030: 4b39 093e 01f5 82bb a9ae 6f3c 6021 7a3c
00000040: 7383 873d ab39 f6bc dffb 6438 3560 203e
00000050: 6519 163a 9ea9 3ebb fd2a 9f3a 7d87 e1bd
00000060: dd20 2cbb 8651 2cbb a42b 3b3c 583d 2e3e
00000070: 3867 a4ba cd8f feba 4aaa eb3d 9def 02bb
00000080: 8f35 1bbe 2682 20bb 83ab 0ebb 5efb 843d
00000090: 8806 bcbd ec58 50bb 2762 05bb 970b 6cbb
000000a0: 2e70 d2bd 503a 3fbb 2c9d 62bb 89e3 0d3e
000000b0: 114d 5dbc e977 393d 1192 debd 52a6 90ba
000000c0: b205 d03d ef35 36bc e49c d7bd 2223 5abc
000000d0: b9b2 20bb 7cfe 04bb 4ba7 fb3d d3fc 043e
000000e0: 8718 2d3d bc64 d8b9 e2ac 0fbb eefb 9ab9
000000f0: 800f 25ba 8372 39be 7f31 8fba a99e 1fbb

transformer.layers.0.0.fn.norm.weight f4 [64]
-1.8553527e-07 -1.4204155e-08 0.0154834315 7.216236e-11 2.3274093e-05 1.0821573e-06 -4.0032398e-13 -1.5602067e-10
0.14032483 1.2631988e-07 0.0417313 2.2651184e-07 0.027139656 1.5559012e-06 0.00032845497 1.2683225e-13
1.0371778e-12 -1.7740573e-05 -8.9918395e-14 0.13354015 1.5227867e-08 -4.6179537e-08 1.0630916e-09 0.0025057232
-0.00024081087 1.2372351e-09 6.2375557e-06 0.13333403 9.8767505e-06 5.1869425e-10 0.08282744 0.00019229553
0.02053546 -2.1886975e-13 1.8260385e-05 0.172213 4.0452e-05 -6.9657827e-13 -5.0881873e-08 4.322804e-09
-0.062492736 0.00074908015 -2.5789304e-09 0.096863404 3.9142524e-08 -2.190574e-05 0.13292387 4.884031e-06
0.1816027 3.864953e-05 -0.00041159833 6.553008e-07 -1.9398054e-09 -8.448184e-05 0.0013323778 0.12684096
0.1418434 1.1700228e-07 7.555116e-08 0.00090158224 -8.050977e-07 0.27599904 1.4320392e-13 9.585439e-06
00000000: 8c37 47b4 8906 74b2 38ae 7d3c ccaf 9e2e
00000010: bc3c c337 a43e 9135 c45c e1aa ea8b 2baf
00000020: 50b1 0f3e 8ba2 0734 71ee 2a3d 1a37 7334
00000030: fc53 de3c 5cd4 d035 7b34 ac39 e8cc 0e2a
00000040: 45f8 912b 97d1 94b7 6d7a caa9 c0be 083e
00000050: 6fce 8232 f056 46b3 361c 9230 0f37 243b
00000060: 2d82 7cb9 570b aa30 324c d136 b788 083e
00000070: 52b4 2537 dd93 0e30 6fa1 a93d f0a2 4939
00000080: fb39 a83c e96c 76aa e12d 9937 9b58 303e
00000090: 01ab 2938 c111 44ab 3689 5ab3 c987 9431
000000a0: 62f8 7fbd eb5d 443a 0639 31b1 5260 c63d
000000b0: a91d 2833 38c2 b7b7 321d 083e 82e1 a336
000000c0: 0ff6 393e 9e1b 2238 cbcb d7b9 eee7 2f35
000000d0: 6b4d 05b1 d82b b1b8 2ea3 ae3a 99e2 013e
000000e0: 653f 113e af42 fb33 b13e a233 2958 6c3a
000000f0: e51d 58b5 bf4f 8d3e b83b 212a 26d1 2037

transformer.layers.0.0.fn.norm.bias f4 [64]
-2.5348467e-07 2.162749e-08 -0.0025781097 -7.8544665e-10 -1.5826748e-05 8.478084e-07 -1.904599e-10 -9.1860225e-10
-0.031924587 8.307771e-08 -0.0030775105 -1.3154913e-07 0.0035753339 -1.708086e-07 -8.7689645e-05 7.026678e-14
6.840347e-13 -4.0965256e-06 -1.6870415e-14 0.026696714 7.053254e-08 6.115065e-07 -6.0094174e-10 0.00043510852
1.7620756e-05 -2.7177414e-08 -6.7073876e-07 0.025613617 -2.597421e-06 -3.931525e-09 0.015074218 9.862878e-06
-0.000114081166 -2.8438847e-11 -8.1518533e-07 0.040176902 3.4323562e-05 2.95547e-13 2.8051447e-08 3.734657e-08
0.0058541275 -2.1418837e-05 -1.3004463e-09 0.010954178 5.952146e-08 -3.3485157e-06 -0.033285137 1.2183322e-06
0.045033827 -1.2223404e-05 -0.00044081028 -3.4505726e-07 -3.753881e-09 -1.0472228e-06 0.0008167443 0.02159696
-0.011857791 -1.3284327e-06 -3.690017e-09 6.533104e-05 -5.4617548e-08 -0.045461785 -1.1539084e-13 -2.3127843e-07
00000000: ab16 88b4 5ac7 b932 81f5 28bb e5e6 57b0
00000010: afc3 84b7 f394 6335 b269 51af e380 7cb0
00000020: 5bc3 02bd 7468 b233 0fb0 49bb f33f 0db4
00000030: 2650 6a3b 8367 37b4 05e6 b7b8 0a3a 9e29
00000040: e589 402b e374 89b6 87f4 97a8 11b3 da3c
00000050: ad77 9733 6826 2435 842f 25b0 471f e439
00000060: 49d0 9337 c473 e9b2 d10c 34b5 a6d3 d13c
00000070: 5a4f 2eb6 0f16 87b1 daf9 763c bd78 2537
00000080: dc3e efb8 9726 faad 1cd3 5ab5 8990 243d
00000090: a5f6 0f38 d060 a62a c9f5 f032 fd66 2033
000000a0: fbd3 bf3b 9aac b3b7 63bb b2b0 2779 333c
000000b0: 8aa4 7f33 10b7 60b6 ff55 08bd 9385 a335
000000c0: 6475 383d 1f13 4db7 8e1c e7b9 4f40 b9b4
000000d0: 7dfb 80b1 4d8e 8cb5 c81a 563a 1cec b03c
000000e0: 2e47 42bc 9a4c b2b5 7793 7db1 5602 8938
000000f0: a194 6ab3 2336 3abd 25eb 01aa 5555 78b4

transformer.layers.0.0.fn.fn.to_qkv.weight f4 [192, 64]
2.6627294e-11 -3.1877327e-11 5.2691522e-08 -1.7814558e-06 -1.100083e-07 -1.2836913e-11 3.5115615e-11 -1.9659085e-09
-7.176511e-07 -3.821909e-12 5.4387383e-06 9.695223e-07 -8.594656e-07 1.3199457e-05 1.1023006e-09 2.591171e-10
-3.748126e-13 -5.750979e-07 9.873616e-06 -8.636717e-07 -3.729066e-12 -1.7127624e-11 -7.133053e-10 2.0139721e-08
9.386965e-11 -6.3147675e-11 -4.2119924e-10 2.4394478e-07 1.6964978e-09 -3.0540754e-08 2.0031797e-07 1.9980106e-10
7.354256e-06 -6.896901e-12 -1.3913281e-07 -2.8184985e-07 -6.792213e-10 9.718108e-06 -4.3090146e-11 -1.1082619e-10
1.0203007e-07 7.706344e-10 -1.2795595e-08 -1.8159235e-06 9.021631e-10 1.5745161e-10 -8.7065175e-08 5.148829e-12
2.943635e-07 -3.9646317e-09 8.439306e-09 -6.692488e-08 -4.3440986e-07 1.57678e-05 -2.4612936e-07 1.488788e-07
-1.05466896e-07 2.3517148e-11 1.0309758e-10 8.2953954e-07 -7.7036375e-06 -1.443867e-07 1.6994798e-08 -5.431092e-07
3.9248075e-12 5.521527e-12 6.709508e-08 9.9069604e-14 2.2672138e-10 1.6671755e-12 4.5402895e-09 1.539423e-05
-5.0013035e-08 7.6199474e-13 1.8445492e-07 1.8129139e-11 -1.4316497e-07 2.1775026e-08 5.363621e-07 8.041005e-07
-3.804576e-12 -6.3451597e-07 -3.1694447e-13 4.931871e-08 2.4311072e-05 -2.164133e-05 -8.041109e-10 8.4534335e-09
1.3675146e-05 3.5705575e-10 1.4160177e-10 -8.3459206e-08 -1.7605866e-11 -3.767573e-11 3.8961186e-08 1.7205305e-09
1.4362057e-07 -3.309767e-13 -9.0833535e-11 -8.688087e-08 6.736327e-08 1.8614362e-13 1.8780207e-11 -1.4359394e-08
2.5452293e-08 -3.9234233e-06 -1.2576449e-11 6.732848e-08 1.7257288e-09 6.425182e-11 4.6583306e-08 3.0377792e-10
1.0559415e-07 2.1611954e-10 1.2095254e-11 2.3447446e-12 -8.6891364e-14 -4.6307697e-11 -4.1768963e-08 5.0925298e-08
-1.8500721e-09 9.095576e-12 -1.895437e-08 -4.2867482e-10 -8.047707e-06 1.11978096e-07 7.112295e-15 1.3927972e-11
-2.5462107e-06 3.0120275e-06 1.4851216e-07 2.2612216e-08 -4.408974e-08 -1.7040344e-06 2.3254494e-13 2.3028857e-09
3.3651535e-08 -4.5177585e-06 -2.4001537e-08 3.3594773e-07 3.547902e-08 4.657997e-08 -1.143051e-09 -1.6630908e-07
2.2947769e-10 -8.88015e-09 1.477201e-14 -3.232989e-08 1.7078114e-10 5.271713e-07 -5.7204375e-10 9.0668567e-07
-5.4707204e-11 1.7124839e-12 3.3893825e-11 -5.2102543e-08 1.40321e-09 1.9685518e-05 -7.034105e-09 -7.7563184e-10
-4.5974335e-07 5.922185e-13 1.5009425e-07 7.81537e-09 -1.043274e-06 -5.9371177e-06 -4.387213e-12 -1.0392922e-06
-8.358204e-10 -1.0785691e-08 3.976953e-06 -2.6249086e-08 -7.853984e-12 -9.178142e-11 2.8655194e-08 -1.162353e-11
-2.394089e-08 -2.8901298e-10 3.3217948e-06 -2.5195556e-11 -1.2497579e-06 1.9911532e-11 2.5878998e-08 -7.572997e-09
-1.9806244e-08 1.6029418e-13 1.0390814e-07 2.7446017e-06 -7.47001e-09 1.073891e-08 -2.432695e-05 1.7824336e-11
1.4111752e-07 -1.42660195e-08 -3.948119e-08 7.96979e-07 9.495596e-09 -1.662728e-07 7.269009e-07 2.4225745e-11
-3.3180026e-08 -1.1916806e-10 4.7788865e-07 -9.342407e-12 -6.0409553e-07 -4.1582308e-07 -7.993326e-11 -5.655293e-10
1.9696317e-08 -3.666644e-08 1.2108047e-09 5.956835e-09 -3.4232069e-06 -2.1048425e-06 2.4760573e-06 -4.190262e-08
4.305214e-11 -4.3330988e-09 1.6562451e-09 -1.3854964e-07 1.8462503e-06 8.42174e-12 -4.9610527e-08 -1.3838452e-07
-1.08523196e-07 -1.0887324e-07 -4.6794235e-06 -4.8028877e-08 1.6184585e-07 -1.5455019e-13 1.7768496e-06 -3.7878953e-09
-2.9262866e-08 -6.5563354e-06 -2.01211e-11 -7.3778175e-09 9.987108e-09 -5.129619e-07 5.4277415e-08 -6.09895e-07
-4.07163e-08 -3.081288e-07 -6.3748806e-09 -1.109395e-09 -9.6988416e-12 2.241869e-08 4.5367794e-09 -4.176205e-08
3.9911394e-09 -2.100811e-06 -8.008435e-12 -3.4118044e-09 -3.231739e-10 -3.9552937e-08 -1.9219707e-13 -2.4391192e-11
00000000: 5637 ea2d ae32 0cae f14e 6233 5b1a efb5
00000010: b43d ecb3 51d4 61ad ab70 1a2e a118 07b1
00000020: 9ca4 40b5 b278 86ac 687e b636 8820 8235
00000030: 07b6 66b5 3c73 5d37 c17f 9730 7d73 8e2f
00000040: 3000 d3aa 6d60 1ab5 dca6 2537 11d7 67b5
00000050: 7134 83ac fba7 96ad 6612 44b0 b7ff ac32
00000060: ea6b ce2e fbdc 8aae 868e e7af 84f7 8234
00000070: 362a e930 ea2b 03b3 fc16 5734 00af 5b2f
00000080: 94c4 f636 c3a9 f2ac 8964 15b4 2651 97b4
00000090: f3b3 3ab0 f50a 2337 3183 3dae 99b5 f3ae
000000a0: a01b db33 93d4 5330 9fd3 5bb2 a8ba f3b5
000000b0: 16fc 7730 b01e 2d2f 96f8 bab3 8728 b52c
000000c0: 0309 9e34 4539 88b1 76fc 1032 58b8 8fb3
000000d0: d638 e9b4 1845 8437 c323 84b4 7edb 1f34
000000e0: 0a7d e2b3 e9db ce2d c7b6 e22e 86ad 5e35
000000f0: df3e 01b7 b708 1bb4 f5fb 9132 2eca 11b5
00000100: 8617 8a2c 7e45 c22c e915 9033 bd15 df29
00000110: 6548 792f 54a2 ea2b cf00 9c31 db22 8137
00000120: eacd 56b3 827b 562b 950e 4634 3177 9f2d
00000130: e3b8 19b4 ca0b bb32 86fa 0f35 5ed9 5735
00000140: 93dc 85ac 9b53 2ab5 836c b2aa 7fd2 5333
00000150: a1ef cb37 678a b5b7 4608 5db0 983a 1132
00000160: 4e6e 6537 214b c42f 5bb1 1b2f 2f3a b3b3
00000170: e3dc 9aad 1ab3 25ae 4756 2733 c977 ec30
00000180: 1f36 1a34 c552 baaa bcbe c7ae 4393 bab3
00000190: 59a9 9033 3f94 512a 4431 a52d 48b1 76b2
000001a0: 2fa2 da32 f3a5 83b6 4b3f 5dad 3996 9033
000001b0: af2e ed30 8f4a 8d2e e312 4833 f100 a72f
000001c0: ffc2 e233 3ea0 6d2f 2ec8 542d 2aff 242c
000001d0: 76a9 c3a9 d5a9 4bae 7665 33b3 f5b8 5a33
000001e0: a045 feb0 d502 202d 1ad1 a2b2 9eaa ebaf
000001f0: a304 07b7 9c78 f033 ac1f 0028 0206 752d
00000200: 91df 2ab6 3d22 4a36 b676 1f34 ca3c c232
00000210: 2f5d 3db3 2db6 e4b5 42e9 822a cb40 1e31
00000220: 4188 1033 4097 97b6 f02b ceb2 4e5c b434
00000230: 9861 1833 380f 4833 8819 9db0 b192 32b4
00000240: 3a50 7c2f 508f 18b2 f00d 8528 17db 0ab3
00000250: 9ec6 3b2f f082 0d35 003e 1db0 f762 7335
00000260: d69a 70ae bc02 f12b 0e11 152e 5ac7 5fb3
00000270: 10db c030 5422 a537 a4b0 f1b1 3d34 55b0
00000280: a5d2 f6b4 d7b1 262b 9829 2134 5c44 0632
00000290: 9f06 8cb5 7437 c7b6 805c 9aac cf7d 8bb5
000002a0: a2bf 65b0 f84b 39b2 c471 8536 5a7a e1b2
000002b0: 332b 0aad 59d4 c9ae 7025 f632 ba7b 4cad
000002c0: 93a6 cdb2 f6e2 9eaf 00ec 5e36 599f ddad
000002d0: 5bbd a7b5 c924 af2d 854c de32 651a 02b2
000002e0: 6422 aab2 a779 342a 1b24 df33 e62f 3836
000002f0: 7455 00b2 3a7e 3832 ba11 ccb7 d6c8 9c2d
00000300: 1786 1734 9e16 75b2 0792 29b3 fbef 5535
00000310: 1322 2332 b888 32b4 4020 4335 8717 d52d
00000320: d381 0eb3 d406 03af 4248 0035 765a 24ad
00000330: 2129 22b5 4a3e dfb4 6dc6 afae 9673 1bb0
00000340: a930 a932 2d7b 1db3 6769 a630 e0ac cc31
00000350: 3fba 65b6 eb40 0db6 572a 2636 6bf8 33b3
00000360: 6758 3d2e 57e2 94b1 f2a1 e330 3cc4 14b4
00000370: adcc f735 2528 142d 5a13 55b3 d996 14b4
00000380: 420d e9b3 b2cd e9b3 f103 9db6 4f48 4eb3
00000390: d9c7 2d34 0f02 2eaa 167c ee35 ae26 82b1
000003a0: b95d fbb2 7efe dbb6 b0fc b0ad f87f fdb1
000003b0: c493 2b32 79b2 09b5 a61e 6933 aab7 23b5
000003c0: 0ce0 2eb3 e66c a5b4 0b0a dbb1 5e79 98b0
000003d0: b39f 2aad 3893 c032 efe1 9b31 dc5d 33b3
000003e0: 6f22 8931 a8fb 0cb6 c9e2 0cad 1975 6ab1
000003f0: afaa b1af eae0 29b3 0965 58aa 158c d6ad

transformer.layers.0.0.fn.fn.to_out.0.weight f4 [64, 64]
9.078008e-06 -0.0007227788 -0.0027679245 1.1108272e-05 -6.653947e-05 1.00695e-05 5.047938e-05 1.3897593e-05
-3.0142808e-05 0.00011116537 1.203108e-05 4.1050076e-05 -0.0019260886 -0.0014096568 -3.833728e-05 0.00012676691
3.404055e-05 1.929829e-05 -5.5528137e-05 7.2009095e-07 -1.3475697e-05 5.0850063e-05 0.00042801123 0.0016568914
9.451443e-06 -4.6401474e-05 -4.1898234e-05 0.0005479786 3.8486382e-06 5.815444e-05 -0.0017087497 3.4960176e-05
-1.31867455e-05 -4.8805225e-05 -6.769947e-05 5.259472e-05 4.318523e-05 0.0010460438 1.27034955e-05 -7.287181e-05
-3.691548e-05 3.5184697e-05 -1.9264971e-06 -0.0017273979 6.718075e-05 -3.6715624e-05 2.4807274e-05 -5.2761283e-05
4.343452e-05 -5.8775993e-05 -0.0011544031 4.8659476e-05 6.798281e-05 7.34687e-06 -2.8253471e-05 1.2300465e-05
7.203352e-05 1.0791919e-05 -4.8853053e-05 6.9199064e-05 -4.3978183e-05 0.00011618363 -1.147493e-05 5.688776e-05
2.257883e-05 -0.00017689398 -0.00067526434 2.5957661e-05 -9.3385446e-05 2.243311e-05 7.5757016e-05 2.8421186e-05
-5.6555462e-05 0.00013023411 2.6843167e-05 7.486998e-05 1.49232665e-05 0.00044832943 -5.8235313e-05 0.00015270985
7.3702635e-05 5.0828578e-05 -6.987168e-05 -2.290666e-06 -2.9371267e-05 6.213993e-05 -0.0009611447 -3.3151067e-05
1.4722473e-05 -7.035022e-05 -6.56123e-05 -0.00026159518 1.1553227e-05 7.1495684e-05 0.00036197944 5.9920007e-05
-2.8465714e-05 -6.034079e-05 -6.922852e-05 0.00044596728 6.1949e-05 -0.000626061 2.7136142e-05 -9.8235345e-05
-6.0042043e-05 5.987829e-05 -7.4704562e-06 -0.0011445483 7.915997e-05 -5.4025735e-05 5.9148988e-05 -6.68587e-05
6.104165e-05 -8.529249e-05 0.00046772696 6.4137916e-05 8.9335284e-05 1.7767941e-05 -6.7366185e-05 2.6800772e-05
9.85482e-05 2.390801e-05 -6.706083e-05 9.373941e-05 -6.290953e-05 -0.0012008935 -2.7528551e-05 0.00010929194
-0.0001134042 -0.0012455637 -0.011901469 -0.000118347845 0.00020845933 -0.00014477907 -0.00019184929 -0.0001095101
0.00013559156 -0.00029596567 -0.00015572151 -0.00018602857 -0.013033436 -0.013954884 0.00014619944 -0.00034929038
-0.00018921684 -0.00016855523 0.00017402979 4.0963576e-05 0.00017085155 -0.00016982472 0.011558733 0.009151915
-3.1276424e-05 0.00017070753 0.00015908452 0.004360966 -8.5297055e-05 -0.0001785526 -0.018026246 -0.00014335453
0.00017403338 0.00016882461 0.00013913125 -0.0015638301 -0.00015762406 0.012186025 -7.538551e-05 0.00021203507
0.00014813751 -0.00014422489 6.565876e-05 0.00046846012 -0.00019537972 0.00013671529 -0.00020548902 0.00017128343
-0.00014841672 0.0001958522 -0.010982092 -0.0001651407 -0.00019417475 -0.00011284932 0.00018308203 -0.00014080615
-0.00021231966 -0.00015138983 0.00016019453 -0.00021497719 0.00015864435 0.009930482 0.0001290323 -0.00034097832
5.603785e-06 -0.00069744064 -0.0021868076 9.444324e-06 3.5847634e-06 -5.5711603e-06 -8.495217e-06 1.4762664e-05
6.931795e-07 1.0763043e-05 9.85307e-07 3.885562e-06 -0.0012624678 -0.0007514998 2.6487921e-06 1.699897e-05
1.3061915e-05 1.3048059e-05 3.6437436e-06 1.36266935e-05 -8.5752765e-07 -7.3030533e-06 -0.00023081983 0.0010950807
2.2661045e-05 8.094854e-06 6.709452e-06 0.00048321014 -8.294073e-06 -1.9869133e-06 -0.0009572987 -3.0441565e-06
2.365459e-06 7.4513046e-06 -1.6879025e-07 -0.00012335951 -1.936504e-06 0.00041083375 2.0833668e-05 1.1334462e-06
3.2136555e-07 -3.2238802e-06 9.9718945e-06 -0.0015897373 -1.1111782e-06 2.7533108e-06 1.3558749e-05 2.6086157e-06
-4.278488e-06 3.0832473e-06 -0.00048558172 -2.3708e-06 -2.6324465e-06 -5.7659254e-06 -1.1712735e-05 4.989886e-06
-6.8432513e-07 -4.505338e-06 8.605268e-06 -7.4475806e-06 2.053645e-06 -0.00046262663 2.5487732e-06 7.219321e-05
00000000: bf4d 1837 dd78 3dba 1166 35bb aa5d 3a37
00000010: 1b8b 8bb8 2cf0 2837 d2b9 5338 b529 6937
00000020: 30db fcb7 7421 e938 18d9 4937 2f2d 2c38
00000030: cf74 fcba 3cc4 b8ba 57cc 20b8 bcec 0439
00000040: c3c6 0e38 c3e2 a137 e2e6 68b8 464c 4135
00000050: ae15 62b7 d747 5538 b266 e039 0d2c d93a
00000060: a391 1e37 349f 42b8 e3bb 2fb8 39a6 0f3a
00000070: 8d23 8136 dbea 7338 20f8 dfba 34a2 1238
00000080: a43c 5db7 36b4 4cb8 e0f9 8db8 2799 5c38
00000090: ca21 3538 681b 893a 1921 5537 c1d2 98b8
000000a0: b2d5 1ab8 4893 1338 f848 01b6 db69 e2ba
000000b0: 64e3 8c38 1aff 19b8 3719 d037 ff4b 5db8
000000c0: 762d 3638 3e86 76b8 574f 97ba b717 4c38
000000d0: fe91 8e38 2285 f636 de01 edb7 185e 4e37
000000e0: b410 9738 f00e 3537 91e7 4cb8 f71e 9138
000000f0: 3775 38b8 9da7 f338 7384 40b7 c49a 6e38
00000100: ab67 bd37 9e7c 39b9 3904 31ba a7bf d937
00000110: eed7 c3b8 bd2e bc37 bddf 9e38 086a ee37
00000120: f735 6db8 748f 0839 432d e137 8403 9d38
00000130: f15e 7a37 c20d eb39 b141 74b8 bd20 2039
00000140: cd90 9a38 c530 5538 1388 92b8 58b9 19b6
00000150: 5162 f6b7 1f51 8238 54f5 7bba b00b 0bb8
00000160: 8a00 7737 fd88 93b8 5699 89b8 b626 89b9
00000170: bbd4 4137 f4ef 9538 0fc8 bd39 9e52 7b38
00000180: a8c9 eeb7 6e16 7db8 c72e 91b8 b7d0 e939
00000190: 9eea 8138 3e1e 24ba 6ca2 e337 b303 ceb8
000001a0: a7d5 7bb8 d325 7b38 bbaa fab6 ab04 96ba
000001b0: af02 a638 b199 62b8 be16 7838 7e36 8cb8
000001c0: 7c03 8038 0fdf b2b8 4039 f539 c881 8638
000001d0: 8459 bb38 5d0c 9537 f246 8db8 38d2 e037
000001e0: a9ab ce38 0f8e c837 02a3 8cb8 f695 c438
000001f0: 4cee 83b8 4d67 9dba 1ded e6b7 aa33 e538
00000200: 6bd3 edb8 2f42 a3ba 61fe 42bc 8431 f8b8
00000210: e095 5a39 d6cf 17b9 272b 49b9 caa8 e5b8
00000220: 952d 0e39 d72b 9bb9 2d49 23b9 aa10 43b9
00000230: 318a 55bc 07a3 64bc 1d4d 1939 f620 b7b9
00000240: 8268 46b9 33be 30b9 c47b 3639 4ed0 2b38
00000250: 9d26 3339 fa12 32b9 d760 3d3c eaf1 153c
00000260: ce2e 03b8 f4ff 3239 edcf 2639 6fe6 8e3b
00000270: 82e1 b2b8 d939 3bb9 c7ab 93bc 7051 16b9
00000280: bb7c 3639 8306 3139 c3e3 1139 6ef9 ccba
00000290: e347 25b9 e5a7 473c 4a18 9eb8 bb55 5e39
000002a0: 5c55 1b39 133b 17b9 47b2 8938 a79b f539
000002b0: d8de 4cb9 3b5b 0f39 8a78 57b9 8c9a 3339
000002c0: 4fa0 1bb9 ad5d 4d39 3bee 33bc 9e29 2db9
000002d0: 639b 4bb9 84a9 ecb8 b5f9 3f39 5da5 13b9
000002e0: 20a2 5eb9 66be 1eb9 e4f9 2739 806b 61b9
000002f0: c559 2639 76b3 223c d84c 0739 56c5 b2b9
00000300: 2608 bc36 73d4 36ba 8b50 0fbb 1073 1e37
00000310: c491 7036 e7ef bab6 ae86 0eb7 29ad 7737
00000320: ef12 3a35 eb92 3437 e43e 8435 b960 8236
00000330: 6479 a5ba 4c00 45ba e7c1 3136 0399 8e37
00000340: 7f24 5b37 fde8 5a37 0a87 7436 349e 6437
00000350: da30 66b5 c00c f5b6 3a08 72b9 d088 8f3a
00000360: 3918 be37 22cf 0737 c121 e136 5e57 fd39
00000370: c626 0bb7 e956 05b6 3af3 7aba 364a 4cb6
00000380: 47be 1e36 3806 fa36 b63c 35b4 115a 01b9
00000390: e3f4 01b6 2c65 d739 f6c3 ae37 ea20 9835
000003a0: 2588 ac34 d759 58b6 f64c 2737 bb5e d0ba
000003b0: cb23 95b5 85c5 3836 627a 6337 ad0f 2f36
000003c0: ef8f 8fb6 c9e9 4e36 ad95 feb9 091a 1fb6
000003d0: 16a9 30b6 ec78 c1b6 d081 44b7 cb6e a736
000003e0: 77b2 37b5 8f2c 97b6 585f 1037 3be6 f9b6
000003f0: 5ad1 0936 b28c f2b9 970b 2b36 6f66 9738

transformer.layers.0.0.fn.fn.to_out.0.bias f4 [64]
0.004402523 0.008110673 0.030047007 -0.0009303106 0.002576451 0.004420432 0.0032433385 0.0020598224
0.0019961842 0.011068609 -0.021991927 -0.0019340662 0.00990593 -0.0063194493 -0.008742361 -0.01778445
-0.017568724 -0.014732468 -0.030219166 -0.010912783 -0.008495339 -0.0022184497 -0.005078585 0.010738803
-0.00871631 0.0010995029 0.007023802 0.02657679 -0.0003114608 0.0027334045 0.0071060904 0.0031114973
-0.0019931975 -0.0036100955 0.00043110957 -0.02884015 0.0033163405 0.0010511685 -0.0017939698 0.0034302445
0.0033838903 0.00081134634 0.0044788276 0.0018930855 0.027387016 -0.01658616 -0.024641879 0.0008409519
0.0087547675 -0.028922264 0.0016663767 0.0126236435 0.0006900313 -0.004717125 -0.012019803 0.009291129
-0.016321711 -0.001106526 0.0020449094 0.0014030728 -0.026466027 0.0026535017 -0.0015097109 0.009311861
00000000: 0a43 903b a1e2 043c 2425 f63c 16e0 73ba
00000010: add9 283b 45d9 903b 318e 543b 16fe 063b
00000020: 6ad2 023b 1c59 353c 6a28 b4bc 7e80 fdba
00000030: 7b4c 223c 6213 cfbb 1f3c 0fbc b2b0 91bc
00000040: 49ec 8fbc 7360 71bc 2f8e f7bc 88cb 32bc
00000050: 0930 0bbc 6963 11bb 426a a6bb cef1 2f3c
00000060: dbce 0ebc 321d 903a ec27 e63b 91b7 d93c
00000070: 904b a3b9 eb22 333b 35da e83b 43ea 4b3b
00000080: 4ea0 02bb 5a97 6cbb 8c06 e239 2e42 ecbc
00000090: f656 593b 5dc7 893a a323 ebba f4cd 603b
000000a0: 42c4 5d3b 88b0 543a 21c3 923b 6921 f83a
000000b0: bc5a e03c b3df 87bc c4dd c9bc 5473 5c3a
000000c0: 2870 0f3c 62ee ecbc 536a da3a 66d3 4e3c
000000d0: 37e3 343a 1d92 9abb b5ee 44bc d239 183c
000000e0: 1cb5 85bc da08 91ba e303 063b 50e7 b73a
000000f0: 48cf d8bc 5fe6 2d3b 7ee1 c5ba c790 183c

transformer.layers.0.1.fn.norm.weight f4 [64]
8.0051e-14 1.8326144e-15 8.04e-43 2.23e-43 1.2955873e-15 7.862441e-08 -2.21e-43 -2.909475e-10
3.5725828e-13 -1.4787914e-08 -1.4023169e-10 1.9677577e-23 -1.6824657e-10 -1.2792001e-09 -1.882982e-11 1.1631585e-08
1.40924e-21 4.7450533e-11 -5.5e-44 6.2007006e-26 6.822779e-12 -4.5818144e-11 3.6647934e-36 -2.0991155e-08
-9.427672e-08 -2.3200114e-23 1.1937182e-08 1.2681246e-10 1.1125092e-38 2.3634783e-09 -2.6966622e-17 -1.3180269e-09
-3.3771318e-38 -1.7629509e-11 3.634822e-24 5.5498213e-16 6.423398e-12 -1.1532131e-13 6.2314e-13 7.1782646e-10
-5.3164136e-08 1.2407218e-11 -6.8549653e-13 6.181607e-17 2.5242201e-08 4.53481e-40 -1.7786366e-08 -2.746945e-11
9.29077e-08 9.110931e-12 5.817788e-08 4.4748995e-07 -1.1826794e-10 1.3052754e-12 3.31234e-26 2.823575e-07
-4.576652e-16 -1.5192328e-37 -6.412749e-10 7.4297874e-14 1.6043623e-08 -9.182862e-22 1.159e-42 -1.9568425e-11
00000000: 4242 b429 c50d 0427 3e02 0000 9f00 0000
00000010: bcb6 ba26 3ad8 a833 9e00 0080 38f3 9faf
00000020: 581e c92a ef0d 7eb2 b62f 1aaf 524f be19
00000030: 33fd 38af dacf afb0 fca0 a5ad 40d4 4732
00000040: 55f5 d41c 8db0 502e 2700 0080 9c85 9915
00000050: 210e f02c a582 49ae 11e2 9b04 0a50 b4b2
00000060: 2d75 cab3 b360 e099 4814 4d32 896e 0b2f
00000070: 3b24 7900 c06a 2231 23b9 f8a3 f325 b5b0
00000080: 59de 3781 2012 9bad 899d 8c18 74f6 1f26
00000090: d300 e22c 1bd7 01aa f865 2f2b 8c50 4530
000000a0: 9656 64b3 2445 5a2d 3bf3 40ab c489 8e24
000000b0: 30d4 d832 1ff0 0400 a2c8 98b2 b49f f1ad
000000c0: 8c84 c733 fc47 202d 41df 7933 8d3e f034
000000d0: 7709 02af 81b3 b72b e604 2415 eb96 9734
000000e0: bbe9 03a6 89c9 4e82 b645 30b0 cf4d a729
000000f0: 4dd0 8932 7ac4 8a9c 3b03 0000 2d20 acad

transformer.layers.0.1.fn.norm.bias f4 [64]
1.7163212e-13 -1.9720541e-14 3.018e-42 4.19e-43 5.87475e-16 1.6087556e-07 5.63e-43 -1.0325655e-10
-1.3017185e-12 1.718928e-08 -3.1481506e-09 3.504721e-23 1.6637822e-10 4.91825e-09 1.9219825e-11 1.0635796e-08
6.7909746e-22 9.846362e-11 1.239e-42 5.6813358e-27 1.9765602e-12 1.7086188e-10 5.194855e-35 -9.247759e-09
3.0860772e-07 7.8196184e-23 1.5184984e-08 2.6100472e-10 1.6143822e-38 1.565442e-07 1.10060525e-17 6.0462306e-09
2.768215e-39 1.21769695e-11 1.687473e-23 -2.2556854e-15 1.2480447e-11 1.485956e-14 -2.7126313e-12 -6.3089285e-09
4.677001e-09 3.317975e-10 -1.6623743e-13 -1.902615e-16 1.4345597e-08 -7.7027e-41 1.7702103e-08 -1.0651075e-10
6.330744e-08 1.8165412e-12 -4.5071094e-09 6.039675e-07 5.921012e-10 3.1853808e-11 -4.1197713e-24 3.1867495e-07
1.2361714e-15 -1.6843699e-36 -1.1106747e-09 2.13126e-13 8.656333e-09 2.857881e-21 -7.22e-43 3.819737e-10
00000000: 973d 412a 79a0 b1a8 6a08 0000 2b01 0000
00000010: 0154 2926 23bd 2c34 9201 0000 4510 e3ae
00000020: 5a33 b7ab a0a7 9332 da56 58b1 587a 291a
00000030: 4eef 362f 62fd a831 330f a92d bab8 3632
00000040: 9f3e 4d1c 1786 d82e 7403 0000 970f e113
00000050: 8b16 0b2c 58dd 3b2f 5a1a 8a06 13e0 1eb2
00000060: b9ae a534 1811 bd1a 2270 8232 267d 8f2f
00000070: 68ca af00 8b16 2834 9d06 4b23 35bf cf31
00000080: a824 1e00 3238 562d cf33 a319 0d8a 22a7
00000090: f08e 5b2d d0d7 8528 6ce2 3eac ecc5 d8b1
000000a0: 56b3 a031 5968 b62f ad2a 3baa 485b 5ba5
000000b0: 9a74 7632 b8d6 0080 560f 9832 3938 eaae
000000c0: a2f3 8733 cba7 ff2b f4dc 9ab1 5520 2235
000000d0: 6bc1 2230 3318 0c2e 3d60 9f98 5a16 ab34
000000e0: ad26 b226 544a 0f84 64a6 98b0 63f5 6f2a
000000f0: f5b6 1432 75ef 571d 0302 0080 05fe d12f

transformer.layers.0.1.fn.fn.net.0.weight f4 [8, 64]
-1.1753594e-14 -1.4461449e-15 -7.37e-43 -2.76e-43 7.1537716e-17 4.5539617e-09 2.96e-43 -9.5936835e-11
-9.998361e-13 1.5234679e-09 -1.0244729e-10 -1.1101303e-22 -5.1035606e-11 -2.2099502e-09 3.1534187e-12 4.678649e-12
3.5585584e-22 -2.2869208e-11 -2.295e-42 2.6656546e-27 3.1651903e-12 -2.2923751e-11 -1.5530936e-36 1.1507107e-09
-1.4405853e-07 -1.0811201e-24 -2.433851e-09 -4.5045714e-11 8.10567e-40 -2.064916e-09 -1.8672686e-18 1.2338867e-10
1.7108408e-38 3.5346372e-12 8.622694e-25 -1.9061379e-16 -1.2932026e-12 2.8914777e-14 1.0956038e-12 -9.2741687e-10
-3.9423025e-09 -2.0473777e-11 2.4750853e-13 -3.4850025e-18 -2.1924444e-09 1.7316e-41 3.4521062e-09 -9.622315e-12
1.5688345e-08 3.9494753e-12 -7.914418e-09 -6.391976e-10 6.6249624e-11 2.4770082e-12 -9.381028e-25 -3.3102667e-09
2.3467458e-16 -5.0247413e-38 3.8970924e-10 -4.269782e-14 1.9014737e-10 -8.4201864e-23 -4.89e-43 1.6623494e-11
2.44158e-14 5.2183227e-15 -1.953e-42 -1.822e-42 4.9887297e-16 -9.684858e-09 2.102e-42 -5.990125e-11
6.6027327e-13 -1.219762e-08 5.4858475e-12 1.4450495e-22 7.16232e-11 4.1167576e-09 4.4496065e-12 1.26717395e-11
8.955995e-23 2.943764e-11 -2.16e-43 -2.897411e-27 -4.388253e-12 5.320391e-11 2.1835803e-36 4.293415e-10
1.6028343e-07 6.746381e-24 4.0924273e-09 3.6479434e-11 -1.82749e-39 -1.7223341e-08 -1.7949464e-18 4.5382356e-10
-3.445324e-38 -4.5316745e-12 4.874179e-24 7.617008e-16 4.364385e-12 -5.491472e-14 -3.5471227e-12 6.6308814e-10
2.4967155e-09 -4.6882147e-11 -1.6685293e-13 3.0327472e-17 -5.5974865e-09 -9.074e-41 -8.170955e-09 1.646002e-11
-1.3250477e-08 -2.0409235e-11 3.705147e-08 2.1424844e-08 -6.34545e-11 -3.048923e-12 -2.5901445e-24 3.5752548e-09
4.2453073e-17 9.504845e-39 -8.200089e-10 -1.1157428e-14 -8.7604707e-10 -1.4652428e-21 6.74e-43 -1.0604862e-12
4.3629254e-14 7.192386e-15 2.479e-42 -5.02e-43 4.670185e-16 6.1206926e-08 -9.53e-43 3.7532147e-10
-1.1996673e-12 3.8263728e-08 -1.2697926e-11 -2.9123381e-22 7.218492e-11 -4.2008934e-09 -3.3281135e-11 -6.450119e-11
3.4548404e-22 -6.929173e-11 1.986e-42 -1.6850958e-26 6.1997703e-12 -1.3177166e-10 -1.04020366e-35 -1.724917e-09
3.7716697e-07 -9.990321e-24 -2.7902072e-09 2.7487138e-11 1.4790305e-38 2.1170256e-07 1.4502203e-17 5.448086e-09
2.378615e-38 7.123174e-11 3.804185e-24 -1.3222556e-15 4.830418e-12 3.2886644e-13 -4.645999e-12 4.732808e-10
-5.6575593e-09 1.3590531e-10 1.7444527e-13 -1.5582173e-16 2.339503e-08 -1.48598e-40 1.9552614e-08 -9.484159e-11
-2.2809193e-08 1.4756276e-12 -6.9901787e-09 2.9841598e-07 6.3787764e-10 -8.2879303e-13 2.0884824e-24 -1.0905049e-08
8.5404945e-16 -1.2676581e-36 1.086166e-09 -6.7458166e-15 8.3496227e-10 2.9813968e-21 -1.921e-42 6.289986e-13
-3.626238e-15 -4.2178098e-16 -2.3e-43 1.487e-42 2.9494031e-16 -3.915891e-08 1.198e-42 1.8129775e-10
1.0809256e-12 -2.3918732e-08 -8.704085e-11 1.083947e-22 -4.049661e-11 4.296063e-09 7.566441e-12 9.607628e-11
1.0646533e-21 5.8329314e-11 -3.9e-44 -2.1192956e-26 2.4227692e-12 6.377518e-11 2.34628e-35 4.5396433e-09
1.11103596e-07 3.870545e-24 3.7054326e-09 2.794013e-11 -9.222936e-39 -9.6160804e-08 1.6753006e-17 -1.896621e-09
-2.0136115e-38 -1.9732521e-11 8.887201e-24 1.3086141e-15 -7.952032e-13 -3.5510597e-13 1.4315118e-13 1.1054703e-10
3.4502374e-09 2.7131778e-11 -3.016833e-13 -2.9799754e-17 -2.3374344e-08 2.7676e-41 -1.8038532e-08 -1.21974895e-11
8.73347e-08 3.5787883e-11 2.658008e-08 -9.6837645e-08 -4.2660178e-10 -2.1121889e-13 -4.5137655e-25 -4.9259555e-08
-5.5276497e-16 3.601151e-37 -1.090811e-09 3.1061217e-14 -9.50094e-10 -2.7309794e-21 -8e-45 1.3876005e-11
00000000: e3bb 53a8 5469 d0a6 0e02 0080 c500 0080
00000010: 6af4 a424 1279 9c31 d300 0000 a3f7 d2ae
00000020: e4b6 8cab 4362 d130 b248 e1ae de34 069b
00000030: fc74 60ae dbdd 17b1 f1e6 5d2c 869d a42c
00000040: 061a d71b e128 c9ad 6606 0080 e631 5313
00000050: 00bb 5e2c b3a3 c9ad 621f 0484 0927 9e30
00000060: 82ae 1ab4 944b a797 c240 27b1 f71c 46ae
00000070: 88d3 0800 63e6 0db1 b5c7 09a2 d3aa 072f
00000080: 484b ba00 5dba 782c 036e 8517 43c3 5ba5
00000090: 8900 b6ab 7838 0229 4931 9a2b 29ed 7eb0
000000a0: dc74 87b1 d916 b4ad bd55 8b2a eb92 80a2
000000b0: e4a9 16b1 4530 0000 183a 6d31 0e47 29ad
000000c0: 09c3 8632 b6f5 8a2c faf7 07b2 88b3 2fb0
000000d0: 39af 912e d04d 2e2c 152a 9197 d47a 63b1
000000e0: db47 8725 56c9 8881 b33e d62f 3c4b 40a9
000000f0: ba11 512f 6e96 cb9a 5d01 0080 c838 922d
00000100: 00eb db28 8802 bc27 7205 0080 1405 0080
00000110: 54ca 0f26 7562 26b2 dc05 0000 68b9 83ae
00000120: b4d9 392b b38d 51b2 1f04 c12c 1eb2 2e1b
00000130: 4780 9d2e 6273 8d31 7e8e 9c2c 71ec 5e2d
00000140: ed8a d81a d677 012e 9a00 0080 7a8e 6593
00000150: df65 9aac 47fe 692e 2bc2 3904 7208 ec2f
00000160: 601a 2c34 767e 0219 5f9d 8c31 3170 202e
00000170: 4ce6 1380 87f2 93b2 9471 04a2 fd7d f92f
00000180: cf94 3b81 b271 9fac 888f bc18 998b 5b26
00000190: e38e 992c 5d50 77a9 489b 79ac ae44 3630
000001a0: af92 2b31 9b30 4eae 15dc 3baa 5cdc 0b24
000001b0: 0354 c0b1 f2fc 0080 3d60 0cb2 acc8 902d
000001c0: 37a4 63b2 8385 b3ad 8622 1f33 bb09 b832
000001d0: b589 8bae 848c 56ac 1967 4898 8cb0 7531
000001e0: bec7 4324 a47f 6700 ff66 61b0 8efe 48a8
000001f0: 55ce 70b0 d66b dd9c e101 0000 0b40 95ab
00000200: 1b7d 4429 0791 0128 e906 0000 6601 0080
00000210: e29b 0626 dd70 8333 a802 0080 cd55 ce2f
00000220: 92d6 a8ab 6a57 2433 6062 5fad 400a b09b
00000230: 7fbc 9e2e 7357 90b1 3a5f 12ae f1d6 8dae
00000240: 11d5 d01b c75f 98ae 8905 0000 41e2 a694
00000250: 9122 da2c 6de2 10af 133a 5d85 1f12 edb0
00000260: 6f7d ca34 ac3d 4199 d8bd 3fb1 88c7 f12d
00000270: 5a0d a100 5b50 6334 5cc2 8523 df31 bb31
00000280: 0e81 0101 e8a3 9c2e d32a 9318 9f8e bea6
00000290: 8af4 a92c a622 b92a 7077 a3ac 2d18 0230
000002a0: 6b64 c2b1 f26d 152f 6d68 442a 75a6 33a5
000002b0: 37f6 c832 3b9e 0180 a7f4 a732 128f d0ae
000002c0: f2ed c3b2 16ad cf2b 432e f0b1 fb35 a034
000002d0: a656 2f30 d548 69ab a896 2118 ea58 3bb2
000002e0: ba29 7626 4cae d783 1248 9530 2d0b f3a7
000002f0: 3f83 6530 9a44 611d 5b05 0080 200c 312b
00000300: 24a6 82a7 e323 f3a5 a400 0080 2504 0000
00000310: 8205 aa25 ad2f 28b3 5703 0000 c856 472f
00000320: 7320 982b d975 cdb2 a467 bfae 890a 031b
00000330: 211b 32ae 929c 9331 391c 052d 2346 d32e
00000340: c8e2 a01c 7c44 802e 1c00 0080 87e2 d194
00000350: bb7c 2a2c 3c3e 8c2e d17f f905 20fb 9b31
00000360: d997 ee33 05bc 9518 a9a2 7e31 94c3 f52d
00000370: cb6d 6480 f680 ceb3 eb84 9a23 b655 02b1
00000380: 4c43 db80 b091 adad 4ae7 2b19 5797 bc26
00000390: 6ed4 5fab 2ae8 c7aa 852c 212a 7218 f32e
000003a0: 3819 6d31 55a7 ee2d 25d5 a9aa 576d 09a4
000003b0: bac8 c8b2 264d 0000 27f3 9ab2 9c94 56ad
000003c0: c28c bb33 9365 1d2e 3752 e432 0ff5 cfb3
000003d0: dd86 eaaf b3cf 6daa bcb1 0b97 7491 53b3
000003e0: db52 1fa6 e614 f502 80eb 95b0 25e3 0b29
000003f0: 7694 82b0 d358 4e9d 0600 0080 f91b 742d

transformer.layers.0.1.fn.fn.net.0.bias f4 [8]
0.007562742 -0.015801512 0.06591329 -0.047896355 0.14913733 7.96712e-08 4.1611265e-06 0.0956235
00000000: e1d0 f73b 2c72 81bc 8cfd 863d f82e 44bd
00000010: 75b7 183e b517 ab33 ce9f 8b36 41d6 c33d
