log/SpectralFormer_pixel_pavia.pt (torch, 676636 bytes, 69 tensors)

pos_embedding f4 [1, 104, 64]
-0.017411517 -0.03235693 0.006231392 -0.0014432617 0.027294653 0.0069217887 -0.000967798 -0.037265383
0.016288891 0.054682534 -0.0019726153 0.013134264 -0.016255626 -0.0039651287 0.03836056 0.005467777
-0.06414661 -0.008285927 0.011153979 -0.0058615683 0.00403579 0.044942927 -0.05615159 -0.019508414
0.04366099 -0.0046742368 -0.007176426 0.04812927 0.014807447 -0.021483777 -0.00017714078 -0.00227585
-0.0061140857 0.007272216 -0.012864143 -0.017390741 -0.007245192 0.0013693795 -0.030593978 -0.0010380393
0.038175784 0.008449769 0.0059685586 -0.00949606 0.04688251 0.015845347 -0.041607067 -0.02964317
0.04350492 0.058465857 -0.0059339227 -0.02122797 -0.0069634183 -0.0057920623 0.007306251 -0.027797956
-0.00596632 -0.03195055 0.006759913 0.010901689 -0.01453523 0.009560507 -0.025525054 -0.05137395
-0.027975243 -0.020957872 0.058699552 0.03162599 0.0058962163 0.0065733786 -0.0050864276 0.017870547
0.011862525 0.022641582 -0.03508904 0.0012170137 0.0057469364 0.014811289 0.018645493 0.011876505
-0.047855753 0.0072454424 -0.061987575 -0.031439427 -0.008565876 0.011240911 -0.038531665 -0.025595577
-0.011041892 -0.006731227 -0.018572029 0.12881275 -0.0010886301 -0.06442311 0.00024895143 -0.0023357158
-0.000763159 -0.006135425 0.01987463 -0.019988935 0.002726167 0.017398547 -0.011740428 -0.0075873104
-0.05314524 -0.0043124785 0.011039818 0.012861458 -0.059867807 0.053817466 -0.024444133 -0.0127150575
0.017568467 -0.019530568 -0.0012129211 -0.0050712214 -0.008857404 -0.0052657817 -0.009047873 0.022009198
0.06041893 0.006007998 -0.012526668 0.008857797 -0.005635833 6.632903e-05 0.020683676 0.063778765
0.024997924 -0.032801617 0.011663252 0.0450647 0.03788797 0.011295077 -0.00064912316 0.04614203
0.025931632 0.047980532 0.076618455 0.024546884 -0.01686097 0.048886403 0.043955863 -0.012627276
-0.030944087 -0.011140419 -0.03108688 -0.028864443 0.024758792 0.0074474323 0.048453506 -0.036638215
-0.027173955 -0.009460037 -0.036318816 -0.004854236 -0.018442633 -0.063454024 0.044677187 0.0024394982
-0.018151602 0.01716816 0.04429793 -0.029348267 -0.014181522 0.0048335996 -0.05156073 -0.000690509
-0.028648963 0.0051393476 0.013669066 -0.008862013 -0.026925623 0.038707476 -0.037477985 -0.05019099
0.06686265 0.116890505 -0.007830127 -0.045213487 -0.023900092 -0.013583882 -0.030275734 0.033316843
0.044028055 -0.027015027 0.0072334097 0.019112412 -0.017650964 -0.0117576895 -0.14098227 -0.036842655
0.0033798597 -0.026986102 -0.008881635 0.038541712 0.01813461 0.005740707 -0.008947143 0.011225949
0.008762485 0.046360195 0.031497788 0.014333821 -0.021464298 -0.0032038926 0.01313093 -0.010452691
-0.05450503 -0.015149457 -0.0722692 -0.007911779 0.007001985 0.031828452 0.03629348 -0.024979863
-0.04582127 -0.014498728 -0.030979231 -0.009820177 -0.016039588 -0.066999 0.032845933 -0.003252241
0.003579674 0.010151952 0.009553236 -0.028762698 -0.002453857 0.0031016686 -0.062035732 0.00557418
-0.039136223 0.008563803 0.00561963 -0.0050604283 -0.01231161 0.10517964 -0.03822425 -0.028699571
0.037741803 7.548211e-07 0.0008225642 -0.031866636 -0.010560656 0.009710461 -0.016057754 0.01859458
0.06273911 0.01437628 0.012928365 0.009940417 0.0008180093 0.02581136 0.021919578 -0.011955935
00000000: 99a2 8ebc b388 04bd b430 cc3b d42b bdba
00000010: 0999 df3c 2cd0 e23b d3b3 7dba 96a3 18bd
00000020: 4870 853c cbfa 5f3d fe46 01bb 1931 573c
00000030: 852a 85bc e9ed 81bb f61f 1d3d 0a2b b33b
00000040: 4c5f 83bd b2c1 07bc 2ebf 363c 6612 c0bb
00000050: a93e 843b 1316 383d 36ff 65bd 1cd0 9fbc
00000060: ded5 323d 572a 99bb 3928 ebbb 3323 453d
00000070: ef9a 723c bffe afbc debe 39b9 6d26 15bb
00000080: ab58 c8bb c54b ee3b 20c4 52bc 0777 8ebc
00000090: 1369 edbb c07c b33a 39a0 fabc d20e 88ba
000000a0: 365e 1c3d e670 0a3c e693 c33b 5d95 1bbc
000000b0: e007 403d 1ace 813c 2c6c 2abd 3cd6 f2bc
000000c0: 3732 323d e579 6f3d 5a71 c2bb 48e6 adbc
000000d0: 632d e4bb 57cb bdbb 4769 ef3b 8ab8 e3bc
000000e0: 1f81 c3bb 94de 02bd 4382 dd3b ff9c 323c
000000f0: 2c25 6ebc aca3 1c3c eb19 d1bc 7e6d 52bd
00000100: 562c e5bc d8af abbc f16e 703d 418a 013d
00000110: 0c35 c13b 7f65 d73b 0cac a6bb 4165 923c
00000120: 095b 423c d77a b93c 86b9 0fbd 3484 9f3a
00000130: cc50 bc3b 0cab 723c 6fbe 983c ac95 423c
00000140: 6504 44bd 2d6b ed3b afe6 7dbd a1c6 00bd
00000150: e357 0cbc cc2b 383c 61d3 1dbd d1ad d1bc
00000160: 0de9 34bc a091 dcbb 5e24 98bc 7de7 033e
00000170: 5db0 8eba 43f0 83bd b285 8239 cf12 19bb
00000180: bc0e 48ba ad0b c9bb 1fd0 a23c d6bf a3bc
00000190: 7ea9 323b 6687 8e3c ed5a 40bc f99e f8bb
000001a0: d3ae 59bd b14f 8dbb 5ae0 343c ddb8 523c
000001b0: f237 75bd b46f 5c3d 103f c8bc d152 50bc
000001c0: bfeb 8f3c 92fe 9fbc e1fa 9eba 7d2c a6bb
000001d0: a51e 11bc 948c acbb 883d 14bc a24c b43c
000001e0: d779 773d bdde c43b a73c 4dbc 4b20 113c
000001f0: cbac b8bb 201a 8b38 d070 a93c 719e 823d
00000200: 72c8 cc3c fd5a 06bd 3917 3f3c c395 383d
00000210: 6b30 1b3d fd0e 393c eb29 2aba 6dff 3c3d
00000220: 936e d43c 3c87 443d 23ea 9c3d 8c16 c93c
00000230: 0420 8abc 1c3d 483d 100b 343d a2e2 4ebc
00000240: 747e fdbc 4e86 36bc eaa9 febc 2075 ecbc
00000250: f3d2 ca3c 9709 f43b 2f77 463d f411 16bd
00000260: ea9b debc 45fe 1abc 0ac3 14bd 4810 9fbb
00000270: 0115 97bc 2ff4 81bd 6dff 363d fddf 1f3b
00000280: abb2 94bc 3ea4 8c3c bf71 353d c76b f0bc
00000290: 9d59 68bc 2c63 9e3b 5831 53bd 4603 35ba
000002a0: 3bb1 eabc f967 a83b 38f4 5f3c fa31 11bc
000002b0: 2093 dcbc bb8b 1e3d 8482 19bd 1195 4dbd
000002c0: 49ef 883d 4a64 ef3d ef49 00bc c731 39bd
000002d0: 20ca c3bc ee8e 5ebc d104 f8bc 3e77 083d
000002e0: c356 343d 9e4e ddbc 3d06 ed3b a291 9c3c
000002f0: c198 90bc 53a3 40bc a85d 10be 53e8 16bd
00000300: a380 5d3b f511 ddbc 4784 11bc eadd 1d3d
00000310: 098f 943c 8a1c bc3b 0a97 12bc 0bed 373c
00000320: 8790 0f3c 30e4 3d3d d303 013d 67d8 6a3c
00000330: e5d5 afbc 66f8 51bb 1d23 573c c441 2bbc
00000340: ab40 5fbd 6e35 78bc e001 94bd 68a0 01bc
00000350: e870 e53b 8d5e 023d 79a8 143d 92a2 ccbc
00000360: 16af 3bbd 138c 6dbc 28c8 fdbc cfe4 20bc
00000370: 7465 83bc c636 89bd 7589 063d 8d23 55bb
00000380: f798 6a3b 5f54 263c 2d85 1c3c c09f ebbc
00000390: e4d0 20bb 5d45 4b3b 2e19 7ebd 9ca7 b63b
000003a0: 4e4d 20bd 314f 0c3c e024 b83b f3d1 a5bb
000003b0: a3b6 49bc 6c68 d73d 0891 1cbd 5d1b ebbc
000003c0: 2697 1a3d e99e 4a35 59a1 573a 9786 02bd
000003d0: 9a06 2dbc a018 1f3c 8d8b 83bc a953 983c
000003e0: 5d7d 803d 7d8a 6b3c 7ed1 533c 21dd 223c
000003f0: ad6f 563a 5872 d33c b090 b33c d3e2 43bc

cls_token f4 [1, 1, 64]
-0.017410228 -0.03235697 0.006231387 -0.0014434791 0.02729468 0.0069218106 -0.00096780504 -0.0364076
0.016288897 0.054684505 -0.0019680355 0.013134262 -0.01625558 -0.0039852825 0.038358796 0.0054677413
-0.064146735 -0.008285981 0.0111413 -0.0058724075 0.0040350887 0.04494796 -0.05615188 -0.019509142
0.049034547 -0.0046742423 -0.007176421 0.048071668 0.014806757 -0.032786023 -0.00017721039 -0.002275852
-0.0061141104 0.0072722174 -0.012864173 -0.017390953 -0.0072451867 0.0013693777 -0.030593509 -0.0010380334
0.03828537 0.008449146 0.0059685116 -0.009496065 0.047027543 -0.043772213 -0.04160626 -0.029643716
0.04429521 0.09511357 -0.005933992 -0.021227712 -0.0069634286 -0.005792064 0.007306227 -0.027827164
-0.003042661 -0.031953737 0.0067599746 0.01065439 -0.014535058 0.009560615 -0.034708653 -0.051444676
00000000: e59f 8ebc be88 04bd aa30 cc3b 1f33 bdba
00000010: 1899 df3c 5bd0 e23b 4cb4 7dba 2320 15bd
00000020: 4b70 853c dcfc 5f3d 28fa 00bb 1631 573c
00000030: 6c2a 85bc f996 82bb 1d1e 1d3d bd2a b33b
00000040: 5d5f 83bd ecc1 07bc 008a 363c 536d c0bb
00000050: c738 843b 5a1b 383d 84ff 65bd a3d1 9fbc
00000060: 73d8 483d 632a 99bb 2f28 ebbb cce6 443d
00000070: 0a98 723c a34a 06bd 8dd1 39b9 7626 15bb
00000080: e058 c8bb c84b ee3b 41c4 52bc 7977 8ebc
00000090: 0869 edbb b17c b33a 3d9f fabc 9f0e 88ba
000000a0: 1fd1 1c3d 496e 0a3c 8193 c33b 6295 1bbc
000000b0: f49f 403d 7e4a 33bd 536b 2abd 61d7 f2bc
000000c0: e56e 353d e7ca c23d ef71 c2bb bde5 adbc
000000d0: 792d e4bb 5bcb bdbb 1369 ef3b cbf5 e3bc
000000e0: 6167 47bb ece1 02bd c782 dd3b c08f 2e3c
000000f0: 7424 6ebc 20a4 1c3c a92a 0ebd a7b7 52bd

patch_to_embedding.weight f4 [64, 3]
0.12094353 0.114035845 0.12741496 0.002053959 0.0017478619 0.00476861 0.019876434 0.027925823
-0.02191148 0.21519396 0.430553 0.28138882 -0.015880868 -0.012653048 -0.011457242 -0.009742599
-0.012701852 -0.0082614245 -7.452231e-05 -0.0020396311 -0.0025170394 0.25451902 0.30350187 0.2915826
-0.027884673 -0.028355973 -0.023154743 -0.06284799 -0.09001439 -0.041692425 0.41821933 0.4652438
0.22704029 -0.020600235 -0.023204995 -0.018563604 -6.0894865e-05 -0.0036211356 -0.0014380766 0.14129008
0.29040343 0.17246927 -0.03556541 0.07130747 -0.022483146 -0.07433883 -0.07121501 -0.07611877
0.19041045 0.21463937 0.18548499 -0.009389698 -0.010752971 -0.007730424 -0.23923951 -0.38942817
-0.40761593 -0.25452682 -0.27603707 -0.3284878 -0.0012493767 -0.027744623 -0.009728794 -0.09832446
-0.140251 -0.09521914 0.32777435 0.3083714 0.37994748 0.013518227 0.014452096 0.013010219
-0.21527456 -0.313107 -0.33828905 0.008626846 0.010681911 0.008120494 -0.003072482 -0.009330656
-0.0052470327 -0.17982262 -0.314225 -0.17527226 -0.010661342 -0.011798326 -0.012933091 -0.208283
-0.25687858 -0.30631804 0.051429346 0.06259775 0.07275832 -0.009698854 -0.014296838 -0.010307335
-0.008467191 -0.0056584873 -0.0013199365 -0.018498095 -0.020887103 -0.017719468 0.17803718 0.20746268
0.19861703 0.039682694 0.061493043 0.0042611724 -0.008021079 -0.0106286025 -0.007450827 0.0049605556
0.008361398 0.0018829394 -0.008456067 -0.007136632 -0.017102063 -0.01754402 -0.01792622 -0.015436989
-0.3283842 -0.3981229 -0.2723647 0.013753308 0.0054803574 0.020229563 -0.008970623 -0.010425917
-0.0068021743 -0.002407224 -0.0043982267 -0.003822488 -0.26201183 -0.34495193 -0.292175 0.4005784
0.56423634 0.58675027 0.061369438 0.047175862 0.050172925 -0.015301564 -0.008866871 -0.020415008
0.43481988 0.31334206 0.3880223 0.30659738 0.35050628 0.32405707 -0.007825304 -0.008215497
-0.005984553 -0.25997165 -0.33848965 -0.19104002 -0.021217683 -0.05338632 -0.035560507 0.00012741952
0.00082256075 0.0011521354 -0.04864782 -0.04905795 -0.044671245 0.16379273 0.27336648 0.18437313
0.18266225 0.5805595 0.4913185 -0.16333866 -0.043498423 -0.17474353 -0.026000641 -0.026902143
-0.022710504 -0.0063870735 -0.004874324 -0.0026689486 -0.0066272267 -0.009052635 -0.0064003225 -0.028033707
-0.032976385 -0.02415245 -0.52374285 -0.55281806 -0.56066376 -0.21653184 -0.34830675 -0.1649753
00000000: 3eb1 f73d a08b e93d 1179 023e b79b 063b
00000010: 8318 e53a 0042 9c3b e7d3 a23c b2c4 e43c
00000020: b47f b3bc ce5b 5c3e 7171 dc3e 3212 903e
00000030: 9818 82bc bb4e 4fbc 28b7 3bbc 6c9f 1fbc
00000040: 6e1b 50bc ed5a 07bc dc48 9cb8 55ab 05bb
00000050: eaf4 24bb 5150 823e 9964 9b3e 514a 953e
00000060: 666e e4bc c94a e8bc 04af bdbc 72b6 80bd
00000070: 7759 b8bd adc5 2abd d820 d63e 6f34 ee3e
00000080: 407d 683e d3c1 a8bc 6718 bebc b312 98bc
00000090: 5d69 7fb8 9350 6dbb d87d bcba 59ae 103e
000000a0: c2af 943e c99b 303e 09ad 11bd a709 923d
000000b0: 932e b8bc f53e 98bd 2dd9 91bd 28e4 9bbd
000000c0: f5fa 423e 6cca 5b3e c7ef 3d3e 3fd7 19bc
000000d0: 3b2d 30bc 7f4f fdbb 34fb 74be 2163 c7be
000000e0: 09b3 d0be 5751 82be bb54 8dbe 8e2f a8be
000000f0: 20c2 a3ba b148 e3bc 8565 1fbc 565e c9bd
00000100: f59d 0fbe 4102 c3bd 0ad2 a73e dbe2 9d3e
00000110: 7a88 c23e 8e7b 5d3c 7cc8 6c3c d028 553c
00000120: ef70 5cbe 904f a0be 3934 adbe 9d57 0d3c
00000130: 2f03 2f3c d20b 053c b25b 49bb 9cdf 18bc
00000140: 4def abbb 6c23 38be 19e2 a0be 927a 33be
00000150: e9ac 2ebc c44d 41bc 51e5 53bc 2448 55be
00000160: 9785 83be b8d5 9cbe 94a7 523d 4033 803d
00000170: 5002 953d f1e7 1ebc 493d 6abc 19e0 28bc
00000180: f9b9 0abc d56a b9bb b801 adba 5189 97bc
00000190: 6e1b abbc 6b28 91bc 614f 363e 1971 543e
000001a0: 4362 4b3e 528a 223d 21e0 7b3d 4ea1 8b3b
000001b0: d86a 03bc 9723 2ebc 1126 f4bb 288c a23b
000001c0: 3ffe 083c f6cc f63a 518b 0abc 69da e9bb
000001d0: a019 8cbc 7ab8 8fbc 02da 92bc 6deb 7cbc
000001e0: f921 a8be c4d6 cbbe 6373 8bbe 8e55 613c
000001f0: 9294 b33b 78b8 a53c 85f9 12bc 77d1 2abc
00000200: c6e4 debb 84c2 1dbb 001f 90bb b582 7abb
00000210: 6a26 86be 8a9d b0be f697 95be 9d18 cd3e
00000220: cb71 103f 4435 163f 855e 7b3d 7a3b 413d
00000230: 2082 4d3d 69b3 7abc 5a46 11bc 603d a7bc
00000240: b6a0 de3e 5f6e a03e dcaa c63e 55fa 9c3e
00000250: 8f75 b33e cfea a53e b435 00bc 4b9a 06bc
00000260: 121a c4bb 011b 85be 844e adbe ff9f 43be
00000270: b5d0 adbc 9dab 5abd e5a7 11bd eb9b 0539
00000280: 1ea1 573a 4003 973a f042 47bd fdf0 48bd
00000290: 32f9 36bd 48b9 273e b1f6 8b3e 4fcc 3c3e
000002a0: d00b 3b3e 8c9f 143f 198e fb3e 4042 27be
000002b0: 672b 32bd f8ef 32be 4cff d4bc e261 dcbc
000002c0: 610b babc a84a d1bb cbb8 9fbb 87e9 2ebb
000002d0: 3529 d9bb 8151 14bc ccb9 d1bb f2a6 e5bc
000002e0: 3f12 07bd 5cdb c5bc 0314 06bf 7c85 0dbf
000002f0: a987 0fbf 86ba 5dbe 4355 b2be 49ef 28be

patch_to_embedding.bias f4 [64]
-0.032259963 0.04124623 -0.036361847 -0.16927096 -0.034274343 -0.049846865 -0.014315042 -0.13851988
-0.021901662 0.0291727 -0.19156447 -0.03638055 0.037178457 -0.11671335 -0.06302072 0.0943391
-0.06960738 -0.0024777048 0.20716381 0.16467148 -0.037083913 0.050265193 -0.16486466 0.038464863
0.16001195 0.032515 0.043576866 0.060778435 0.05488581 0.15399142 -0.094765976 -0.003019128
0.03751142 -0.03283579 -0.11007176 0.019679423 0.0055062464 0.0077081253 0.054445863 -0.022208858
0.21240252 -0.046817396 -0.047520537 -0.0066646533 0.1810225 -0.30389577 -0.00017800716 0.053103175
-0.21291907 -0.18999392 -0.0010503128 0.1375821 -0.0017437409 0.021846266 0.067973115 -0.111990854
-0.23833579 0.04286294 -0.022908129 -0.024562249 0.023758506 -0.037888262 0.3292072 0.0968754
00000000: 0623 04bd cff1 283d 29f0 14bd 5e55 2dbe
00000010: 4163 0cbd 3a2c 4cbd a389 6abc 28d8 0dbe
00000020: 1d6b b3bc 96fb ee3c 7a29 44be c603 15bd
00000030: 7048 183d 6907 efbd 0211 81bd dc34 c13d
00000040: 508e 8ebd fd60 22bb c022 543e a49f 283e
00000050: 4de5 17bd e0e2 4d3d 48d2 28be 558d 1d3d
00000060: 2cda 233e 732e 053d a87d 323d cff2 783d
00000070: f1cf 603d edaf 1d3e aa14 c2bd 90dc 45bb
00000080: 93a5 193d d27e 06bd 4e6d e1bd be36 a13c
00000090: be6d b43b 7194 fc3b a002 5f3d 5aef b5bc
000000a0: 0c80 593e 99c3 3fbd e5a4 42bd 2a63 dabb
000000b0: f65d 393e 3a98 9bbe 6fa7 3ab9 b782 593d
000000c0: 7507 5abe c48d 42be a6aa 89ba 52e2 0c3e
000000d0: 3c8e e4ba f1f6 b23c 7d35 8b3d 765b e5bd
000000e0: 4c0e 74be 0d91 2f3d d4a9 bbbc c536 c9bc
000000f0: 33a1 c23c b930 1bbd d98d a83e 9c66 c63d

transformer.layers.0.0.fn.norm.weight f4 [64]
-0.00013659209 4.4991793e-05 2.5942452e-05 0.10598571 8.4842446e-05 -0.0002513273 0.00017830398 0.07995182
-6.424808e-05 2.019171e-08 0.18719785 -0.000135089 -0.00023922721 -2.060629e-05 0.013866554 -0.0039955634
-0.00032899986 0.0014378221 0.07614422 -3.2224287e-07 0.04451902 -3.527461e-07 0.19680509 0.002126146
3.9896718e-06 0.003968458 -0.00035442438 0.12203379 -0.0023120197 -5.2825073e-09 -6.904236e-05 -0.00040941543
-4.499761e-05 7.75864e-05 0.12628752 0.07559434 -2.571584e-06 1.586848e-05 0.00038936263 -0.0005678293
0.12848932 -3.275027e-05 0.00016701792 7.4242234e-07 0.15845695 0.23003475 0.038346943 9.790354e-05
2.0210851e-07 0.1635263 1.6163058e-07 4.3146002e-08 2.2623835e-05 0.0021625804 -0.000100186226 0.065914944
0.1820118 4.3697702e-05 0.00816224 0.00016355515 -0.00015195174 -0.00023073494 0.36150628 6.185715e-05
00000000: 293a 0fb9 92b5 3c38 fe9e d937 090f d93d
00000010: 71ed b138 94c4 83b9 1cf7 3a39 c8bd a33d
00000020: edbc 86b8 0a72 ad32 cbb0 3f3e ada6 0db9
00000030: 11d9 7ab9 acdb acb7 8b30 633c 37ed 82bb
00000040: 9d7d acb9 4e75 bc3a 80f1 9b3d b900 adb4
00000050: 9359 363d 0e61 bdb4 4687 493e d056 0b3b
00000060: 05df 8536 d709 823b 09d2 b9b9 daec f93d
00000070: 4185 17bb 6d81 b5b1 d6ca 90b8 cfa6 d6b9
00000080: d1bb 3cb8 e2b5 a238 8451 013e 35d1 9a3d
00000090: 7a93 2cb6 4d1d 8537 5e23 cc39 61da 14ba
000000a0: b492 033e 565d 09b8 8821 2f39 e04a 4735
000000b0: 8a42 223e 3b8e 6b3e af11 1d3d 9051 cd38
000000c0: 2a03 5934 7073 273e ad8c 2d34 884f 3933
000000d0: 51c8 bd37 14ba 0d3b 121b d2b8 6afe 863d
000000e0: 4d61 3a3e 0d48 3738 eaba 053c 0080 2b39
000000f0: 3c55 1fb9 70f1 71b9 5a17 b93e 4eb9 8138

transformer.layers.0.0.fn.norm.bias f4 [64]
0.00013423998 -3.8691967e-05 -1.534063e-05 0.015457691 9.011406e-05 0.0020477057 1.9884295e-05 0.009343626
-5.3925e-05 9.708576e-10 0.02444913 -0.00014452354 0.00019047693 2.0051073e-05 0.015531152 -0.0013211265
0.0003157832 -0.0011937006 -0.029577088 1.1976887e-07 0.02820676 -5.7593073e-09 -0.0038825464 0.0011374927
1.0366075e-06 0.0036464622 0.00033779533 0.032256264 0.00061901903 -1.8646684e-09 -6.8310714e-05 0.0005828807
3.4377445e-05 7.1271555e-05 0.048659418 -0.04392571 -1.2033701e-08 -5.229105e-06 -0.00046608056 -0.00034424823
-0.05178947 -2.4594396e-05 0.00018073476 9.084421e-08 -0.048192035 0.03260333 -0.022258388 -9.1189264e-05
-4.8888893e-07 0.030788634 1.3967119e-09 -5.262996e-08 -0.00015877897 0.0013211519 9.457365e-05 0.017658364
0.03506287 3.616935e-05 -0.005874335 8.009535e-05 7.435136e-05 -0.00026689278 -0.033175025 9.065461e-06
00000000: c5c2 0c39 2f49 22b8 c1af 80b7 4142 7d3c
00000010: 9efb bc38 cd32 063b 33cd a637 0216 193c
00000020: 872d 62b8 046f 8530 8b49 c83c 3e8b 17b9
00000030: c3ba 4739 5a33 a837 5f76 7e3c a629 adba
00000040: b48f a539 f275 9cba a64b f2bc d199 0034
00000050: dd11 e73c 67e3 c5b1 5272 7ebb ec17 953a
00000060: 9021 8b35 7cf9 6e3b 1f1a b139 251f 043d
00000070: aa45 223a 9823 00b1 0942 8fb8 76cc 183a
00000080: 8030 1038 a077 9538 194f 473d 72eb 33bd
00000090: c7bc 4eb2 ac75 afb6 465c f4b9 377c b4b9
000000a0: 3221 54bd 1050 ceb7 9e83 3d39 2216 c333
000000b0: 0365 45bd 128b 053d 3957 b6bc dd3c bfb8
000000c0: 313c 03b5 7238 fc3c 6ef6 bf30 410b 62b3
000000d0: e87d 26b9 802a ad3a d755 c638 46a8 903c
000000e0: 159e 0f3d 8bb4 1738 7e7d c0bb ddf8 a738
000000f0: 15ed 9b38 beed 8bb9 89e2 07bd dc17 1837

transformer.layers.0.0.fn.fn.to_qkv.weight f4 [192, 64]
-8.864607e-06 -9.59006e-07 -1.6975895e-06 -0.0010827049 2.3192317e-06 4.5876943e-05 -1.0601801e-05 -0.0010776258
1.7230732e-06 -5.2220056e-10 0.0014995459 -1.556514e-06 1.615062e-06 1.3194805e-06 -0.0004628917 -5.0853792e-05
-4.2224347e-06 -1.9573507e-05 0.0012845114 4.7010786e-09 0.00012718936 -4.731543e-09 -0.00092747377 0.00015896639
4.0489186e-07 3.5905072e-05 8.6620565e-07 -0.0024558662 -1.2567292e-05 7.959688e-10 -8.9408076e-07 2.2103943e-05
-7.03881e-07 -2.2273868e-07 0.0010784483 -0.0010834936 3.4613116e-08 1.1054868e-07 -1.0889692e-05 3.0145443e-06
-0.00060759153 8.0645356e-07 8.011011e-08 -9.23685e-09 3.0457895e-05 -0.0004534558 -0.0007695622 4.0288687e-06
-4.3912024e-08 0.002550436 -7.3241424e-10 -5.611438e-08 -9.007473e-06 0.00013097125 -3.1705525e-07 -0.0011406239
-0.0013551874 -2.120389e-08 -0.00010168537 2.099192e-06 1.0397234e-07 -1.9040015e-06 0.0026218756 3.8470985e-06
-1.7075562e-06 4.7632466e-06 -4.2260535e-07 -0.0014828645 2.3475377e-06 6.182929e-05 3.301113e-06 -0.0006150629
-1.2839215e-06 -2.4118693e-10 0.0025203198 -2.2176935e-07 8.76457e-06 7.8217016e-07 -0.00016487757 1.4774852e-05
-1.0830341e-05 2.1344305e-05 0.0013928828 1.8414255e-08 -5.3052026e-05 -3.1560448e-09 0.00073731376 0.00011747076
5.3553085e-06 0.00010049367 -1.4484317e-05 -0.0015599227 -2.8961354e-06 4.3573394e-09 8.44458e-06 5.5893743e-06
-1.0194291e-06 2.3141183e-06 0.0011825623 -0.00092507456 -2.7515248e-06 -2.5829067e-06 1.3052233e-05 3.3644726e-06
-0.0014295173 -1.5005564e-07 -1.2879606e-06 -1.8839015e-09 0.00020357413 -0.00021148437 -0.0006700361 8.9406996e-07
-5.9332956e-09 0.0023170752 1.831134e-05 1.3663093e-07 -9.702275e-07 5.8355968e-06 1.5780653e-06 -0.0004969757
-0.0021093998 -2.3830557e-07 -0.00017218734 -5.952119e-07 -2.2953686e-06 -3.7152756e-06 0.0006434534 -6.365457e-06
3.4340245e-10 -2.420718e-10 -5.3937765e-10 5.242386e-07 1.063829e-09 1.5718278e-08 1.6308006e-09 -6.5112397e-07
-7.4243894e-10 1.3626864e-13 -1.283146e-06 8.6010155e-10 1.5574088e-10 2.636458e-09 2.1893797e-08 -4.9827676e-08
1.5477235e-08 -4.887599e-09 1.2074344e-07 -1.0237659e-11 -1.676521e-08 6.389908e-13 -2.3980233e-06 1.8973397e-08
9.463388e-11 1.0534261e-07 -1.0991769e-10 -1.9763588e-07 -2.713946e-08 -2.675364e-13 4.0162718e-10 5.2316955e-09
-3.2914685e-10 6.6993503e-12 6.3455093e-07 -3.4472226e-08 1.985788e-11 4.634589e-11 -7.3109585e-10 2.421019e-09
5.1396785e-07 6.589802e-11 -1.4661458e-09 5.996647e-12 -8.9792707e-07 9.1186695e-07 -9.32672e-08 1.0159855e-09
1.7023327e-11 -1.0869175e-06 4.928324e-13 -1.0251541e-11 -8.403183e-09 1.430674e-08 -4.3527534e-10 -3.9696863e-07
1.4373834e-06 -8.392783e-10 -4.1507022e-07 -1.4756748e-09 7.5581463e-10 1.13234803e-10 2.7136284e-06 -3.8607953e-10
6.0517427e-09 -2.7928289e-09 5.384618e-10 -5.08383e-07 3.64545e-09 4.8063455e-08 2.1744731e-06 -3.3602768e-07
-8.988429e-09 -5.606836e-05 1.9460404e-06 -2.7428586e-09 4.0411203e-09 5.706851e-10 -1.2581063e-08 -1.9077214e-07
1.1555777e-08 -5.3823463e-08 6.3127936e-07 -3.734609e-11 -1.090597e-07 -1.5681268e-12 2.4549315e-06 8.313651e-08
-4.9361733e-11 -3.2901107e-07 -1.3414055e-10 7.586872e-08 9.122777e-08 2.1670356e-12 1.2899568e-09 -1.2499216e-10
-7.193425e-10 1.5837593e-06 8.241907e-07 -2.239644e-07 3.7680245e-08 -1.2234941e-10 5.2255937e-09 -1.4075627e-09
-1.1187094e-06 2.6237768e-10 3.0006195e-09 -7.653881e-12 -1.2593503e-07 3.5902028e-07 -1.7064767e-07 9.31755e-10
-4.211783e-11 1.7560378e-06 -6.4030123e-13 -5.122729e-12 -9.949781e-09 8.078906e-08 2.0235946e-09 1.2070493e-07
-5.629543e-07 -3.5166434e-10 -1.1577431e-06 2.6353648e-09 1.4829192e-09 -3.5616068e-09 -6.8246356e-07 5.1588396e-09
00000000: 32b9 14b7 32b7 80b5 bbd8 e3b5 8ce9 8dba
00000010: 19a4 1b36 fe6b 4038 63de 31b7 1f3f 8dba
00000020: 5844 e735 998a 0fb0 698c c43a 6ae9 d0b5
00000030: 1cc5 d835 0119 b135 46b0 f2b9 d84b 55b8
00000040: 70ae 8db6 c931 a4b7 0d5d a83a 2087 a131
00000050: 225e 0539 1893 a2b1 b621 73ba 37b0 2639
00000060: ea5f d934 c798 1638 3385 6835 99f2 20bb
00000070: 1cd8 52b7 53cb 5a30 c300 70b5 db6b b937
00000080: 56f2 3cb5 f129 6fb4 b85a 8d3a 0304 8eba
00000090: 86a9 1433 c866 ed33 dfb2 36b7 7a4d 4a36
000000a0: c746 1fba 117b 5835 0009 ac33 19b0 1eb2
000000b0: d57f ff37 cfbd edb9 72bc 49ba b82f 8736
000000c0: c899 3cb3 3725 273b 1253 49b0 6a02 71b3
000000d0: cd1e 17b7 5455 0939 be37 aab4 fd80 95ba
000000e0: 8ba0 b1ba d923 b6b2 eb3f d5b8 d8df 0c36
000000f0: 6647 df33 fe8c ffb5 c6d3 2b3b 5316 8136
00000100: 2f2f e5b5 fad3 9f36 70e2 e2b4 ad5c c2ba
00000110: 648a 1d36 59aa 8138 b188 5d36 2c3c 21ba
00000120: 3553 acb5 0b98 84af f32b 253b 7f1f 6eb4
00000130: 8b0b 1337 53f6 5135 fce2 2cb9 82e1 7737
00000140: f6b3 35b7 8c0c b337 6491 b63a 602d 9e32
00000150: 2e84 5eb8 bae1 58b1 4a48 413a a25a f638
00000160: c0b1 b336 21c0 d238 ab01 73b7 5276 ccba
00000170: 3a5b 42b6 90b7 9531 32ad 0d37 5c8c bb36
00000180: 51d3 88b5 404c 1b36 3500 9b3a b480 72ba
00000190: d6a6 38b6 0056 2db6 eafa 5a37 33c9 6136
000001a0: a45e bbba fb1e 21b4 fddd acb5 f275 01b1
000001b0: 8476 5539 e7c1 5db9 5da5 2fba 0500 7035
000001c0: d2dd cbb1 12da 173b 4e9b 9937 d3b4 1234
000001d0: c338 82b5 65cf c336 e9cd d335 7a47 02ba
000001e0: db3d 0abb f0e0 7fb4 308d 34b9 a6c6 1fb5
000001f0: 220a 1ab6 f353 79b6 6dad 283a dc96 d5b6
00000200: 99c9 bc2f 9414 85af 5443 14b0 67b9 0c35
00000210: 2836 9230 dc04 8732 b222 e030 e6c8 2eb5
00000220: 7f14 4cb0 c36c 192a 9038 acb5 446c 6c30
00000230: 293d 2b2f 0f2d 3531 f810 bc32 1c02 56b3
00000240: cdf2 8432 c7ef a7b1 b4a5 0134 511a 34ad
00000250: 1603 90b2 24dc 332b baed 20b6 f1fa a232
00000260: 231a d02e b638 e233 29b6 f1ae bd35 54b4
00000270: 4e20 e9b2 0f9c 96aa 00cc dc2f 7bc2 b331
00000280: 4df3 b4af 62b6 eb2c 0256 2a35 9d0e 14b3
00000290: f8ab ae2d d5d4 4b2e 4cf6 48b0 045f 2631
000002a0: 9af7 0935 4ae9 902e 6b81 c9b0 fffc d22c
000002b0: 1409 71b5 05c7 7435 2f4a c8b3 d0a2 8b30
000002c0: 20bd 952d 33e2 91b5 51b8 0a2b d658 34ad
000002d0: 975d 10b2 b5c9 7532 8f4b efaf f41e d5b4
000002e0: 1eec c035 f6b2 66b0 d1d6 deb4 b1d0 cab0
000002f0: bac1 4f30 8701 f92e c81b 3636 dd3f d4af
00000300: b1ef cf31 f7eb 3fb1 e102 1430 d077 08b5
00000310: 6f83 7a31 546e 4e33 2aed 1136 4b67 b4b4
00000320: 876b 1ab2 f12a 6bb8 b898 0236 e17c 3cb1
00000330: 12da 8a31 65de 1c30 1a24 58b2 0cd7 4cb4
00000340: d886 4632 862b 67b3 3075 2935 f63f 24ae
00000350: 3434 eab3 b9b1 dcab 67bf 2436 c888 b233
00000360: 5f18 59ae f0a2 b0b4 357d 13af 45ed a233
00000370: ffe8 c333 d87d 182c 524a b130 2a6e 09af
00000380: 3abb 45b0 8e91 d435 f43d 5d35 de7a 70b4
00000390: ded5 2133 4c86 06af cf8c b331 3674 c1b0
000003a0: 9026 96b5 603e 902f 7533 4e31 04a6 06ad
000003b0: c238 07b4 5fbf c034 463b 37b4 370f 8030
000003c0: 763c 39ae 00b1 eb35 913a 34ab 713d b4ac
000003d0: 9aef 2ab2 417e ad33 740f 0b31 1e9b 0134
000003e0: ed1d 17b5 5b54 c1af c063 9bb5 d419 3531
000003f0: 95cf cb30 73c0 74b1 8a32 37b5 a241 b131

transformer.layers.0.0.fn.fn.to_out.0.weight f4 [64, 64]
0.051164426 -0.0030340923 0.0019643009 0.002411211 -0.055013128 -0.0032319212 -0.002399135 -0.0018590817
-0.0028029345 0.09172126 0.0015415929 -0.002723508 -0.0030876468 -0.030406697 0.003979487 0.0031328453
0.0026545406 0.0025016484 0.0003867704 -0.0027558883 0.0035023673 -0.0027707394 -0.0030976015 0.041809045
-6.178766e-06 0.0013542491 0.06946482 -0.0011100514 0.0031595982 -0.00290518 0.0034428723 -0.004459953
-0.014500109 0.0030342808 0.00021750959 0.0030709333 -0.0059943423 0.0030690858 -0.07673899 -0.0033450692
-0.003295022 0.002943604 -0.003105835 0.003106232 0.003089728 -0.002435095 0.003103906 0.0024953259
-0.00043504467 0.0031354062 -0.0034677961 0.005169949 0.0030861066 0.004138131 0.0030514554 0.0016218896
-0.002547362 -0.002568237 -0.0026904074 -0.003100671 -0.0024377587 -0.008733006 -0.0022783324 -0.0028823174
-0.022507653 0.0005460087 -0.00039232057 -0.00035680126 0.024532719 0.00052324426 0.00034002223 0.00021692777
0.00043956676 -0.039828226 -0.0004464828 0.0004477044 0.0006086323 0.012559058 -0.0007373898 -0.00060926384
-0.00047380387 -0.0003811835 0.0005614888 0.0005116088 -0.0006666514 0.0004759118 0.00029224306 -0.020264445
-0.00017864472 -0.00043281273 -0.029700361 0.0003060751 -0.00061090646 0.0020640597 -0.0006341968 0.001758266
0.0048750257 -0.0005622149 -0.00010831995 -0.0005731379 0.0019783136 -0.0005910014 0.033828735 0.0005229564
0.00062803755 -0.00044871276 0.00059204863 -0.0006084286 -0.0006028212 0.00043174386 -0.0005881743 -0.00039189318
0.0009242012 -0.0005901778 0.0006175351 -0.0008369398 -0.00054517866 -0.00071978325 -0.0005189517 -0.001647734
0.00039728868 0.00037393358 0.00046190567 0.00061631255 0.0019172623 0.002276373 0.00034989332 0.00052795705
0.039665144 -0.00060392317 5.7348465e-05 0.0009294831 -0.042137202 -0.00017089298 -0.0010556998 0.0001979358
-0.0003761022 0.08009776 0.0008235506 -0.0010438972 -0.00092497695 -0.02274946 0.00016615915 0.00080941094
0.0009601287 0.0009964564 -0.0009123314 -0.000997712 0.0006426058 -0.00092959905 0.00048524575 0.03563475
-0.0012309846 0.00077863946 0.056557357 -0.00085091253 0.00070949603 -0.0018961633 0.0007282896 -0.0001333279
0.0031134186 0.0008189728 1.6657446e-05 0.00062983163 0.0012842722 0.00065537944 -0.06196299 -6.944375e-05
-0.00077509275 0.00025703982 -0.00072193664 0.0008679153 0.0007597739 -0.00088483933 0.00072121987 0.00091175386
-0.0019636347 0.00059818826 -0.00034738748 -0.005542521 0.0005487315 -0.00080457475 0.000648853 0.002494672
-0.00092943636 -0.00095574383 -0.0008470506 -0.00074402645 -0.0023034643 0.0043713716 8.349974e-05 -0.0008536966
0.030726736 -0.00088708877 -0.002410144 0.001185361 -0.03561934 -0.0003171591 -0.0014755412 -0.00028579732
-0.0006533714 0.09298289 -0.0034361482 -0.0012153131 -0.0010379632 -0.014452627 0.0009131695 0.00076991785
0.0007796192 0.0013785078 -0.0031026434 -0.00087154587 0.0010149331 -0.0012807093 -0.00013304858 0.030044017
0.0018382354 -0.0034250976 0.046312816 0.0023046965 0.00086634007 -0.00080720463 0.0011783025 -0.00025781034
-0.0032257896 0.0010624743 0.0002528001 0.0007111899 1.8019296e-05 0.0007801745 -0.059879903 -0.0003560732
-0.0011697388 0.0003817675 -0.0008111471 0.0008938393 0.0007251669 -0.00066491874 0.0006831331 0.0015006029
-0.00028012358 0.0008367683 -0.00066219375 -0.0017169034 0.0007671086 0.0006768584 0.000556032 0.0005899156
-0.0014067678 -0.0014157512 -0.0008909238 -0.00074586074 -0.0006161561 -0.00022575301 -0.00053569616 -0.0006160897
00000000: ca91 513d 9fd7 46bb 80bb 003b 6805 1e3b
00000010: 7255 61bd a4ce 53bb ce3a 1dbb 6eac f3ba
00000020: 70b1 37bb 5bd8 bb3d 460f ca3a e27c 32bb
00000030: 1e5a 4abb 7717 f9bc 5b66 823b 6c50 4d3b
00000040: cdf7 2d3b b2f2 233b 72c7 ca39 229c 34bb
00000050: f987 653b 4b95 35bb 2101 4bbb f63f 2b3d
00000060: 3253 cfb6 0f81 b13a 9243 8e3d 257f 91ba
00000070: 4311 4f3b d564 3ebb d0a1 613b cc24 92bb
00000080: dd91 6dbc c9da 463b 4913 6439 b641 493b
00000090: 306c c4bb b722 493b 5529 9dbd f338 5bbb
000000a0: 4cf1 57bb 7be9 403b 448b 4bbb ed91 4b3b
000000b0: 097d 4a3b 1d96 1fbb e76a 4b3b 9f88 233b
000000c0: b516 e4b9 637b 4d3b f743 63bb ad68 a93b
000000d0: 4740 4a3b 2999 873b edfa 473b 9695 d43a
000000e0: a4f1 26bb de4f 28bb 8c51 30bb a134 4bbb
000000f0: cec2 1fbb e214 0fbc 1350 15bb 43e5 3cbb
00000100: f861 b8bc 0622 0f3a 60b0 cdb9 0e11 bbb9
00000110: d7f8 c83c 542a 093a 0345 b239 1b77 6339
00000120: a775 e639 ec22 23bd e815 eab9 deb9 ea39
00000130: 9f8c 1f3a 82c4 4d3c 644d 41ba 01b7 1fba
00000140: e168 f8b9 95d9 c7b9 e030 133a 7c1d 063a
00000150: 38c2 2eba cd83 f939 3338 9939 9f01 a6bc
00000160: 9452 3bb9 24eb e2b9 2c4e f3bc b478 a039
00000170: 3d25 20ba 2d45 073b 3a40 26ba 9e75 e63a
00000180: aebe 9f3b 9a61 13ba d529 e3b8 a23e 16ba
00000190: 98a6 013b 6fed 1aba 0090 0a3d 0317 093a
000001a0: e3a2 243a 3541 ebb9 b633 1b3a f47e 1fba
000001b0: a506 1eba ae5b e239 b62f 1aba 0377 cdb9
000001c0: 1846 723a 29b6 1aba 14e2 213a 1466 5bba
000001d0: 52ea 0eba d6af 3cba 420a 08ba c7f8 d7ba
000001e0: 2f4b d039 840c c439 ee2b f239 0990 213a
000001f0: a64c fb3a 342f 153b e371 b739 9966 0a3a
00000200: eb77 223d 9950 1eba 7289 7038 8ea8 733a
00000210: 0f98 2cbd bc31 33b9 685f 8aba fd8c 4f39
00000220: 952f c5b9 4b0a a43d 8ce3 573a 61d3 88ba
00000230: 277a 72ba 135d babc 023b 2e39 a62e 543a
00000240: 25b1 7b3a 879b 823a 8629 6fba a9c5 82ba
00000250: 8c74 283a 56b0 73ba 9568 fe39 bef5 113d
00000260: fd58 a1ba 9c1d 4c3a b0a8 673d c60f 5fba
00000270: 79fd 393a af88 f8ba b0ea 3e3a f0cd 0bb9
00000280: 7f0a 4c3b 56b0 563a 98bb 8b37 491b 253a
00000290: 0655 a83a c5cd 2b3a e7cc 7dbd 54a2 91b8
000002a0: 982f 4bba 4dc3 8639 5940 3dba cf84 633a
000002b0: 902b 473a 90f4 67ba 3f10 3d3a c402 6f3a
000002c0: 53b0 00bb bccf 1c3a 8f21 b6b9 099e b5bb
000002d0: bfd8 0f3a 19ea 52ba ca17 2a3a a77d 233b
000002e0: 6ba5 73ba e28a 7aba 9b0c 5eba c50a 43ba
000002f0: b8f5 16bb b93d 8f3b 951c af38 9cca 5fba
00000300: a3b6 fb3c 858b 68ba 82f3 1dbb 1d5e 9b3a
00000310: 96e5 11bd 6048 a6b9 f266 c1ba 11d7 95b9
00000320: 0347 2bba d06d be3d 0031 61bb 244b 9fba
00000330: 440c 88ba b6ca 6cbc c561 6f3a 50d4 493a
00000340: 5c5f 4c3a 0caf b43a b855 4bbb 7478 64ba
00000350: 8107 853a 79dd a7ba f582 0bb9 df1e f63c
00000360: f2f0 f03a 9a77 60bb 82b2 3d3d 640a 173b
00000370: 191b 633a 969a 53ba 4571 9a3a b82a 87b9
00000380: c567 53bb b942 8b3a 418a 8439 256f 3a3a
00000390: 2528 9737 a084 4c3a a144 75bd 56af bab9
000003a0: ec51 99ba f727 c839 29a3 54ba 8a50 6a3a
000003b0: 2019 3e3a f14d 2eba 4914 333a e1af c43a
000003c0: 8ddd 92b9 925a 5b3a 1297 2dba b809 e1ba
000003d0: c917 493a 336f 313a adc2 113a 91a4 1a3a
000003e0: 4b63 b8ba ba90 b9ba e28c 69ba de85 43ba
000003f0: 8985 21ba 1db8 6cb9 f66d 0cba 1481 21ba

transformer.layers.0.0.fn.fn.to_out.0.bias f4 [64]
-0.022725204 -0.019951714 -0.0076825675 0.0050210482 0.026999643 0.019559657 -0.003742524 0.009275459
0.008683004 0.010112433 -0.005402146 0.011695048 -0.018807063 -0.009958645 0.026994834 -0.030700624
-0.0076995175 0.006661649 -0.008463173 -0.016306505 0.021827342 -0.008627195 -0.0070046857 -0.026000973
-0.0031636606 -0.03577845 -0.009470644 -0.015099445 -0.020225681 -0.0043656034 0.028264068 -0.011980407
-0.024937822 0.018319745 0.010254097 -0.0023348008 -0.020416671 -0.0054851538 -0.014314046 0.0063566086
-0.008963243 0.014625845 0.021442622 0.01707714 -0.0017391234 0.007253266 -0.025471464 -0.009940309
0.004776495 0.0037679481 -0.0009318369 0.0014122115 0.012617901 -0.014529089 -0.0032473735 -0.0031289519
0.010605451 0.00520354 0.027162226 -0.009330478 -0.003365581 0.023836471 -0.004316566 -0.0041837147
00000000: 352a babc c771 a3bc 0cbe fbbb 9b87 a43b
00000010: 5b2e dd3c 933b a03c 2245 75bb 18f8 173c
00000020: 2943 0e3c 9eae 253c 7c04 b1bb 969c 3f3c
00000030: 4511 9abc 9629 23bc 4524 dd3c e07f fbbc
00000040: 3c4c fcbb f649 da3b 1fa9 0abc 3895 85bc
00000050: 41cf b23c 1459 0dbc 9087 e5bb feff d4bc
00000060: 6b55 4fbb 6d8c 12bd c32a 1bbc aa63 77bc
00000070: 54b0 a5bc 560d 8fbb 0c8a e73c 7849 44bc
00000080: 674a ccbc 4a13 963c cd00 283c 7503 19bb
00000090: dd40 a7bc cebc b3bb 7685 6abc 194b d03b
000000a0: 91da 12bc 3da1 6f3c 70a8 af3c 5ce5 8b3c
000000b0: 4cf3 e3ba ceac ed3b 88a9 d0bc aedc 22bc
000000c0: 2584 9c3b aeef 763b 8446 74ba f419 b93a
000000d0: 50bb 4e3c 6b0b 6ebc e3d1 54bb 1a0f 4dbb
000000e0: 7cc2 2d3c 7582 aa3b 5183 de3c dcde 18bc
000000f0: 1491 5cbb b444 c33c fb71 8dbb 8b17 89bb

transformer.layers.0.1.fn.norm.weight f4 [64]
-0.00010307399 -5.7478232e-21 -4.896535e-13 -3.9140395e-33 -0.0009562367 2.5005678e-34 -2.6576055e-26 -2.210727e-10
4.0798806e-21 -9.194708e-08 1.6668128e-21 6.249497e-11 -4.7446992e-08 -7.1578103e-25 -1.06672374e-07 -5.529291e-36
5.4248705e-08 6.7786787e-06 1.3631967e-15 -1.7813053e-16 0.003542826 2.8129918e-12 1.3694137e-06 3.5899946e-20
-7.6578064e-05 -3.1391585e-09 1.5575571e-13 4.2941963e-05 -5.6270485e-38 -2.7379736e-22 -6.252297e-20 -2.3149478e-05
2.9251855e-12 -6.0346933e-10 -1.0489709e-08 -1.7496654e-16 4.413317e-13 7.445019e-10 -4.747103e-31 -1.0457646e-23
-5.7486953e-28 2.788767e-24 -3.234847e-23 7.480593e-25 9.201714e-15 8.032787e-07 -2.3402369e-11 -8.3541223e-22
2.0271646e-06 3.8609536e-11 1.9821255e-23 -1.50520555e-05 3.2865636e-28 -1.08320975e-07 2.0942298e-27 -0.0001621528
-1.6228564e-11 0.0032884008 -1.795519e-24 -2.4720152e-27 5.7976e-11 -1.5319571e-12 2.5803178e-07 2.7969938e-06
00000000: 6d29 d8b8 8925 d99d 41d3 09ab 3595 a289
00000010: f5ab 7aba f530 a607 2799 0395 6f12 73af
00000020: 2f22 9a1d 7174 c5b3 b2e1 fb1c 8a6d 892e
00000030: 85c8 4bb3 0486 5d97 c213 e5b3 a630 eb84
00000040: 15ff 6833 6874 e336 1575 c426 da5e 4da5
00000050: c22e 683b 5bf2 452c b2cc b735 5f88 291f
00000060: 8998 a0b8 a9b8 57b1 875d 2f2a 951c 3438
00000070: ce2e 9981 1780 a59b d1a0 939f 2031 c2b7
00000080: 75d7 4d2c 61e1 25b0 3a36 34b2 02b9 49a5
00000090: 9a72 f82a aaa5 4c30 640d 1a8d c147 4a99
000000a0: f52e 3692 39c5 5718 776d 1c9a 5d83 6717
000000b0: 6ac3 2528 e4a0 5735 73d9 cdad e47c 7c9c
000000c0: 6c0a 0836 79ce 292e 0db3 bf19 1688 7cb7
000000d0: 8b4f d011 169e e8b3 07ec 2513 9007 2ab9
000000e0: 7abf 8ead 3682 573b ebeb 0a98 6dda 4393
000000f0: 2cfb 7e2e 929a d7ab 9e87 8a34 fdb3 3b36

transformer.layers.0.1.fn.norm.bias f4 [64]
0.00028617404 -4.4426518e-21 4.0657005e-12 -1.1955836e-32 0.0008812681 3.280218e-35 -1.6073011e-25 -3.948502e-10
8.641112e-22 -5.0859004e-08 -1.5519561e-21 4.6513772e-11 -4.7750458e-08 -3.2872154e-26 1.7997041e-07 6.6151605e-36
-2.1442695e-05 2.4742178e-05 4.5410834e-16 -3.0646033e-15 -0.0046319175 2.8304032e-12 7.594993e-07 1.9836617e-20
-3.619266e-05 -5.9576724e-08 1.8018322e-13 -1.7686058e-05 -7.255251e-38 -4.2576117e-21 -1.6536621e-19 -1.4252826e-05
1.1357537e-12 3.626792e-10 8.741248e-09 -2.369347e-16 3.0245893e-13 1.572952e-10 -5.1513764e-31 8.749079e-23
-1.3199687e-27 -1.8269821e-24 -1.3732382e-23 -7.88326e-25 3.1340723e-13 9.225716e-07 6.1550023e-12 -4.5266278e-23
1.8166043e-06 1.6341045e-10 1.9340789e-22 0.00015300738 -2.676208e-28 2.0687864e-07 1.771379e-27 -1.4147316e-05
1.2788649e-11 -0.003967485 1.9153931e-24 2.8414781e-27 6.3503175e-11 -3.1715868e-13 -1.9195237e-07 8.7844356e-08
00000000: a109 9639 b1d6 a79d 930c 8f2c 2150 788a
00000010: e704 673a 0468 2e06 68f9 4696 3a12 d9af
00000020: af94 821c 1170 5ab3 6586 ea9c da91 4c2e
00000030: 2f16 4db3 68c6 2295 e43d 4134 5cb0 0c05
00000040: d6df b3b7 6c8d cf37 48e3 0226 f4d3 5ca7
00000050: 57c7 97bb 032c 472c 65e0 4b35 ff59 bb1e
00000060: 93cd 17b8 4de1 7fb3 47de 4a2a 855c 94b7
00000070: b881 c581 18d9 a09d df3a 43a0 6c1f 6fb7
00000080: d7d7 9f2b 8f62 c72f 6a2c 1632 6495 88a5
00000090: ed44 aa2a aaf2 2c2f f62b 278d 2d8a d31a
000000a0: 4b28 d192 1c5b 0d98 bbcf 8499 9ff9 7397
000000b0: be6e b02a a3a6 7735 558f d82c f0e4 5a9a
000000c0: 0cd2 f335 f4ab 332f d8d0 691b 9b70 2039
000000d0: f59f a991 5e22 5e34 d657 0c13 425a 6db7
000000e0: f4fa 602d ad01 82bb 4532 1418 0620 6113
000000f0: 1ca5 8b2e 628b b2aa 771b 4eb4 f2a4 bc33

transformer.layers.0.1.fn.fn.net.0.weight f4 [8, 64]
-1.3360191e-06 -2.1482919e-24 -6.287908e-15 -9.235945e-36 -4.4207448e-07 1.083482e-36 8.68892e-28 -1.6293276e-13
-2.5272204e-23 -8.990258e-10 -3.0982421e-24 3.2040223e-13 5.2823853e-11 -1.8787882e-27 2.3312782e-10 -1.5113399e-38
-3.4066563e-09 -1.7623368e-08 5.606878e-18 2.1545518e-18 4.2182046e-06 6.488331e-15 -4.17479e-09 -4.674443e-23
6.3929456e-08 4.3242384e-12 -1.8758012e-16 1.2243612e-07 5.3017e-41 1.5524754e-24 -3.8637837e-22 5.9779055e-08
-1.0860943e-14 -3.286936e-12 2.1869466e-12 4.257929e-19 -1.8789471e-15 4.1308393e-12 1.7262842e-33 -4.784878e-25
3.5624893e-30 4.872062e-27 4.172834e-26 -5.025459e-27 2.38636e-16 1.5127903e-09 -2.2084614e-14 2.824346e-24
2.4520812e-09 2.896691e-13 -4.995111e-26 2.8678683e-06 1.3864343e-31 -1.3569483e-09 -4.1930903e-30 5.279568e-08
6.9541956e-16 8.182085e-06 -2.961849e-26 -2.1854501e-30 -5.967895e-14 -5.6853305e-15 -1.7971542e-10 -3.4684073e-09
-0.00038625117 7.7029595e-21 4.4253062e-13 4.13594e-33 -0.0009898604 1.6274484e-34 1.7055095e-25 -6.2383215e-10
2.5877132e-21 -9.1188134e-08 1.7741067e-21 4.669797e-11 9.0134435e-08 -2.9760594e-26 -4.6436563e-07 -2.9445999e-36
7.935794e-06 -1.663942e-05 2.3487739e-15 1.7459649e-15 0.0048145433 1.3619026e-12 -1.3582006e-06 -3.079952e-20
-2.440199e-05 5.2677755e-08 -2.0655493e-13 1.5048732e-05 7.002317e-38 1.53201e-22 5.5142806e-20 4.0117134e-06
-2.301374e-12 -3.0245248e-10 3.381066e-09 2.30407e-16 2.2557681e-13 7.0148287e-10 5.654312e-31 -1.0199878e-22
1.0585521e-27 2.435335e-24 1.4380024e-23 6.226134e-25 -9.1143144e-14 -9.4558084e-07 3.6180718e-11 7.0643587e-22
-1.5741116e-06 -1.982158e-10 -1.6229705e-22 -0.00020886745 1.9557949e-28 -2.4336163e-07 -3.1305406e-27 0.00015846727
1.4262413e-11 0.005123034 -8.319689e-24 -3.433087e-27 -7.292965e-11 8.61941e-13 7.485917e-07 -2.6050309e-06
1.9198599e-06 2.6358752e-24 4.34511e-15 1.6847691e-35 -4.750222e-06 -5.5588636e-37 2.56159e-28 -2.965119e-12
-1.07977285e-23 1.3536642e-09 3.933164e-24 -5.5571758e-14 -2.385794e-10 2.5145107e-27 -2.2245283e-10 -4.19698e-39
1.1218059e-07 -1.283186e-07 -1.18740544e-17 7.717388e-18 7.71825e-06 1.1542094e-14 2.3828173e-09 -9.6503305e-23
1.8775428e-07 1.6406466e-11 -8.6853276e-16 2.5875167e-07 2.20525e-40 -9.278292e-24 -2.5763505e-21 -8.138275e-08
8.169803e-15 -1.4307822e-11 1.0221579e-11 3.0952104e-18 2.0255664e-15 2.6127705e-12 4.3572917e-34 -9.616654e-26
-7.330595e-30 8.110919e-27 -1.2852916e-25 -1.06018615e-26 2.866278e-16 -3.1953549e-09 -2.2263162e-13 -1.9662145e-24
-2.5036304e-09 4.4448668e-13 -1.9706024e-25 -9.818253e-06 -1.5918247e-30 -1.6287486e-09 -2.0558527e-29 2.8735082e-07
1.0443565e-13 1.5057373e-06 4.243602e-26 -7.978574e-30 -3.1400623e-13 -1.5038416e-14 -1.2929477e-11 -1.7889185e-08
1.8228166e-05 -3.0171668e-22 -1.211652e-13 -1.147143e-33 2.661008e-05 3.3006834e-35 1.2815234e-26 7.8257765e-12
-1.7699194e-22 -2.3151683e-08 2.5874698e-23 1.4486485e-11 3.740742e-09 4.4946802e-27 1.3363163e-08 4.116592e-37
3.220662e-07 1.2627048e-06 3.3687088e-16 -1.8693604e-16 -0.00018713946 1.2509178e-13 2.1596303e-08 4.5339827e-22
-8.7902745e-06 2.6772002e-09 8.5196395e-15 5.9369626e-08 -1.91157e-39 -3.353589e-22 2.2692307e-20 2.780378e-07
7.36855e-13 1.9520191e-11 6.977964e-10 -3.7630157e-17 3.3759786e-14 2.9553283e-11 -2.7856142e-32 2.8562754e-24
-1.4687358e-28 -8.959889e-26 1.1899732e-24 -1.2505828e-25 6.908825e-14 1.9336602e-08 7.72989e-13 9.721238e-23
-5.2391535e-08 -3.613454e-11 1.7990594e-24 0.000261381 1.5751481e-29 3.1808764e-08 8.403141e-29 1.3858828e-07
1.4934546e-12 -0.000111236084 -6.83957e-25 1.5455606e-28 -7.9898116e-13 3.9273714e-13 -2.9353389e-09 -5.3838303e-08
00000000: 4451 b3b5 4e37 2698 b78b e2a7 456d 4485
00000010: 4156 edb4 4c58 b803 72ae 8912 2c72 37aa
00000020: f26a f499 511f 77b0 02b7 6f98 d45e b42a
00000030: 5f52 682e 5ada 1493 d329 802f 0292 a480
00000040: 881a 6ab1 3262 97b2 77db ce22 55fa 1e22
00000050: 1a8a 8d36 4ac4 e927 d771 8fb1 cd0a 629a
00000060: 9749 8933 4725 982c e143 58a5 fc76 0334
00000070: ca93 0000 e33b f017 288d e99b e25f 8033
00000080: 42a7 43a8 2d4c 67ac 87e4 192c 0158 fb20
00000090: 7564 07a7 4b57 912c 016a 0f09 b615 1497
000000a0: 0183 900e 9400 c113 f5a0 4e15 3514 c793
000000b0: 7590 8925 94ea cf30 a7eb c6a8 f085 5a18
000000c0: 7881 2831 b811 a32a 8e58 7795 9a75 4036
000000d0: 2ff8 330c 607f bab0 8a17 aa8e 77c1 6233
000000e0: e870 4826 ca45 0937 e6a9 1295 064e 318e
000000f0: 9362 86a9 ebd5 cca7 6599 45af de58 6eb1
00000100: c181 cab9 3a81 111e 621f f92a dccc ab09
00000110: 34be 81ba 3353 5807 c121 5316 497a 2bb0
00000120: a785 431d 35d3 c3b3 370c 061d 3d61 4d2e
00000130: ee8f c133 095e 1395 ed4d f9b4 b57f 7a84
00000140: fa23 0537 e294 8bb7 3b3f 2927 bc9e fb26
00000150: 51c3 9d3b b6ab bf2b 6b4b b6b5 5672 119f
00000160: e0b2 ccb7 ce3f 6233 688f 68aa d079 7c37
00000170: 079f be01 6a35 391b c833 821f 5b9c 8636
00000180: def1 21ac 6746 a6af 5858 6831 12d2 8425
00000190: 17fa 7d2a 78d2 4030 307e 370d 309e f69a
000001a0: f9bb a712 c76c 3c18 3713 8b19 84b0 4017
000001b0: 723c cda9 d2d3 7db5 de1f 1f2e d481 551c
000001c0: 1046 d3b5 caf0 59af 8134 449b 6e03 5bb9
000001d0: 2ced 7711 5ea7 82b4 e806 7893 3c2a 2639
000001e0: 33e8 7a2d 20df a73b 1bed 2099 a3ff 8793
000001f0: be5f a0ae 659d 722b d4f2 4835 17d2 2eb6
00000200: f1d6 0036 e3f0 4b18 918c 9c27 c727 b305
00000210: 1964 9fb6 8828 3d83 2d5c a211 d6a6 50ac
00000220: c3db 5099 d30b ba30 2b28 9818 e045 7aa9
00000230: 1129 83af 5638 4713 e896 74af 79b3 2d80
00000240: eee7 f033 f3c7 09b4 a309 5ba3 565c 0e23
00000250: a27d 0137 83ec 4f28 f7be 2331 a754 e99a
00000260: 8199 4934 1450 902d 6856 7aa6 8fea 8a34
00000270: bc66 0200 e077 3399 dea9 429d a4c4 aeb3
00000280: 912c 1328 b4b4 7bad e6d1 332d df62 6422
00000290: 1bf5 1127 7ddb 372c bdcb 1008 c918 ee95
000002a0: a0ae 148f 3fa7 2014 841c 1f96 d3fd 5194
000002b0: cc3a a525 4795 5bb1 32a9 7aaa e420 1898
000002c0: 550c 2cb1 4839 fa2a e2f2 7396 13b9 24b7
000002d0: e824 018e 7fda dfb0 fd7c d08f 3245 9a34
000002e0: 0e2b eb29 bd18 ca35 0c22 5215 20d3 218f
000002f0: 11c5 b0aa 3a74 87a8 3075 63ad bcaa 99b2
00000300: b0e8 9837 6560 b69b 7e6b 08aa 119a be88
00000310: b638 df37 937e 2f06 f5d4 7d14 2aac 092d
00000320: 5af8 559b 17df c6b2 a63e fa19 54d9 7e2d
00000330: ea87 8031 790d b213 d093 6532 9314 0c03
00000340: 71e8 ac34 357a a935 5e31 c225 c885 57a5
00000350: de3a 44b9 40d7 0c2a c682 b932 fe07 091c
00000360: f179 13b7 cef9 3731 e779 1928 98fd 7e33
00000370: aed0 1480 47b6 ca9b a252 d61e 3945 9534
00000380: 0068 4f2b 90b3 ab2d 0ecf 3f30 d989 2da4
00000390: 620a 1829 0afa 012e 2aa3 108b 5dfe 5c18
000003a0: 342f 3a91 0bd6 dd95 b223 b817 8dd0 1a96
000003b0: aa92 9b29 a319 a632 ba93 592b 8c0b eb1a
000003c0: 1a05 61b3 e0eb 1eae 0b32 0b18 f709 8939
000003d0: 2fbd 9f0f 1b9e 0833 810b d510 dbce 1434
000003e0: 5f2f d22b 6b47 e9b8 a8ac 5397 4fec 4311
000003f0: a9e4 60ab 6317 dd2a 07b7 49b1 d73b 67b3

transformer.layers.0.1.fn.fn.net.0.bias f4 [8]
1.0465028e-05 0.066666774 -7.750469e-06 0.0003180939 2.3564862e-05 2.7795375e-05 8.235346e-06 0.01221886
00000000: f492 2f37 9788 883d 0308 02b7 d7c5 a639
00000010: 28ad c537 1d2a e937 8b2a 0a37 9d31 483c

transformer.layers.0.1.fn.fn.net.3.weight f4 [64, 8]
8.752769e-06 -0.00342461 -1.4865251e-05 0.00037861953 0.00012673353 -3.8923754e-05 -9.148887e-07 0.0005037413
1.8434272e-05 -0.00038559368 9.936492e-06 0.00035488768 -0.00026438799 0.000112226095 -1.6854008e-06 0.0006078769
-2.3365183e-05 -0.0062284577 -2.0435964e-06 4.0598352e-05 -0.00028494216 3.5162986e-05 -2.2755503e-06 -0.003093869
2.3939134e-05 -0.019366963 9.798285e-06 0.00013622457 -0.001046229 -8.663686e-05 -2.4455778e-05 -0.006816649
-1.9462625e-06 -0.000115391675 -1.6944787e-06 -0.00020208141 4.606418e-05 -1.1374201e-05 7.3522738e-06 0.00019914031
1.7773814e-06 -0.0128679015 -2.0348467e-05 0.00011364474 0.00017509235 -7.385905e-05 2.1017925e-06 -0.002042629
-1.5152677e-05 -0.004006651 -1.1657666e-05 -9.141657e-05 0.00017281043 -0.00011079989 -3.6418996e-06 -0.0007280935
-8.368373e-06 -0.025319915 1.1798274e-06 -4.7585538e-05 0.00023609665 -2.4455487e-05 -3.1385448e-06 -0.00877746
-1.4139423e-05 -0.0013393521 7.122879e-07 -0.0005260791 6.5707114e-05 -2.7065977e-05 -1.6671809e-06 -0.0011306077
-1.8376279e-05 -0.0015408745 -8.464457e-06 -0.00028602828 0.00041237375 -7.029321e-05 3.0733036e-06 -0.00038878934
5.8876325e-05 -0.04683179 -1.4573115e-05 -0.000351152 -0.00042588406 -0.00015387157 2.1568701e-05 -0.039675765
3.800786e-06 0.0005988327 -7.752893e-06 -0.00025184816 0.00020358432 -4.9733808e-05 3.7929133e-06 0.0006526439
2.2307502e-06 0.0029713456 8.343896e-06 -3.0957697e-05 5.1731393e-05 3.7147503e-05 3.3304243e-06 0.0022977379
1.4382533e-05 0.020857763 -2.8188046e-05 0.00071155245 0.00014372681 -0.000110861736 -1.4859356e-06 -0.0016364452
-5.2257524e-06 0.005065406 -7.4388536e-06 2.840634e-05 0.0002365343 -6.1515115e-05 9.805124e-07 -0.0032871026
3.051575e-06 0.008906111 3.212761e-05 -0.0003832588 -0.00037907343 0.00020452024 5.2529867e-06 0.0021449155
2.6079011e-05 0.0024692896 -1.3717217e-05 0.0007352614 5.6639466e-05 -2.6861682e-05 1.7117704e-06 0.0015315685
-1.256689e-06 -0.0021778408 4.840733e-06 1.9912159e-05 -0.00011455017 2.7479664e-05 7.689102e-07 -0.00014189538
1.4988856e-05 0.004269988 -2.8882536e-05 0.00047661655 0.0013517152 -0.00012586139 1.5645335e-05 -0.01222054
6.30723e-06 -0.034820903 -6.998354e-06 -0.00021285797 0.0009873561 -1.0036998e-05 1.4116673e-05 -0.0046617854
-1.4319158e-06 -0.0022169584 1.3910882e-05 -0.000249438 -0.0003435008 4.778192e-05 -4.1806697e-06 -0.0018390688
6.8244935e-06 -0.011822799 1.5148271e-05 -0.00026847763 -0.000369922 9.1817295e-05 -1.7666456e-06 -0.0008779642
-3.3537028e-05 0.160617 1.8339655e-05 0.0004782328 -0.0010474353 0.0002116553 3.5020885e-06 0.04738099
3.11776e-05 -0.0007441748 2.0196741e-05 0.0005321087 -0.00037594335 0.00012570302 1.8386121e-06 -0.0009179293
-1.452175e-05 -0.0500838 -5.951127e-06 -0.0003999348 0.00058483175 2.5747477e-05 5.8640244e-06 -0.0045116153
1.3335599e-05 -0.00915429 1.733878e-05 0.0001313693 -0.00017278158 9.778492e-05 7.6256442e-06 -0.0043395674
-2.2648858e-06 0.0036276814 -6.0975804e-06 0.00015817695 4.4750243e-05 -4.3751675e-06 1.0547565e-06 0.0020295575
4.5804893e-05 -0.041965757 -5.2396563e-06 -0.00028995497 0.0008023828 -0.00028105883 2.4284209e-05 -0.016363569
1.7358885e-05 0.007960008 1.0606229e-05 0.00019098817 -0.00013267105 6.5951856e-05 4.078692e-06 0.0017596768
-1.4205275e-05 -0.061777905 -7.2340636e-06 -0.00037810107 0.0004443765 6.469913e-05 4.3798966e-05 -0.016456615
-5.8386913e-06 -0.012494236 -2.289061e-05 -0.00012513147 0.0003461518 -0.00013432727 4.006386e-06 -0.0021826806
6.9945054e-06 0.0021273461 2.089309e-05 -0.0002759634 -0.00018249692 0.00010719023 2.2593947e-06 0.0018083743
00000000: dbd8 1237 6c6f 60bb c465 79b7 7481 c639
00000010: c6e3 0439 1042 23b8 ac96 75b5 820d 043a
00000020: 4ca3 9a37 8229 cab9 e8b4 2637 3810 ba39
00000030: 8e9d 8ab9 ed5a eb38 ee35 e2b5 ee59 1f3a
00000040: 5900 c4b7 1718 ccbb b824 09b6 2648 2a38
00000050: 4a64 95b9 f87b 1338 a8b5 18b6 82c2 4abb
00000060: e6d0 c837 77a7 9ebc 5063 2437 81d7 0e39
00000070: 9f21 89ba cfb0 b5b8 6226 cdb7 325e dfbb
00000080: 899c 02b6 6ffe f1b8 d86d e3b5 d1e5 53b9
00000090: 0935 4138 d2d3 3eb7 8db3 f636 52d0 5039
000000a0: 5c8e ee35 e4d3 52bc 00b2 aab7 8e54 ee38
000000b0: ff98 3739 c7e4 9ab8 850c 0d36 a1dd 05bb
000000c0: 4138 7eb7 3a4a 83bb 4b95 43b7 e6b6 bfb8
000000d0: 7234 3539 3d5d e8b8 5c67 74b6 87dd 3eba
000000e0: e365 0cb7 b66b cfbc 905a 9e35 9596 47b8
000000f0: b690 7739 c225 cdb7 ca9f 52b6 56cf 0fbc
00000100: 5c38 6db7 338d afba 0d34 3f35 92e8 09ba
00000110: 3dcc 8938 be0b e3b7 e6c3 dfb5 e630 94ba
00000120: c226 9ab7 2bf7 c9ba 9102 0eb7 11f6 95b9
00000130: de33 d839 616a 93b8 f43e 4e36 6cd6 cbb9
00000140: f9f1 7638 b1d2 3fbd 0d7f 74b7 d31a b8b9
00000150: 3149 dfb9 9658 21b9 6fee b437 0e83 22bd
00000160: 0211 7f36 fbfa 1c3a 6c12 02b7 7d0a 84b9
00000170: 4079 5539 4599 50b8 c189 7e36 3116 2b3a
00000180: ffb3 1536 e8ba 423b c3fc 0b37 93d8 01b8
00000190: 29fa 5838 d4ce 1b38 4180 5f36 a595 163b
000001a0: 824c 7137 e6dd aa3c 5e75 ecb7 7a87 3a3a
000001b0: 5fb5 1639 717e e8b8 5c70 c7b5 fd7d d6ba
000001c0: df58 afb6 b5fb a53b 449b f9b6 274a ee37
000001d0: 3106 7839 ad01 81b8 269a 8335 6e6c 57bb
000001e0: a9c9 4c36 f0ea 113c c2c0 0638 20f0 c8b9
000001f0: 60be c6b9 7c74 5639 d042 b036 b691 0c3b
00000200: 40c4 da37 ced3 213b 0023 66b7 8fbe 403a
00000210: 2a90 6d38 0655 e1b7 fcbf e535 e9be c83a
00000220: 81ab a8b5 1bba 0ebb 946d a236 0909 a737
00000230: a73a f0b8 2184 e637 1b67 4e35 c0c9 14b9
00000240: a578 7b37 41eb 8b3b c648 f2b7 64e2 f939
00000250: 092c b13a a9f9 03b9 1a3e 8337 a938 48bc
00000260: b1a2 d336 5da0 0ebd 67d3 eab6 a032 5fb9
00000270: 2c6a 813a 9464 28b7 a6d6 6c37 e4c1 98bb
00000280: 4130 c0b5 644a 11bb c962 6937 00c7 82b9
00000290: e617 b4b9 7269 4838 ae47 8cb6 e90c f1ba
000002a0: f4fd e436 6ab4 41bc 5425 7e37 75c2 8cb9
000002b0: 17f2 c1b9 098e c038 7b1d edb5 2e27 66ba
000002c0: 1caa 0cb8 c878 243e 1cd8 9937 52bb fa39
000002d0: 194a 89ba c9ef 5d39 6c05 6b36 9212 423d
000002e0: b1c4 0238 ba14 43ba 2c6c a937 367d 0b3a
000002f0: 431a c5b9 26cf 0339 3bc6 f635 31a1 70ba
00000300: 71a2 73b7 ac24 4dbd cbaf c7b6 57ae d1b9
00000310: 654f 193a 49fc d737 96c3 c436 2cd6 93bb
00000320: f6bb 5f37 e0fb 15bc bf72 9137 2ec0 0939
00000330: b42c 35b9 e111 cd38 c9df ff36 ee32 8ebb
00000340: 71fe 17b6 65be 6d3b d199 ccb6 4ddc 2539
00000350: 35b2 3b38 67ce 92b6 2891 8d35 5302 053b
00000360: a11e 4038 49e4 2bbd 4ed0 afb6 1905 98b9
00000370: 0057 523a 145b 93b9 f1b5 cb37 e40c 86bc
00000380: ec9d 9137 b26a 023c 68f1 3137 ff43 4839
00000390: 9d1d 0bb9 a24f 8a38 b3db 8836 f5a4 e63a
000003a0: 3153 6eb7 d40a 7dbd 22bc f2b6 de3b c6b9
000003b0: 34fb e839 15af 8738 c8b4 3738 06d0 86bc
000003c0: fae9 c3b6 a0b4 4cbc 3605 c0b7 b935 03b9
000003d0: b57b b539 34da 0cb9 986e 8636 4e0b 0fbb
000003e0: 58b2 ea36 f26a 0b3b 9243 af37 2eaf 90b9
000003f0: a55c 3fb9 51cb e038 1ba0 1736 f906 ed3a
