log/SpectralFormer_pixel_houston.pt (torch, 934300 bytes, 69 tensors)

pos_embedding f4 [1, 145, 64]
000000 3c d6 b7 3b 45 c5 a5 bc c4 d8 ac 3b 6e ae 2b ba
       0.0056102555 -0.020235667 0.005274864 -0.00065491244
000010 3c 05 3a 3c d7 8f aa b9 65 c2 ba bb 15 f5 de bc
       0.011353787 -0.00032532096 -0.005699443 -0.027216474
000020 c6 b1 79 bc 40 9b 87 bb b6 1e ed 3b a7 82 b6 3c
       -0.015240138 -0.0041383803 0.007236327 0.022279097
000030 6b 2e 06 bd f1 d4 d0 3b 17 eb 6c bb b7 79 3c bc
       -0.03275911 0.006373041 -0.0036150867 -0.011503628
000040 e1 e5 a9 3c e0 ca 29 3a 46 5d 04 3b c8 24 83 3c
       0.020739498 0.0006477069 0.0020197197 0.01600875
000050 57 83 bb 3a ad 59 7d 3c 4d 38 90 3c 44 64 a2 3b
       0.001430611 0.015463275 0.017604971 0.0049558003
000060 b2 e8 a3 3b 93 e4 9c 3b 66 0d c5 3b 42 08 b1 3c
       0.0050021047 0.0047879904 0.00601356 0.021610383
000070 c6 46 87 bb be ad 25 b9 82 a8 66 3c b7 c7 fd bb
       -0.00412831 -0.0001580035 0.014078261 -0.007744755
000080 b9 a9 b5 ba 35 8a 48 bc 44 b0 3b 3b e5 4d e1 bc
       -0.0013859785 -0.012239982 0.0028638998 -0.027502963
000090 7c 10 e2 3b dd 61 b0 3a 49 10 ae 3c 8e 6c 73 3c
       0.0068989377 0.00134569 0.021248 0.014857424
0000a0 88 94 e9 b9 9e 0b 7e 3b 96 ce 80 bb e0 e5 3e bd
       -0.00044551888 0.0038764249 -0.003930877 -0.046605945
0000b0 d6 e8 87 bb 72 91 49 3c 15 cc c1 bc 90 7b d9 b9
       -0.0041476293 0.012302743 -0.023656884 -0.00041481527
0000c0 46 21 d7 3b cd 32 06 bb 9d 9d a9 3b f1 2b 6d bc
       0.006565246 -0.0020477057 0.0051762597 -0.0144758085
0000d0 86 a2 b0 3a 6e c5 1a bc 87 99 44 3c 69 45 95 ba
       0.001347617 -0.009446485 0.011999494 -0.0011388484
0000e0 61 5f f4 bb 41 2f 0c 3b 36 e0 52 3c a6 aa fa 3c
       -0.007457659 0.002139047 0.012870839 0.03059895
0000f0 84 05 de bc 78 95 b8 3b ba 3c 1a 3c b9 d2 a0 ba
       -0.02710224 0.0056330524 0.009413892 -0.0012269831
000100 b3 a8 66 bc 9c f8 0d bd 77 26 a1 bc 24 2a 74 3b
       -0.014078307 -0.03466092 -0.019671662 0.0037256563
000110 ed 06 75 bb ab 7d 72 bc 56 d6 22 3d 63 af ee 3b
       -0.0037388161 -0.014800469 0.039755188 0.0072840913
000120 b5 b1 c5 3d 60 1d 18 3d 6a 2d fb bb a7 8c 66 bd
       0.096530356 0.03713739 -0.007665326 -0.05628648
000130 fd f6 87 3d 6b d7 f0 3c e7 17 05 3d 44 a6 90 bc
       0.06638906 0.029399594 0.0324935 -0.017657407
000140 bd 8a 41 bd aa 1b e0 3c df 8c 68 3c cc 45 5c 3d
       -0.04725145 0.027356941 0.014193743 0.0537775
000150 0d c7 57 3c b1 37 1d bd 5d fc 11 bd d5 bb d3 3c
       0.013170016 -0.03838319 -0.035641063 0.025846401
000160 3c 18 a2 3c db 62 7b bb 12 66 00 bd 65 0e 1b bd
       0.019786946 -0.0038358483 -0.03134734 -0.037855525
000170 3c a7 c6 3b 40 19 0f bd 17 6a cc bc fa 79 98 3c
       0.0060624164 -0.03493619 -0.024952931 0.01861285
000180 55 8b 93 3c 9c f8 1d bd 53 a4 a7 bb 6f 60 34 bd
       0.018010775 -0.03856717 -0.0051160245 -0.04403728
000190 58 bb b4 bc c0 d5 74 bc 72 b9 45 3d 83 e5 3e ba
       -0.022061989 -0.01494354 0.048272558 -0.0007282125
0001a0 60 44 0b 3c 6c 22 8d 3c cf b1 c7 bc bf c0 89 3b
       0.008500189 0.017228328 -0.024376778 0.0042038853
0001b0 cb 11 91 3c b3 05 50 3c a1 dd 92 3c 92 fe 10 3d
       0.01770868 0.012696671 0.017927947 0.035399027
0001c0 15 32 46 3d 0e 0b 77 bd b8 81 12 3c a8 a9 0e bd
       0.048387606 -0.060313277 0.00894206 -0.034829766
0001d0 9a 18 8b bb 78 fb 4c 3d b1 2c 7d bc e0 b5 c5 3c
       -0.004244876 0.050044507 -0.01545255 0.024134576
0001e0 d0 87 73 bd 07 96 18 bc dc 58 e1 bb 97 e4 92 bd
       -0.059455693 -0.009313113 -0.006877048 -0.07172506
0001f0 26 63 58 bd b9 55 b3 bc 7d 07 13 bd 7e 8e af bb
       -0.05282893 -0.021891462 -0.035895813 -0.0053575626
000200 f0 b2 93 bb 3a c6 d9 bc 25 e1 86 bc 10 3e 1b 3b
       -0.004507415 -0.02658378 -0.01646478 0.0023688115
000210 17 4f ed 3a 81 2e 68 bc c8 f2 37 3d 83 95 22 3b
       0.0018105236 -0.014171244 0.04490927 0.0024808354
000220 a9 95 02 3e 3e 7c 4a 3d 8a fb 4c bc bd 70 85 bd
       0.12752403 0.049434893 -0.012511143 -0.06515644
000230 b9 db a3 3d ed e1 f0 3c d3 9a d7 3c 57 6f 85 bc
       0.08000893 0.029404605 0.026318943 -0.016288443
000240 fd 82 8e bd 7d 72 e1 3c 07 eb 38 3c f1 59 91 3d
       -0.06958578 0.027520413 0.011286504 0.07097233
000250 20 23 75 3c 51 df 29 bd fe bc 44 bd 8e f9 27 3d
       0.014961988 -0.041472737 -0.0480318 0.04100948
000260 6f e8 8f 3c a6 ae 55 bc 3e 3a fd bc 5d 34 63 bd
       0.017566888 -0.013042128 -0.030911561 -0.05546986
000270 1e f6 62 bc 1c bb 4b bc 37 c2 3d bd 07 a7 b0 3c
       -0.013852624 -0.012434747 -0.046327796 0.02156402
000280 58 0a 1f 3d e7 6e a3 bc d6 67 e5 bb 70 37 4d bd
       0.038828224 -0.019950343 -0.0070009036 -0.050101697
000290 e0 41 ae bc 9a 7f 60 bc 14 6b 1f 3d 2b 91 a0 bc
       -0.021271646 -0.013702298 0.038920477 -0.019600471
0002a0 21 5f 5a 3a fe 50 4b 3c 5f 13 33 bd 71 26 77 3c
       0.00083302154 0.012409447 -0.043719646 0.015084849
0002b0 e3 5f b0 3c fb f0 43 bc ba 5c 3e 3d a7 a4 d2 3c
       0.021530097 -0.01195931 0.04647515 0.025713278
0002c0 0a d4 73 3d d1 14 d9 bb a3 70 c8 3b a2 48 15 bd
       0.059528388 -0.006624796 0.006116943 -0.03644622
0002d0 1b 30 65 ba 04 32 47 3d b2 8e a3 bc d0 6d 19 3d
       -0.0008742825 0.048631683 -0.019965503 0.03745824
0002e0 80 13 77 bd 68 2b 68 b9 35 f5 46 bc 00 cb ab bd
       -0.06032133 -0.00022141414 -0.012143423 -0.083883286
0002f0 82 f4 83 bd 7f 29 af bc 77 70 33 bd d1 06 00 bd
       -0.064431205 -0.021382092 -0.043808427 -0.0312565
000300 04 51 f6 bb e9 7a 12 bd dd 0c c3 bb 2e b5 8c 3a
       -0.007516982 -0.035761748 -0.005952461 0.0010735148
000310 34 93 a4 bc dd 84 12 3a 94 62 a4 3c 5c 0b 77 3c
       -0.020089723 0.0005589256 0.020066537 0.015078392
000320 e4 29 69 3d 50 6a e3 3c 55 96 cd bb e6 3c 00 bd
       0.056924716 0.027760655 -0.0062740245 -0.031308077
000330 8f e9 e3 3c 53 cd 59 3c 8c e8 b8 3c 64 f0 b2 bc
       0.02782133 0.013293582 0.022571824 -0.021843143
000340 b9 2a 03 bd 72 b0 20 3c db 0f f9 3c 1d 97 14 3d
       -0.032023165 0.009807693 0.030403068 0.036276925
000350 37 c8 f0 bb 80 7d 2a bd 55 03 f8 bc 8c f8 d1 3c
       -0.007348086 -0.041623592 -0.030275026 0.025631212
000360 87 d9 0d 3d 99 f9 b4 bb d5 70 80 bc 57 e6 b8 bc
       0.03463128 -0.0055229184 -0.015678803 -0.022570772
000370 b1 42 30 bb a6 20 0a bd f8 00 91 bc b1 b6 b2 3c
       -0.002689522 -0.033722542 -0.017700657 0.02181563
000380 02 f6 00 3d 7b 0c 85 bc 4b 63 b3 38 e9 a3 48 bd
       0.03148461 -0.016241303 8.55388e-05 -0.048984442
000390 94 d5 67 bc e1 39 bb bb 6f fb 36 3d 29 86 3c 3b
       -0.014150042 -0.005713687 0.04467338 0.002876649
0003a0 68 51 56 3c 2d 1e 80 3c 77 6e 0f bd e9 28 9f bb
       0.013080932 0.015639389 -0.035017457 -0.004857172
0003b0 04 56 4b 3c f7 8e 65 3c e9 cc 8b 3c 82 22 93 3c
       0.012410644 0.014011136 0.017065482 0.01796079
0003c0 0b a1 16 3d 14 da 0c bd c9 8a 1e 3c 9f af 13 bd
       0.036774676 -0.034387663 0.009676644 -0.036056157
0003d0 de eb 82 ba 18 d0 f4 3c 9c 3d 0f bb 93 b0 ff 3c
       -0.0009988507 0.029884383 -0.002185679 0.031212127
0003e0 4e 1a a1 bd 98 f6 8a ba 05 00 95 bb 8b 51 13 bd
       -0.07866345 -0.0010602055 -0.0045471215 -0.035966437
0003f0 f3 12 23 bd 4a 83 b1 bb 2a 9c 76 bc 5c fa 81 bc
       -0.039812993 -0.005417262 -0.015051881 -0.015866451

cls_token f4 [1, 1, 64]
000000 16 d6 b7 3b b6 93 9d bc c6 d8 ac 3b 6c ae 2b ba
       0.005610238 -0.019235473 0.005274865 -0.0006549123
000010 97 e5 39 3c a0 90 aa b9 65 c2 ba bb bd b6 c5 3c
       0.011346242 -0.0003253268 -0.005699443 0.024134988
000020 a0 b0 79 bc 7f 9b 87 bb ae 1e ed 3b a9 82 b6 3c
       -0.015239865 -0.0041384096 0.0072363233 0.0222791
000030 68 2e 06 bd a8 d2 d0 3b 0c eb 6c bb 32 ca 48 bc
       -0.0327591 0.0063727684 -0.003615084 -0.012255238
000040 2e e6 a9 3c ec 3c 2a 3a d1 95 81 3b d1 17 83 3c
       0.020739641 0.00064940634 0.003954627 0.016002567
000050 da e5 92 ba 67 d6 7d 3c 4d 38 90 3c c3 a5 9a 3b
       -0.0011207417 0.015493012 0.017604971 0.0047194674
000060 66 e4 8b 3b 89 87 9a 3b 6e 0d c5 3b e1 09 b1 3c
       0.0042691706 0.004715864 0.006013564 0.021611156
000070 6c f8 97 bb 78 e2 a9 bb ab a8 66 3c c3 91 17 bc
       -0.0046377685 -0.005184468 0.0140782995 -0.009251061
000080 0c eb b8 ba 0b 71 48 bc 3f b0 3b 3b a5 4c e1 bc
       -0.0014108135 -0.012233983 0.0028638986 -0.027502367
000090 79 10 e2 3b f0 61 b0 3a 67 0b ae 3c 8b 6c 73 3c
       0.0068989363 0.0013456922 0.021245671 0.014857422
0000a0 5a 8d 0a 3b 90 be 79 3b 93 83 81 bb 70 96 75 3d
       0.002114138 0.003810797 -0.0039524524 0.05995792
0000b0 79 85 87 bb dc c0 19 bc 92 c6 c1 bc 42 63 d8 3b
       -0.004135784 -0.00938436 -0.023654256 0.0066036293
0000c0 5d fe 91 bb be c1 4c bb 9a 78 a6 3b f6 2d 6d bc
       -0.0044553713 -0.003124341 0.005080295 -0.01447629
0000d0 84 a2 b0 3a 6d c5 1a bc 8a 99 44 3c 90 23 95 ba
       0.0013476168 -0.009446484 0.011999497 -0.0011378396
0000e0 7b 37 13 3c ec 2e 0c 3b 55 e0 52 3c 42 16 26 3c
       0.008985396 0.0021390272 0.012870868 0.010137143
0000f0 4b 1a d5 bc aa 95 b8 3b e1 30 1a 3c 55 d1 95 ba
       -0.026013514 0.0056330757 0.009411068 -0.0011430184

patch_to_embedding.weight f4 [64, 3]
000000 81 2e 31 bc cc 97 29 bc d7 21 26 bc 8d 68 9b be
       -0.01081431 -0.010351133 -0.010139904 -0.30353203
000010 6f d6 d0 be af 38 b1 be 74 a2 00 bb 19 ea 5e ba
       -0.407886 -0.3461356 -0.001962808 -0.0008503511
000020 0c e7 91 ba 08 21 c3 3a f2 f2 05 3b 71 45 2a 3b
       -0.0011131479 0.0014887163 0.0020438996 0.0025981332
000030 87 26 8d be db ec 9b be 8f 0e 95 be 72 de b3 3c
       -0.27568457 -0.30454144 -0.2911267 0.021956656
000040 81 08 98 3c 4b 10 79 3c f9 fb c7 3c 08 42 d2 3c
       0.018558742 0.015201638 0.024412142 0.025666252
000050 a3 c4 d2 3c 1e 19 d0 3e 50 4a dc 3e eb 53 e8 3e
       0.02572853 0.40644163 0.43025446 0.45376524
000060 73 7a 44 3e 86 31 48 3e 09 76 2f 3e b4 aa 0d 3c
       0.19187336 0.19550142 0.1713487 0.008646656
000070 ef fd 0b 3c 52 cd f4 3b b2 78 76 bb 3d ef 37 bb
       0.008544429 0.007470765 -0.003760856 -0.002806618
000080 1e b1 03 bb 96 b0 ad bc 06 98 0f bd fc 74 c0 bc
       -0.0020094584 -0.021202367 -0.03505709 -0.023493282
000090 96 c3 1c 3d 2e f4 a6 3c 79 b0 12 3c b7 fe 2f 3d
       0.038272463 0.020380106 0.008953207 0.042967524
0000a0 d4 c1 41 3d 25 bc 35 3d 4e 0c 92 3c 39 11 90 3c
       0.04730399 0.04436888 0.017828133 0.017586337
0000b0 7d e3 9e 3c 72 5c 8f be 39 3a a7 be 4e 4c 99 be
       0.019395584 -0.28000218 -0.32661608 -0.29941028
0000c0 32 de 46 bd dc 58 59 bd df 2d 4d bd d1 e3 1f 3c
       -0.048551746 -0.05306326 -0.050092574 0.0097589055
0000d0 03 bb 2e 3c 6a b6 03 3c 38 a1 00 3f 18 0e c9 3e
       0.010664704 0.008039096 0.50246 0.39268565
0000e0 d3 58 de 3e cc 83 8f 3e 2b b5 8f 3e d8 a3 97 3e
       0.43427143 0.2803024 0.28067908 0.2961719
0000f0 61 83 d8 be 95 c6 96 be 5e ff be be 99 52 b3 bd
       -0.42287734 -0.2944838 -0.37304205 -0.08755989
000100 f8 92 97 bd 21 a5 bb bd 3a 01 3a bd c0 49 4d bd
       -0.07401079 -0.09162355 -0.045411326 -0.05011916
000110 ec e6 25 bd 93 51 72 bd cb 7e 8c bd 89 93 86 bd
       -0.040503427 -0.059159826 -0.06860121 -0.06571109
000120 20 c1 e5 3e 32 58 01 3f 6e 4a b6 3e 27 62 87 3c
       0.44873905 0.505252 0.3560366 0.016526295
000130 95 d9 bd 3c 24 28 9c 3c dc e3 21 3a c9 74 48 3b
       0.02317504 0.01906211 0.0006175616 0.0030587188
000140 bd 54 0e 39 45 60 3d bd a8 db 4d bc dc 65 17 bc
       0.00013573743 -0.046234388 -0.012564577 -0.009240594
000150 6b 86 0a 3e 9e f3 2c 3e 7c d8 09 3e ec 71 d8 be
       0.13527839 0.16889808 0.13461488 -0.42274415
000160 18 21 ed be 1c 10 aa be bd 03 9e bc 9f 1d 39 bc
       -0.4631431 -0.33215415 -0.019288892 -0.011298566
000170 dd 08 74 bc be 22 a0 3e 48 b9 81 3e 97 32 4b 3e
       -0.014894691 0.31276506 0.2533667 0.19843517
000180 b9 85 06 be 52 ba 37 be de 0e 3f be 90 b3 ce be
       -0.13136949 -0.1794217 -0.18658015 -0.4037137
000190 e1 46 f9 be 59 57 f2 be a0 e2 48 3b e6 db 87 3b
       -0.4868689 -0.47332266 0.0030652657 0.004146087
0001a0 43 9e 95 3b fd 96 9e be 03 b4 b3 be 4e 52 9e be
       0.0045659854 -0.3097457 -0.35098276 -0.30922168
0001b0 af 0a c6 ba e3 32 4a ba 38 5d 88 b9 e7 c6 15 3c
       -0.0015109385 -0.0007713271 -0.00026009395 0.00914166
0001c0 60 9b 57 3c 71 9b 45 3c b5 1a a1 3e 9d 43 9c 3e
       0.013159603 0.012060986 0.31465688 0.30520335
0001d0 19 de 96 3e d5 3b 07 bc 35 e0 f0 bb 8d 24 00 bc
       0.29466322 -0.008254011 -0.0073509463 -0.007821214
0001e0 7e 66 c4 3e 28 f5 f2 3e 4d fb e5 3e f4 8e b6 3e
       0.38359445 0.47452664 0.4491829 0.3565594
0001f0 95 09 a9 3e b7 cb 91 3e eb a2 9e 3d 01 0b 36 3e
       0.33015123 0.28475735 0.07745918 0.17777635
000200 fe c4 38 3e da 5f dd be 78 97 0d bf f3 5c fd be
       0.18043897 -0.4323719 -0.5530925 -0.49484977
000210 2d c9 46 be 40 66 5d be 1f d8 62 be d4 1f 58 3e
       -0.1941268 -0.21621037 -0.22152756 0.21105891
000220 f6 c8 c3 3e 49 5e b1 3e 14 95 f2 3c ca fd 10 3d
       0.3823926 0.34642246 0.029612102 0.035398282
000230 85 54 34 3d d8 94 dc 3e 94 90 f3 3e e3 58 ac 3e
       0.044025917 0.4308231 0.47571242 0.33661565
000240 fd 6f a2 3c b4 f3 d7 3c a5 08 b5 3c ef d3 99 be
       0.01982879 0.026361324 0.022098849 -0.30044505
000250 73 ed b9 be e2 35 92 be 7b 50 1a 3e bc fc 22 3e
       -0.36313972 -0.28556734 0.15069763 0.15916723
000260 c3 3c 18 3e ca 8f 86 bd e9 3c e4 bd 97 ed b1 bd
       0.14866929 -0.06570394 -0.1114443 -0.08687895
000270 9d 9d 0c 3b 5f 1e 37 3b 56 e0 2c 3b 93 b9 92 3d
       0.002145625 0.0027941687 0.0026378832 0.07164302
000280 e7 60 96 3d 9b 6c 89 3d 2c 0b 3b bb 25 57 8f ba
       0.073427014 0.06710168 -0.0028540595 -0.0010936005
000290 44 2d 17 bb da 54 97 bc 07 45 bb bc 76 25 b0 bc
       -0.0023067752 -0.018473078 -0.022860063 -0.021502238
0002a0 56 e1 25 bf cb 7a 1b bf d3 17 25 bf 3a 8d 79 bc
       -0.6479696 -0.6073424 -0.6448948 -0.015231425
0002b0 34 19 d7 bc 18 9f bb bc d5 e0 32 bc e6 2c 30 bc
       -0.026257135 -0.02290301 -0.010917862 -0.010752892
0002c0 1c f6 31 bc 7f 34 11 be 37 25 07 be fe e1 1d be
       -0.0108619 -0.14180182 -0.1319779 -0.1541824
0002d0 7c 88 e2 be 92 0f be be e4 58 e9 be a7 00 cb 3b
       -0.44244754 -0.37121254 -0.4557563 0.006195146
0002e0 47 ad f9 3b 81 dd f6 3b 47 c8 b9 bc 84 ad a7 bc
       0.007619533 0.0075337295 -0.022678507 -0.02046848
0002f0 60 2b d1 bc 0b 8f cf 3e 00 7f 0d 3f ce f0 bb 3e
       -0.025533378 0.4053882 0.5527191 0.36707157

patch_to_embedding.bias f4 [64]
000000 c2 f3 e4 3c 26 23 e1 3d c4 89 c1 3c dd 09 e6 bb
       0.027948264 0.10993032 0.023625262 -0.0070202188
000010 c8 04 8c 3d 72 2a f4 3c 3d b0 81 bd a9 68 c6 bd
       0.068368495 0.029805396 -0.06332443 -0.09687931
000020 30 0d 39 be 39 ee 47 bd c3 07 cf 3c 3d d3 bd 3d
       -0.18071437 -0.04881117 0.025272256 0.09268806
000030 0e 6d c3 bd 87 68 3a bd 9e d1 4d bd c1 1b af 3d
       -0.09542285 -0.04550984 -0.050248735 0.085502155
000040 3e 5d a5 3d ef 0e 03 bd 37 a6 ec bd 1c 5c f9 bd
       0.08074425 -0.031996664 -0.115551405 -0.121757716
000050 0b 7c 76 3d 10 f6 83 3d af 9b 95 3d 7a e4 87 bc
       0.06017689 0.06443417 0.07305085 -0.016588438
000060 27 9b 00 be d5 15 b1 3b 4b 52 30 3d 97 b8 92 3d
       -0.12559186 0.005404214 0.04304723 0.07164114
000070 cd 0c f3 bc d8 9a d8 3d 0f d9 75 3d 52 ca 8d bd
       -0.02966919 0.10576409 0.060021456 -0.06923355
000080 e4 b6 2a 3c a3 a6 f0 3d 91 88 19 3c e9 4b f1 3d
       0.010419581 0.117505334 0.009370939 0.11782057
000090 49 e6 e0 3c b7 aa 95 3c b1 37 ef bd 85 38 b8 3c
       0.027453559 0.01826988 -0.11680544 0.022487888
0000a0 f9 37 d0 bd 5a ce ad bd 07 e6 3f 3b 7e 23 c3 3d
       -0.10166926 -0.08486624 0.0029281394 0.09528254
0000b0 a5 db be 3c 1e e9 85 bd 51 20 65 bd 34 6d ff bd
       0.023298094 -0.06538604 -0.055939022 -0.12472001
0000c0 02 62 84 bd fc 0f 9c 3d 93 18 1b bd 2c d8 66 3d
       -0.06464006 0.07620236 -0.037865233 0.0563585
0000d0 25 4b 1b 3b d8 73 86 bd 48 ac ed 3c 7b 74 86 bc
       0.0023695913 -0.06565064 0.029012814 -0.016412964
0000e0 6d 0f 56 3e f4 e0 73 3c b6 4d 01 3d e1 8b 07 3e
       0.20904322 0.014885176 0.03156825 0.13236953
0000f0 cc 77 2f 3e 62 82 d5 3c 15 a3 7d 3d 84 5a 89 bd
       0.17135543 0.026063148 0.061923105 -0.067067176

transformer.layers.0.0.fn.norm.weight f4 [64]
000000 6a ce bd 37 53 a8 5b 3e 17 6b d5 b4 5e 45 86 b4
       2.2626675e-05 0.2145093 -3.975226e-07 -2.5009916e-07
000010 d8 48 e5 b8 b1 83 02 b6 0b 16 51 3e da 30 2d 36
       -0.00010933139 -1.9448164e-06 0.20418565 2.5807444e-06
000020 08 78 0d 3f 78 08 8a b6 2d f9 23 36 cb 83 96 3e
       0.5526128 -4.1137064e-06 2.4433932e-06 0.29397425
000030 fa e1 d5 3e a4 48 d8 3b 6d d8 34 3e a9 23 24 3e
       0.4177397 0.0066004563 0.17660685 0.16029228
000040 cc f1 ae 3d db 04 88 b5 0e b2 57 3e b6 13 ac b7
       0.08542213 -1.0134203e-06 0.21064016 -2.0513176e-05
000050 85 36 5c 3e d0 01 50 38 ab 74 e1 37 88 91 85 3d
       0.21505173 4.9592752e-05 2.6876418e-05 0.065218985
000060 9a 5b a8 3e 7d 0e e5 b3 9f 6a c4 3b 25 be 88 3e
       0.32882386 -1.0666279e-07 0.0059941555 0.2670757
000070 11 8b 4c 3d c9 31 49 3e 62 83 2b 3e 73 15 41 3a
       0.04993731 0.19647898 0.16749337 0.0007365562
000080 e9 c9 b8 3e 3b 72 90 3e 8e 65 0a b2 6b 5a 9e 3e
       0.36091545 0.2821215 -8.055748e-09 0.30928358
000090 03 7f a1 b6 36 e2 16 b7 61 17 db 3c bf dc 1e 38
       -4.81296e-06 -8.993366e-06 0.026744546 3.787572e-05
0000a0 d3 36 e5 3d e0 ad 06 b6 96 27 a3 3e dc 6b a5 b4
       0.111920975 -2.0068765e-06 0.3186614 -3.0812123e-07
0000b0 b6 85 8a 3e 76 b1 2a b6 87 57 4a 3e e9 f6 c6 3d
       0.27055138 -2.543527e-06 0.19759952 0.09715063
0000c0 da 5d 17 b9 b4 82 2f 3d 6f 3b 98 b4 14 58 11 3e
       -0.00014435445 0.042849258 -2.835545e-07 0.14193755
0000d0 65 fe ac 32 5b b9 70 3d 96 80 51 36 da 93 95 3d
       2.013912e-08 0.05877052 3.1218274e-06 0.07303591
0000e0 cb 85 94 32 50 9b 91 31 36 b9 b5 b6 9c b6 ce 3e
       1.729031e-08 4.2377124e-09 -5.4157817e-06 0.40373695
0000f0 57 fa f6 3e e1 ce 9b 37 92 18 36 3e aa 23 f9 b9
       0.4823787 1.8573775e-05 0.1778281 -0.00047519553

transformer.layers.0.0.fn.norm.bias f4 [64]
000000 97 1f 1a b7 0a 80 17 bc 6c 56 d6 33 73 d3 3e b3
       -9.18647e-06 -0.0092468355 9.9808716e-08 -4.4430134e-08
000010 7e 0f 06 b8 01 e7 d4 b2 71 72 a1 3c 9f 63 93 b6
       -3.1962518e-05 -2.4785097e-08 0.01970789 -4.392539e-06
000020 e5 1b cf 3c fe 5e 79 b6 e8 d8 6a b5 10 59 be bc
       0.025281856 -3.7159184e-06 -8.7487433e-07 -0.023235828
000030 ba 45 92 3c 50 6a a6 3b 6d cf 28 3c e8 d4 02 bc
       0.017855514 0.0050785914 0.01030336 -0.007985331
000040 9f 48 c8 bc 43 47 81 b5 94 45 07 3c fb 5b f2 b7
       -0.024448691 -9.631989e-07 0.008256335 -2.889148e-05
000050 44 36 34 3c ce 95 32 b8 c1 79 dd b7 ab 8d 8c 3c
       0.010999266 -4.2578024e-05 -2.6401949e-05 0.017157396
000060 3f dd 40 3c e6 07 c5 b3 0f 9c 96 bb b0 1f 68 bc
       0.011771499 -9.174964e-08 -0.0045962404 -0.014167711
000070 0e 5b 3a bb a7 92 0f bc 89 63 72 bc 8e bb a4 37
       -0.002843562 -0.008762992 -0.014794239 1.963766e-05
000080 00 bc 45 3c a1 c2 ba bb c9 5f d7 b1 4f 23 95 bc
       0.0120687485 -0.005699471 -6.268213e-09 -0.018205313
000090 b5 4c 1b 36 5f 44 a2 b7 02 6f 9c 3c e3 b1 60 b7
       2.314145e-06 -1.9343743e-05 0.019095901 -1.3392858e-05
0000a0 f2 3a e2 3b d7 a2 aa 34 02 85 25 bc 37 14 d5 31
       0.0069039995 3.178345e-07 -0.010102512 6.201414e-09
0000b0 f0 40 37 3c 0f 32 6b b4 2e e7 a1 3c fa 68 4b 3c
       0.011184916 -2.1904292e-07 0.019763555 0.012415165
0000c0 2a b4 3a b9 95 f6 e8 3b 4f 33 11 33 c6 4d b0 bc
       -0.00017805459 0.007109473 3.380711e-08 -0.02152146
0000d0 39 ea 31 33 f3 64 ec 3c 54 fd 01 b6 5f c7 91 3c
       4.1424048e-08 0.02885673 -1.9369954e-06 0.017795263
0000e0 1a ba c0 b0 e9 07 f4 31 e9 37 42 36 be e4 dc bc
       -1.4022732e-09 7.102234e-09 2.8940797e-06 -0.026964542
0000f0 19 a9 94 bc be 5a fd b6 dd 65 99 bc f0 d7 cb 39
       -0.018147038 -7.5505513e-06 -0.01872533 0.00038880063

transformer.layers.0.0.fn.fn.to_qkv.weight f4 [192, 64]
000000 75 30 0a 2b 7c 39 c5 b1 65 bc b3 a9 cc 2c ef a7
       4.9094696e-13 -5.73999e-09 -7.981878e-14 -6.6384395e-15
000010 f9 84 f4 2c 9c d5 34 2a 1e 40 c4 31 cc 00 42 ab
       6.94966e-12 1.6061322e-13 5.71164e-09 -6.892375e-13
000020 04 61 8a 32 86 b0 78 ab 25 18 bf 29 05 62 bd 2f
       1.6109432e-08 -8.8352275e-13 8.486292e-14 3.4448547e-10
000030 35 4c 95 b1 a9 85 2b 30 88 23 67 31 eb e1 df 30
       -4.3451345e-09 6.239938e-10 3.3635121e-09 1.6289595e-09
000040 85 1a 05 b1 ae 4d a1 28 2f cc a3 31 a0 ce ec ae
       -1.9369122e-09 1.7908279e-14 4.7671374e-09 -1.07687415e-10
000050 48 d7 77 32 9c 87 5b ad aa 23 b2 2b f2 1b f3 b0
       1.44262415e-08 -1.247882e-11 1.265756e-12 -1.768852e-09
000060 2f 15 f0 31 38 7a b0 27 e1 c5 5a af 71 a4 24 b2
       6.9873276e-09 4.8982323e-15 -1.9897285e-10 -9.583446e-09
000070 5a b5 62 2f 63 67 1b b2 93 9c cc b1 59 d0 df 2d
       2.0619009e-10 -9.045695e-09 -5.954982e-09 2.544469e-11
000080 e1 5b bf b1 eb 2d 71 b2 1a 2f a4 26 50 40 01 33
       -5.569277e-09 -1.4038487e-08 1.1392553e-15 3.0093645e-08
000090 b3 9e 10 a8 ef 4e 32 ac d9 81 68 b1 5c 50 dd 2b
       -8.028018e-15 -2.5339138e-12 -3.3834253e-09 1.5725299e-12
0000a0 c1 ce 3e b1 58 03 d9 a9 5e 1f 48 32 4b ab 6f ab
       -2.7766165e-09 -9.637316e-14 1.1648664e-08 -8.5147574e-13
0000b0 9b ec e7 31 57 7d 0d 2c 26 08 be 31 e6 1f 87 b1
       6.7498838e-09 2.0106883e-12 5.530654e-09 -3.9326435e-09
0000c0 cd 92 14 2f 0a a3 31 b2 eb f7 a2 28 de af 83 b1
       1.3512676e-10 -1.0339827e-08 1.809313e-14 -3.8325956e-09
0000d0 11 e2 69 28 6e 68 87 30 01 99 80 29 9f f7 5e af
       1.29831186e-14 9.852223e-10 5.710884e-14 -2.0278755e-10
0000e0 f0 d6 8b a7 4c 17 94 a6 a3 d8 de 2c a7 86 b0 31
       -3.8813286e-15 -1.0275878e-15 6.333671e-12 5.1375824e-09
0000f0 4f 96 39 31 62 0b 59 ab d2 a2 89 b1 55 14 36 af
       2.7006484e-09 -7.7109684e-13 -4.0057353e-09 -1.6560027e-10
000100 28 67 cd a9 41 0e a0 2b 72 ca ba 25 cf 57 ba a6
       -9.1217236e-14 1.137264e-12 3.240304e-16 -1.2930143e-15
000110 ff 86 bb 23 e8 94 5a a5 94 af 0a 2b a9 71 0f a7
       2.0331754e-17 -1.8958937e-16 4.927111e-13 -1.9906852e-15
000120 5b 6c c8 2b 8e 97 04 25 ed c0 04 a8 29 c0 2d 2b
       1.4240929e-12 1.1500524e-16 -7.369306e-15 6.172862e-13
000130 13 8d ea a7 91 73 c3 2a 60 7f 4d 2b f7 a8 7e aa
       -6.5101e-15 3.471915e-13 7.30074e-13 -2.2618353e-13
000140 af b2 00 aa b3 c9 14 27 bf a3 a6 2b 2e 89 39 a4
       -1.1430677e-13 2.0648467e-15 1.1840458e-12 -4.0231676e-17
000150 4b 21 40 2b f4 4a 22 a7 6b a3 22 26 60 2b a0 29
       6.8258306e-13 -2.2522648e-15 5.6426513e-16 7.112952e-14
000160 87 2d f9 2b 08 9f ab 23 23 38 94 27 2e 05 79 2b
       1.770515e-12 1.860721e-17 4.1139115e-15 8.846976e-13
000170 6b ec 04 a7 67 61 86 ab 69 f3 83 ab f6 95 6a a7
       -1.8446842e-15 -9.548307e-13 -9.37567e-13 -3.2555317e-15
000180 74 25 3e aa 7c de a9 ab 2d 4a 71 21 04 41 7b ab
       -1.6888384e-13 -1.2069924e-12 8.1752147e-19 -8.926334e-13
000190 10 86 21 28 fe 08 f7 a7 50 43 b8 2a e2 66 ea 25
       8.9663655e-15 -6.856602e-15 3.2731673e-13 4.0662245e-16
0001a0 11 66 a3 a9 12 33 66 a3 9a 08 2a 2b c9 7e 5e 24
       -7.25636e-14 -1.24791395e-17 6.040807e-13 4.8245968e-17
0001b0 fe 01 5e 2b 80 8c 6c 23 5d 34 01 2b e7 99 e8 2a
       7.887301e-13 1.2823338e-17 4.5902675e-13 4.131827e-13
0001c0 6d 25 07 26 ff 8b 4e 2b 38 d4 d6 a8 0c da 80 a9
       4.6888255e-16 7.3380185e-13 -2.3850808e-14 -5.722167e-14
0001d0 32 8a ad a7 72 7c 33 2a 0b 84 a3 24 c1 b0 d5 a9
       -4.8166977e-15 1.594157e-13 7.091367e-17 -9.489762e-14
0001e0 c5 c9 19 a2 64 ab b7 a5 87 9b f0 a4 3e a6 e3 aa
       -2.0842182e-18 -3.1861578e-16 -1.0434688e-16 -4.0438654e-13
0001f0 8a 8b 56 aa cf 5c 30 24 7f c1 e6 aa aa 2f a0 a8
       -1.905543e-13 3.824253e-17 -4.0990472e-13 -1.778424e-14
000200 99 87 c4 30 b4 1a 0b 36 36 13 e6 ad a4 58 ca 2c
       1.4299416e-09 2.0728157e-06 -2.6156504e-11 5.7510264e-12
000210 93 b3 8c 31 2e f9 e4 2e b4 cf 58 b6 7d 19 55 af
       4.0949515e-09 1.0412503e-10 -3.2307407e-06 -1.9381292e-10
000220 f7 14 ac 34 f7 88 19 af 3a cb 19 2f d2 7e 1e b6
       3.205275e-07 -1.3963929e-10 1.398747e-10 -2.3617654e-06
000230 51 df 92 b5 b2 84 8d b5 a2 fe 40 b6 b4 c0 e9 b5
       -1.0942841e-06 -1.0543938e-06 -2.8758445e-06 -1.7415937e-06
000240 6a 97 f1 35 36 6b 8a 2f 99 d1 35 b6 71 35 02 31
       1.7999967e-06 2.5178232e-10 -2.7093104e-06 1.8947868e-09
000250 ae d8 24 36 3f d4 c1 b1 6d ff 95 30 99 ec 84 b5
       2.4564029e-06 -5.641169e-09 1.0913773e-09 -9.903625e-07
000260 9e 96 49 b6 b5 36 3f aa c1 e5 28 34 0f a3 83 34
       -3.0039005e-06 -1.6983188e-13 1.5729803e-07 2.4519292e-07
000270 4b d5 69 33 93 86 5a b6 cc fc bb 35 c8 ba ce b3
       5.444353e-08 -3.2562864e-06 1.4006159e-06 -9.626598e-08
000280 30 55 d5 34 cb 27 a4 b6 d7 85 d9 28 bc c1 1e 36
       3.9736324e-07 -4.8922134e-06 2.4149883e-14 2.3656603e-06
000290 09 7f 8c af 75 eb ee b0 2e f2 ef 32 65 bb a7 b1
       -2.5556116e-10 -1.73837e-09 2.7933392e-08 -4.881644e-09
0002a0 18 07 84 b6 17 cb 31 30 3b 60 46 b5 e9 94 5f 2e
       -3.9347324e-06 6.4680833e-10 -7.390078e-07 5.083659e-11
0002b0 2c bc 85 b6 ec 3c 4d 2f 01 dd 6c 33 16 a5 df b5
       -3.985615e-06 1.8666285e-10 5.5149034e-08 -1.6662841e-06
0002c0 41 5d 26 32 cd f6 30 b6 b2 28 a1 ad f2 df 73 35
       9.683675e-09 -2.63697e-06 -1.8321653e-11 9.085044e-07
0002d0 94 62 51 2d a0 56 17 b6 5c fa 3f af 38 f7 ac b3
       1.1902163e-11 -2.2551176e-06 -1.7460294e-10 -8.054343e-08
0002e0 59 f0 99 2c 05 0a 21 aa df 89 9c af 48 56 7b b6
       4.3752055e-12 -1.4303149e-13 -2.8474198e-10 -3.7452137e-06
0002f0 5c c0 5e 35 e9 fb 5a 30 7e f4 db 35 e7 47 19 b4
       8.2981364e-07 7.9665924e-10 1.6387928e-06 -1.4275393e-07
000300 85 7f 14 a4 ca 3b bd 29 a9 45 d6 a1 d6 28 20 a8
       -3.2200398e-17 8.403658e-14 -1.4519643e-18 -8.890639e-15
000310 4a 2f 67 a1 e6 4f e1 a0 c7 db 5e 29 cd 11 53 a1
       -7.832843e-19 -3.8169355e-19 4.948453e-14 -7.151314e-19
000320 52 ad fd a9 e8 35 7b a3 4e 3b 22 a2 3e e7 0a aa
       -1.1265523e-13 -1.3618152e-17 -2.198649e-18 -1.233709e-13
000330 1f 41 da a9 3e 7a ff 27 a1 04 ce a7 85 8a 9f a8
       -9.6924415e-14 7.0909253e-15 -5.7181504e-15 -1.771262e-14
000340 87 d7 8f a8 b9 fd 87 24 c5 f5 e8 29 bc 19 99 a5
       -1.596966e-14 5.897674e-17 1.0345504e-13 -2.6558707e-16
000350 c9 50 98 29 b1 f5 87 a5 ce 0e 1c 25 7c eb 00 a8
       6.76417e-14 -2.3585254e-16 1.3535859e-16 -7.15649e-15
000360 4c 97 ac 29 55 b2 0e 26 56 ef 98 a7 b1 6e 4f a9
       7.66458e-14 4.950783e-16 -4.2447963e-15 -4.6059243e-14
000370 40 ad 9f a7 d4 9a 4f a9 e9 bc 73 29 88 0d ef a8
       -4.4319203e-15 -4.6097525e-14 5.4120692e-14 -2.6540199e-14
000380 c0 c6 08 29 0e b1 97 a8 c4 72 30 a6 35 d0 57 2a
       3.0370454e-14 -1.6841153e-14 -6.1217803e-16 1.9168072e-13
000390 a4 28 04 a3 f4 fa 22 a5 23 a0 e5 27 b4 a5 1a 25
       -7.16434e-18 -1.4136286e-16 6.373389e-15 1.3413513e-16
0003a0 dc eb 0a a7 56 5e 8d a1 8e 65 5f 29 b4 8b 8a a6
       -1.9279207e-15 -9.579502e-19 4.960403e-14 -9.61354e-16
0003b0 eb 26 97 29 ae ba 59 a3 42 ed ee 27 35 58 ea 28
       6.712498e-14 -1.18031245e-17 6.6315505e-15 2.6017472e-14
0003c0 db 75 89 a5 ca 80 c9 a8 d6 c5 bb 22 48 82 6e a9
       -2.3845574e-16 -2.2371336e-14 5.089592e-18 -5.2959617e-14
0003d0 50 f3 94 ab 2f 8d 34 28 a8 f9 e8 23 74 c7 ea a7
       -1.0583565e-12 1.00226215e-14 2.5259224e-17 -6.5164294e-15
0003e0 e7 2d c6 26 75 80 95 21 ea 0e 87 27 f0 8f fe a7
       1.3751452e-15 1.0130635e-18 3.7486197e-15 -7.065522e-15
0003f0 26 eb 1b 2a c0 e7 82 26 bd 35 b5 29 7e f6 17 26
       1.3848349e-13 9.083378e-16 8.047337e-14 5.272271e-16

transformer.layers.0.0.fn.fn.to_out.0.weight f4 [64, 64]
000000 82 c4 d1 38 d5 96 88 37 24 e8 ca 37 bd ef 85 b9
       0.00010002499 1.62827e-05 2.4188375e-05 -0.00025546356
000010 9e f2 15 bc a6 3c 12 39 62 a1 af 39 97 ba a2 3b
       -0.009152083 0.00013946238 0.0003349884 0.004966091
000020 b9 1c 71 38 87 8a 3c 39 84 eb 92 b9 96 ec 11 39
       5.7485628e-05 0.00017980683 -0.00028022763 0.00013916413
000030 b3 61 76 39 be c8 93 39 3a aa 90 38 78 bb 02 bc
       0.00023496784 0.0002818759 6.898162e-05 -0.007979266
000040 4f ec d0 b8 8d 69 ad 3b 76 5b 29 b9 ff 60 a8 38
       -9.962229e-05 0.0052921236 -0.00016151168 8.028931e-05
000050 b6 2f b5 b9 60 7f 71 39 78 26 78 b9 8a 8c 13 39
       -0.00034558558 0.00023031002 -0.00023665454 0.00014071367
000060 4a b0 ae b9 1e df f2 b8 f9 c8 5d b9 3d f1 fc 39
       -0.00033319212 -0.00011581018 -0.0002115107 0.00048244922
000070 36 a8 0e 3a f5 85 64 bb aa c5 cd bb b5 3d 45 b9
       0.00054419355 -0.0034869884 -0.006279667 -0.00018810372
000080 cf d2 24 b9 bd 4d 5d b8 52 09 a7 3a ca 99 0c 39
       -0.00015718791 -5.2762905e-05 0.0012743867 0.00013408731
000090 1f e5 1d 39 1e d3 2d b9 94 ff 57 b9 34 40 3e 39
       0.00015058041 -0.00016577213 -0.00020599208 0.0001814373
0000a0 52 9d 91 b8 b9 ec 10 b9 f4 9c dc 38 2f c3 63 b9
       -6.943442e-05 -0.00013821096 0.00010519652 -0.00021721119
0000b0 e1 3e 0d 38 a9 97 dd 38 2f 0d 70 39 85 50 5b 39
       3.367558e-05 0.0001056635 0.00022893095 0.00020915463
0000c0 58 ff f9 3b 5c 08 f0 bb 56 33 fc b8 80 d7 da b8
       0.0076293163 -0.0073252153 -0.000120258585 -0.0001043519
0000d0 4a cb ce 35 1a 1d 14 b9 98 12 62 b9 13 15 63 b8
       1.5407361e-06 -0.00014125221 -0.00021559966 -5.4140644e-05
0000e0 b1 df 0a 39 7a 79 3c b8 4c a1 95 39 a2 67 19 b9
       0.00013244037 -4.4935827e-05 0.0002853967 -0.00014629823
0000f0 73 a7 13 3c 89 6e 5b 39 cd 71 36 b9 73 ab 81 b9
       0.009012091 0.00020926645 -0.00017399267 -0.00024732537
000100 35 c8 54 39 0e 06 b1 b9 b3 2f 1d bc cb 29 22 ba
       0.00020292478 -0.00033764582 -0.009593892 -0.0006186037
000110 24 54 96 3c 20 91 17 39 84 11 af 3a cd c1 00 bd
       0.018350668 0.00014454545 0.001335666 -0.031434823
000120 93 59 66 3a 91 4e 45 3a a9 2c 92 ba 9d a5 38 3a
       0.00087871513 0.0007526661 -0.0011152226 0.0007043721
000130 26 85 ae 3a ca 10 82 3a c0 8f 01 ba 79 c5 94 3d
       0.0013314828 0.0009923216 -0.000494238 0.072642274
000140 56 4f 25 38 e4 2b 01 bd f1 38 c9 b7 3e f7 bc b9
       3.9412953e-05 -0.031535998 -2.3987583e-05 -0.00036042364
000150 1a c7 86 ba e7 d1 7d 3a 74 ca 86 ba 91 52 8e 39
       -0.0010282726 0.0009682462 -0.0010283724 0.00027145867
000160 74 e0 cd ba f4 fb 5d ba c6 21 d5 ba 00 b5 a7 bc
       -0.0015707151 -0.0008468025 -0.0016260676 -0.02047205
000170 e4 f0 50 bb 07 be 59 3c d4 a0 0f 3d c7 c2 97 ba
       -0.0031881863 0.013289935 0.035065487 -0.0011578434
000180 a7 ba 7c ba 22 49 23 ba ca 85 b2 bc 36 eb e9 38
       -0.00096408505 -0.0006228854 -0.021792311 0.00011154117
000190 f8 8c 95 3a b7 2f 9b ba ec 47 a6 ba 91 13 96 b9
       0.001140981 -0.0011839782 -0.0012686229 -0.00028624808
0001a0 15 00 31 ba 11 bc d0 39 93 a7 36 b8 ed 91 1b ba
       -0.00067520264 0.00039812972 -4.3548247e-05 -0.00059345254
0001b0 3d 2f fc 39 42 e8 3d 39 73 92 36 3a cb 14 e5 3a
       0.0004810038 0.00018110967 0.00069645717 0.001747751
0001c0 8f 26 4f bd 1a 07 2f 3d b5 63 93 39 fb b6 5f ba
       -0.05057388 0.042731382 0.00028112312 -0.0008534041
0001d0 b6 6d 52 3a 09 2b b1 38 4f 8f 05 bb a8 3d 9a b8
       0.00080272125 8.4480336e-05 -0.0020379608 -7.3547766e-05
0001e0 f9 13 95 39 d3 03 a1 b9 2c 50 d7 3a 85 b4 9c ba
       0.00028434375 -0.00030711162 0.0016427091 -0.0011955654
0001f0 95 42 e2 bc 70 54 2e 3a 15 56 8d ba af 62 b0 ba
       -0.02761964 0.00066501554 -0.0010783101 -0.0013457144
000200 35 64 52 39 79 48 0b ba 21 0f 27 bb a0 f9 2a ba
       0.0002006449 -0.00053132285 -0.0025491195 -0.00065221824
000210 37 61 07 3c b3 0a e6 36 42 ea 47 39 de 86 8a bb
       0.008262924 6.8557797e-06 0.00019065387 -0.004227503
000220 5c ef 5e 39 cb ab e5 39 b8 48 cb b9 0b 05 8f 39
       0.00021260738 0.0004380628 -0.00038773357 0.00027278843
000230 8b 3a 83 39 f4 4f 1f 3a bd 0d 05 3a 19 52 eb bb
       0.00025029885 0.00060772826 0.00050755945 -0.0071814177
000240 22 6c e8 b9 da 55 46 3c e7 56 27 ba d4 b7 6e 39
       -0.00044331054 0.01210543 -0.0006383494 0.0002276593
000250 97 41 ac 38 3d 37 57 39 2e e2 08 ba 5e da fd b7
       8.213816e-05 0.00020524576 -0.00052216917 -3.0261635e-05
000260 6e 44 03 b9 0a 1d e5 b7 37 0d 97 b9 72 42 fb ba
       -0.00012518626 -2.731245e-05 -0.0002881081 -0.0019169583
000270 e6 73 9a 3b 2a 3c d6 bb 37 dc d4 3b 32 85 f1 b9
       0.004713523 -0.006537934 0.006495978 -0.0004606634
000280 8a bd 4a b9 a2 cd f2 38 71 91 37 3c 53 6d 89 37
       -0.0001933483 0.00011577761 0.0112041095 1.638258e-05
000290 62 8d 42 39 bb 71 a9 b9 ab 54 c2 b9 35 f3 9f b9
       0.00018553951 -0.00032318928 -0.00037065646 -0.00030508047
0002a0 2d 54 6a 37 19 92 99 b7 fd a6 5a b6 8a 58 8f b9
       1.3967086e-05 -1.8307053e-05 -3.2581731e-06 -0.00027341052
0002b0 c7 49 11 39 9a 0a 1a 3a b3 9b b9 39 e5 78 a0 39
       0.00013855762 0.00058762135 0.00035401955 0.00030607652
0002c0 b6 2c ef 3b 53 10 ed bb a2 bc 8f 37 bf 85 56 39
       0.007299031 -0.007234612 1.7134767e-05 0.00020458455
0002d0 ee 67 48 39 fc ab 88 37 8c a7 88 b8 26 12 09 ba
       0.00019112203 1.629255e-05 -6.5161934e-05 -0.00052288396
0002e0 99 bc 06 3a e8 27 48 b9 21 dd 80 39 b7 29 14 b9
       0.00051397976 -0.00019088353 0.00024578816 -0.0001412992
0002f0 f1 40 05 bc 4a 61 08 3a ce bf c2 39 d4 3b ed b9
       -0.008133159 0.00052024855 0.0003714547 -0.00045248738
000300 54 29 45 37 eb 3d 84 38 0c 92 e3 ba c4 db 58 38
       1.17517375e-05 6.3057836e-05 -0.0017362251 5.1703086e-05
000310 de ad 5f 3a 6c 10 99 38 9a 94 ec 38 fc aa 0c b9
       0.0008532683 7.298667e-05 0.00011281036 -0.00013415137
000320 ff dd 50 b7 d3 5d 10 b8 73 ce 31 b6 3c 8c 08 37
       -1.2449454e-05 -3.4419656e-05 -2.6495225e-06 8.138883e-06
000330 e9 7c 01 38 86 e2 22 b8 71 d9 a2 b4 36 ee f2 bb
       3.087233e-05 -3.8834776e-05 -3.033306e-07 -0.007413651
000340 03 80 81 38 6b 28 13 3c 63 9b fa 38 59 49 ac 38
       6.1750434e-05 0.008981804 0.00011949872 8.215261e-05
000350 72 ee 2d b9 0b c0 5e 38 d8 a9 8b 35 8c f8 8e 38
       -0.00016587393 5.310778e-05 1.0405738e-06 6.817383e-05
000360 03 40 ea b8 8c 8c 7f b8 f8 e5 c3 b7 64 a0 92 ba
       -0.000111699126 -6.0927632e-05 -2.3352899e-05 -0.0011186716
000370 d0 f6 43 3b 99 01 a9 bb fb 57 9a 3a 90 60 29 37
       0.002990175 -0.005157661 0.0011775488 1.0095668e-05
000380 a5 f4 8a b6 44 5e ca b7 7b 0e e5 3b ae e2 91 38
       -4.141201e-06 -2.4124172e-05 0.0069902516 6.956361e-05
000390 1d db e6 b4 20 9a ed b6 80 d8 43 b7 f1 b2 aa 39
       -4.3000264e-07 -7.081093e-06 -1.1673314e-05 0.00032558248
0003a0 39 f3 5f b8 49 ce 96 b8 3a 2d 77 38 c0 e1 51 b8
       -5.3393862e-05 -7.190981e-05 5.893151e-05 -5.003973e-05
0003b0 eb 2a 8e 38 77 3b 66 b8 77 4b c5 b6 92 ac 29 38
       6.779082e-05 -5.4891654e-05 -5.879843e-06 4.045346e-05
0003c0 54 27 ed 3b 51 b7 e8 bb 61 28 bc b8 23 bb 3b 38
       0.0072373543 -0.007101931 -8.97206e-05 4.475856e-05
0003d0 d3 3b 38 38 9b 92 a2 b8 9e b6 12 b8 11 9c ee b6
       4.3924734e-05 -7.752069e-05 -3.4979188e-05 -7.1111212e-06
0003e0 72 29 d0 b7 71 11 ad 38 0f e8 04 b7 2c 3c dc 37
       -2.4814832e-05 8.2525316e-05 -7.9218435e-06 2.6254063e-05
0003f0 ac c6 6f ba c5 39 8d b8 77 37 04 b8 7a b0 ef b5
       -0.0009146731 -6.734164e-05 -3.1522908e-05 -1.7858249e-06

transformer.layers.0.0.fn.fn.to_out.0.bias f4 [64]
000000 ee 40 a8 bc 25 a2 ec 3b 1e c7 4f ba 5a 4a 5e 3b
       -0.020538773 0.0072214776 -0.0007926094 0.0033918829
000010 ae 34 bc 3b 84 61 81 3c 9d b3 d5 3c 4b e7 3d 3c
       0.0057435846 0.01579357 0.026086623 0.011590789
000020 43 bf 1b 3d bd 05 81 3c 09 d1 8d bc e3 14 cf bc
       0.0380242 0.015749807 -0.01731159 -0.025278514
000030 85 63 d5 3c 45 40 d4 3c 52 14 d9 3c d8 dd 98 3c
       0.026048431 0.025909552 0.026498947 0.01866047
000040 51 b7 6e bc 8a ec de bb c0 07 f2 bc 90 dc d8 3c
       -0.014570073 -0.0068031 -0.029544711 0.02647236
000050 5e 2b 95 bc b6 78 d5 bc bf d1 aa bb c3 8d a1 ba
       -0.018209156 -0.026058536 -0.005212992 -0.0012325573
000060 a7 27 f8 ba 4f cc da ba 60 16 c5 3b 2a 22 73 bc
       -0.0018932716 -0.0016692969 0.00601463 -0.014839688
000070 de d5 cd 3b bc 25 2c 3c d4 39 0b bd c5 0c c9 bb
       0.0062815985 0.010507043 -0.033990696 -0.0061355554
000080 7f aa cd 3c 58 1b 8b 3c 33 d1 98 3b 43 a8 5e 3c
       0.025105713 0.016980812 0.0046636104 0.013589921
000090 08 07 a9 b9 f4 2d 03 3c 95 3e e3 3c 25 91 5f bc
       -0.0003223943 0.008006562 0.027739802 -0.013645445
0000a0 02 6e de ba 64 4f bc bc 58 34 96 3c e4 de aa bc
       -0.0016970041 -0.022987075 0.018335506 -0.020858236
0000b0 e5 9a 48 bc 79 e6 f2 3b 60 65 d2 3c 30 c1 95 3c
       -0.012243961 0.0074127284 0.025683105 0.018280596
0000c0 be 10 98 3c 63 63 a7 bc 4f 43 86 bb bb 6c 23 bd
       0.01856267 -0.020433133 -0.0040973793 -0.039898615
0000d0 ea f8 03 3b f0 8d 64 bb 49 f6 db bb 2c bc cf bb
       0.0020137378 -0.003487464 -0.006712709 -0.0063395705
0000e0 33 3c b6 ba 05 7d c2 3b d9 23 a2 bc f0 4d ed bc
       -0.0013903439 0.0059353136 -0.019792484 -0.028967828
0000f0 38 7e 78 3c da c5 ba 39 46 96 9f bc e7 e2 e2 3a
       0.015166812 0.00035624095 -0.019480836 0.0017310054

transformer.layers.0.1.fn.norm.weight f4 [64]
000000 b9 31 0f 36 6d b5 1d 3e 87 bf b0 b1 e7 b2 3e 30
       2.1337603e-06 0.1540124 -5.1440483e-09 6.9375833e-10
000010 57 1d 9b 3e 30 bb ad b8 a9 a4 14 bb fc d3 93 3e
       0.30295822 -8.284149e-05 -0.0022681153 0.2887267
000020 57 05 23 3d fa 73 43 35 0a 91 8a 2e 75 27 b4 34
       0.039800014 7.281193e-07 6.3012776e-11 3.3556321e-07
000030 22 57 82 b3 ff 79 bd 39 10 18 87 b8 cf 62 24 3e
       -6.069446e-08 0.00036139783 -6.4417836e-05 0.16053317
000040 6b e7 2d 3b 45 d5 c0 35 4a 68 44 3e c1 4d ef 3c
       0.002653564 1.4367184e-06 0.19180408 0.02921188
000050 bd e7 0d 33 46 9a 3e 3a 4a e6 2f 36 71 f4 10 3e
       3.3039885e-08 0.00072709133 2.6211078e-06 0.14155747
000060 6d a4 3a 3e 51 01 05 3d de bb 2e b7 0d eb 1a 3d
       0.18226786 0.03247196 -1.0414949e-05 0.03782182
000070 c7 df 09 3e 69 53 34 3e a3 f1 be b1 d6 9a b4 3d
       0.1346427 0.17609943 -5.5571987e-09 0.08818595
000080 f5 af cf 3d 0e 69 18 3e 39 a5 3f 32 6d 7c ee b9
       0.10140983 0.14883825 1.11552305e-08 -0.00045487602
000090 85 35 47 33 db e2 e8 3c 0d 4c e3 3d 2e f5 2e 36
       4.6381974e-08 0.028428486 0.1109849 2.6070734e-06
0000a0 2a 39 02 3d 18 05 8c 3e a4 3c 18 3d b5 f0 2c 3e
       0.031792797 0.27347636 0.037167206 0.16888697
0000b0 31 a8 03 3e 67 83 ae 36 da 4e 45 b7 b2 66 c7 3d
       0.12857129 5.2009013e-06 -1.1760474e-05 0.097363845
0000c0 2c cb 2b 3d 1c 5e 36 b5 3d a4 2d 3e 28 3f 1c 3d
       0.041941807 -6.793723e-07 0.16957183 0.038146168
0000d0 1d 00 c0 b5 46 b1 2e 34 b2 99 b4 b5 7a d1 85 3d
       -1.4305148e-06 1.6269504e-07 -1.3455776e-06 0.06534095
0000e0 59 16 a5 3e 07 16 e0 a5 08 9a 30 3a 35 fc 85 3d
       0.32243612 -3.8872732e-16 0.00067368196 0.06542245
0000f0 00 ab f2 3d 94 13 85 3c 8a 59 59 b3 43 12 cc 3b
       0.11849022 0.016244687 -5.0605685e-08 0.006227763

transformer.layers.0.1.fn.norm.bias f4 [64]
000000 28 12 87 b4 0a 11 a0 3b cd 19 84 32 4c d5 c3 2f
       -2.515892e-07 0.0048848437 1.5378555e-08 3.562185e-10
000010 f6 76 14 3c d8 62 9e b8 80 1b 98 3a 08 b4 97 bc
       0.009061566 -7.552438e-05 0.0011604875 -0.018518463
000020 ad b4 c5 bb 28 01 39 b4 c2 82 ff ad 52 1e 01 35
       -0.006033501 -1.7229888e-07 -2.9048212e-11 4.8100367e-07
000030 21 d5 16 34 66 45 47 39 61 87 72 b8 15 0d db 3b
       1.4047374e-07 0.00019003972 -5.7823378e-05 0.006684909
000040 03 72 29 3a 2a 23 0c 36 37 13 84 bb b3 ca 1c bb
       0.00064638274 2.0882094e-06 -0.004030611 -0.002392453
000050 12 25 d9 32 46 85 74 39 ca ac cd b6 42 4b eb 3b
       2.5278982e-08 0.00023319302 -6.1295914e-06 0.0071806023
000060 4c 9a 98 bc a9 c0 f4 bb 71 37 8c 37 e8 c8 38 3c
       -0.018628262 -0.007469256 1.6715117e-05 0.0112783685
000070 99 e5 01 bc 53 a1 e0 3b 8a 82 61 32 67 27 da 3a
       -0.0079282755 0.006855169 1.3126405e-08 0.0016643823
000080 1e fd aa 3b eb 57 01 3b 84 93 53 32 6c 80 9a b9
       0.005218162 0.001973624 1.2315358e-08 -0.0002946885
000090 37 29 48 33 44 77 08 bc 60 c0 be bb f5 90 0f 34
       4.6603613e-08 -0.008329216 -0.0058212727 1.3370648e-07
0000a0 a4 11 5c bb a7 1b 52 bc e7 c4 36 ba f4 61 39 3c
       -0.003357985 -0.012823976 -0.000697209 0.011314858
0000b0 3c 76 84 3c 98 b0 09 35 6f 8b e4 b6 27 de 15 bc
       0.01616966 5.1293455e-07 -6.8111617e-06 -0.0091472035
0000c0 24 f4 03 ba 3c f7 0e 37 44 83 01 bc eb 13 f6 3b
       -0.0005033633 8.521423e-06 -0.007904831 0.0075096986
0000d0 7f 3d 17 36 29 ae bf b3 4a 4d 34 34 d4 f3 8f 3c
       2.2536549e-06 -8.92581e-08 1.6791924e-07 0.017572321
0000e0 32 16 8d 3c 2f 40 40 24 4f 10 95 39 7a 8f 8e 3b
       0.017222498 4.168773e-17 0.00028431645 0.0043506
0000f0 62 88 83 3c 65 be f8 bb ed 3e b7 32 61 af c0 ba
       0.016056243 -0.007591056 2.133262e-08 -0.0014700704

transformer.layers.0.1.fn.fn.net.0.weight f4 [8, 64]
000000 61 df 50 b5 c3 15 0a bd 90 84 0a b3 ff 10 88 af
       -7.78111e-07 -0.03371216 -3.2251194e-08 -2.4750332e-10
000010 ab 4d 22 bd 0e 20 af 38 d2 a7 e3 ba 2a 39 2e 3d
       -0.03962485 8.350621e-05 -0.001736874 0.042534985
000020 c8 a9 d1 3c 80 ce f1 b5 f9 3c d5 2e 78 71 2b b5
       0.025593653 -1.8015999e-06 9.6969495e-11 -6.3867583e-07
000030 99 9d c6 b3 0d 00 e5 38 c0 64 d1 36 26 eb 2a bd
       -9.24876e-08 0.000109195804 6.240414e-06 -0.04172816
000040 b5 18 f1 ba a0 40 7c b4 10 41 8f bb 6e e2 ec 3b
       -0.0018394204 -2.349284e-07 -0.0043717697 0.007229141
000050 74 01 d0 b3 6c 56 24 3a 7a 5e a3 b5 9b a6 b7 3c
       -9.686019e-08 0.00062689814 -1.2171943e-06 0.02241831
000060 ca f2 90 3c 7f a6 dc 39 75 09 51 35 e1 4c 35 3b
       0.017693896 0.0004208572 7.787233e-07 0.0027664232
000070 93 3e c3 3c 3a 8f 7d bc a3 1b 41 32 61 67 58 3c
       0.023833549 -0.015476042 1.1240362e-08 0.013208241
000080 83 ac 97 39 ee 58 a0 bc e7 b5 85 32 e9 eb 9a b8
       0.00028929496 -0.019573655 1.5565957e-08 -7.387234e-05
000090 52 7b 12 b3 e8 34 48 ba 31 2b 02 3d 48 64 35 37
       -3.4105433e-08 -0.0007637278 0.03177947 1.0811789e-05
0000a0 24 7c 1f b9 c2 b5 47 3d aa c3 f6 3b a2 be 08 bc
       -0.00015209668 0.048757322 0.007530649 -0.008346232
0000b0 72 91 b2 bc b5 46 04 b7 07 59 f5 37 49 2c 91 3c
       -0.02179787 -7.884276e-06 2.9247733e-05 0.017721312
0000c0 df bc b7 3c 57 8a c9 b6 f5 3e 56 3d c7 23 a2 bc
       0.022428928 -6.0063717e-06 0.052306134 -0.01979245
0000d0 14 fd ca b5 9c d4 eb b0 73 f8 e6 b5 11 d6 3a 3c
       -1.5123828e-06 -1.7158928e-09 -1.7208644e-06 0.0114035765
0000e0 a2 90 8d bd d5 3f e6 24 6a 57 74 b9 af 9c d4 bc
       -0.06912352 9.9854736e-17 -0.00023302218 -0.025953619
0000f0 fb f4 22 3c 48 51 f8 39 6c 2f 91 34 c1 90 41 b9
       0.009946103 0.00047362805 2.704286e-07 -0.0001845984
000100 39 39 8b b4 68 a5 0f bc 76 9b 28 b3 31 12 aa af
       -2.5932403e-07 -0.008767463 -3.925694e-08 -3.0935746e-10
000110 e8 f7 d6 3a 75 52 7c 38 bf fb 03 bb 22 fc 38 bc
       0.0016400786 6.0158276e-05 -0.0020139066 -0.011290582
000120 fb 17 1b ba e8 19 e5 b5 4d 09 db 2e 9c 24 ed b4
       -0.0005916354 -1.7069369e-06 9.960619e-11 -4.4171327e-07
000130 cf 12 30 b4 a2 7a e5 b8 d1 7d 21 37 d6 05 83 3b
       -1.639812e-07 -0.00010942413 9.625642e-06 0.0039984984
000140 2d 02 86 ba 16 66 65 b5 3d 11 07 3d ba 64 a2 39
       -0.0010224037 -8.54577e-07 0.032975424 0.00030974095
000150 19 b6 2e b4 b6 a0 fe 38 7c 8c 62 b7 f2 ed 21 bc
       -1.627126e-07 0.000121415986 -1.3503359e-05 -0.009883391
000160 7b f9 91 ba e1 bb 9f ba a1 4c 5f b3 bf 03 fd 3b
       -0.0011136973 -0.001218673 -5.1990927e-08 0.007721394
000170 75 ab c5 bb 7b f3 17 3c e2 65 72 30 d8 1f 2e 3c
       -0.006032402 0.009274359 8.818387e-10 0.010627709
000180 a6 44 db 3b e1 4d 2f bc b5 42 77 32 27 19 97 b7
       0.006691533 -0.01069972 1.439246e-08 -1.8012315e-05
000190 aa 29 8f b2 5b b1 f4 b9 93 3e 92 bb ca ce 2f 37
       -1.6666338e-08 -0.00046671447 -0.004463026 1.047896e-05
0001a0 16 79 44 3b c4 08 43 bc 6d 75 a8 3b da 53 50 bc
       0.00299794 -0.011903945 0.0051409514 -0.012715304
0001b0 6d ce 59 bc e4 b3 c1 b6 de 3f 16 38 6e b2 86 ba
       -0.013293845 -5.7727902e-06 3.5822268e-05 -0.0010276565
0001c0 ac 30 ca 3b fa d1 ce b6 69 df a2 3b 5c 05 3c 3b
       0.006170353 -6.163723e-06 0.00497048 0.0028689718
0001d0 de 75 2f b5 0c 4d 89 32 2f 10 0e b6 29 a2 09 3c
       -6.53641e-07 1.5983936e-08 -2.116907e-06 0.008400478
0001e0 0b e0 22 bd 44 de 1e 25 86 30 8a b9 36 61 99 b9
       -0.039764445 1.3779622e-16 -0.00026357564 -0.00029254862
0001f0 3e c1 1d 3d d2 75 95 39 02 2a 71 34 e8 d8 6c b9
       0.03851437 0.00028507278 2.2460156e-07 -0.00022587518
000200 5a cc 7f 33 d5 ae 3c 3d f7 ea 9a b3 f3 7f 86 b0
       5.955767e-08 0.04606517 -7.213924e-08 -9.786149e-10
000210 50 c8 09 3e 76 5b 0f 39 ad 3e 80 b9 01 4c c5 bd
       0.1345532 0.00013671615 -0.0002446076 -0.09633637
000220 cd 22 1b bc e4 94 2c 36 b6 57 61 2f 0c 1e 02 b5
       -0.009468746 2.5716663e-06 2.0494792e-10 -4.84725e-07
000230 53 c0 04 b5 dd d1 a3 b9 93 26 3e 37 d1 78 8c 3d
       -4.94537e-07 -0.00031246143 1.1333864e-05 0.068589814
000240 5c 9d 4d bb b0 ec 21 b6 21 f2 c3 bc dd 85 3f bc
       -0.003137431 -2.412864e-06 -0.023919167 -0.01168963
000250 cd 60 6b b4 ae 50 b5 ba c5 47 90 b7 7e 92 87 3c
       -2.1921296e-07 -0.0013833249 -1.7199558e-05 0.016549345
000260 29 01 b1 bc d7 17 36 bc 38 52 b6 b6 d9 69 b9 3b
       -0.021606999 -0.011114082 -5.433594e-06 0.00565837
000270 a0 7b 5f bd 9f e5 34 3d 54 c5 a2 b1 0d 18 50 bc
       -0.054561257 0.044164296 -4.737254e-09 -0.012701047
000280 64 86 2d 3d 6a e9 4a 3d 6e 62 e6 b2 5b a1 87 38
       0.042364493 0.049539007 -2.6820285e-08 6.4673564e-05
000290 b0 ea d0 b2 e4 63 03 bc 52 5a b7 bc e4 b5 68 37
       -2.432111e-08 -0.008019421 -0.022381935 1.3870627e-05
0002a0 39 a7 82 bc 84 ae c8 bd 42 73 17 bc e4 61 55 3d
       -0.015948879 -0.09798911 -0.009243788 0.05209531
0002b0 de 72 7e 3d 7e 34 91 b6 ae 99 2a 38 ac 10 06 bd
       0.062121265 -4.3274476e-06 4.0674284e-05 -0.032730743
0002c0 40 26 1b bc b3 36 ba b7 b8 00 99 bd f0 c6 c5 3c
       -0.009469569 -2.21984e-05 -0.0747084 0.024142712
0002d0 1e c4 e8 b5 20 99 ed 33 be e0 25 b6 94 2d f3 3c
       -1.7342425e-06 1.1064026e-07 -2.4717733e-06 0.02968482
0002e0 5d 37 96 3c 54 65 d7 25 bc 91 99 39 96 10 b0 3b
       0.018336946 3.7365217e-16 0.00029291015 0.005373071
0002f0 fd 00 8e 3b 51 fd 9a bb 7d 75 2b 35 25 72 21 ba
       0.004333614 -0.0047299047 6.387343e-07 -0.00061586715
000300 a8 97 0f 36 9d ff 5d 3d de db 22 31 55 0e 0b 30
       2.1396936e-06 0.05419885 2.3699083e-09 5.058827e-10
000310 12 92 1a 3e 6a f9 0c b8 ae a3 30 ba 23 27 ec bd
       0.15094784 -3.3610886e-05 -0.00067382574 -0.11530902
000320 ab a0 10 3b d4 47 82 35 19 18 5b af be d8 a9 34
       0.0022068422 9.70666e-07 -1.9926495e-10 3.1636404e-07
000330 3d 44 76 b3 aa 3e 8a 38 34 71 97 b6 7c 2f 8e 3d
       -5.73384e-08 6.592025e-05 -4.5133293e-06 0.06942651
000340 61 44 9d 3a 64 f6 1e 36 a1 d6 f0 bc b9 2e 59 bc
       0.0011998528 2.3687253e-06 -0.029399218 -0.013255768
000350 47 f7 9a 33 8e 4e 8a ba 6a 19 a0 37 92 32 5f 3d
       7.216163e-08 -0.0010551976 1.908532e-05 0.054491587
000360 4d 99 1c bd f5 46 1f bc 10 33 27 b6 d3 fe 4f 3c
       -0.038232137 -0.009721507 -2.4914661e-06 0.012695032
000370 f0 43 7a bd ce 9f a0 3d 6a ec a9 b1 fa 8f 85 bc
       -0.061099946 0.0784298 -4.9454245e-09 -0.016304005
000380 86 f5 3b 3d 71 62 87 3d ad 9f 45 b2 46 54 30 3a
       0.045888446 0.06610573 -1.1503215e-08 0.0006726425
000390 6c 70 83 b2 28 98 4f bc dc e6 89 bc 21 87 9d 37
       -1.530153e-08 -0.012670554 -0.016833715 1.8778783e-05
0003a0 55 c8 9b bc b9 67 08 be 45 f1 ac bc df 50 92 3d
       -0.019016424 -0.13320817 -0.02111114 0.07144331
0003b0 0d 82 8d 3d d0 e2 ce 35 ab 8f 5a b6 35 81 dd bc
       0.06909571 1.5414207e-06 -3.2568157e-06 -0.02703915
0003c0 59 f8 9d bb 77 5e 61 37 58 cc 6f bd e4 a1 3a 3c
       -0.004820865 1.3433039e-05 -0.058544487 0.011391137
0003d0 a2 3b c5 b5 0b 7e ff 33 71 e3 0d b6 e3 83 08 3d
       -1.4694999e-06 1.189729e-07 -2.1143026e-06 0.033328902
0003e0 dd f2 45 3d ca d1 36 a5 36 03 7c b7 ed e7 5c 3c
       0.048327316 -1.5857063e-16 -1.5021118e-05 0.01348303
0003f0 de bd 05 3d 35 2d 9e bb 4c 11 27 b5 86 0c 68 bb
       0.032651775 -0.0048271664 -6.223752e-07 -0.0035407855

transformer.layers.0.1.fn.fn.net.0.bias f4 [8]
000000 e6 01 b7 3c 62 d0 03 3e 51 94 a3 3b 1f 19 90 bb
       0.022339772 0.1287246 0.004992046 -0.004397526
000010 77 92 24 bc 42 40 71 bb 23 bc af bc 73 1a 29 3d
       -0.010044686 -0.0036811982 -0.021452015 0.04128499
