log/SpectralFormer_patch_pavia.pt (torch, 763676 bytes, 69 tensors)

pos_embedding f4 [1, 104, 64]
-0.00456665 -0.011589785 -0.0010528677 -0.012816064 0.0031442344 0.002757378 0.0024500962 -0.03054572
-0.00953043 0.0050996128 -0.002296976 -0.004471156 0.0028147444 0.00794607 0.0029188439 -0.00055534457
0.007587259 -0.0077024284 0.0034844514 -0.005695327 0.0021939361 -0.011479733 0.0016371971 0.031865794
0.0052381656 0.00062132534 -0.0027421955 0.0122749135 0.0038507422 0.011682704 0.0007498174 -0.0042960015
-0.0003534065 0.0019218756 0.0034929581 -0.007075368 -0.0018795673 -0.0057761953 -0.00055302127 -0.002114553
0.005624029 -0.004427726 0.0015433184 0.009936172 0.008082832 0.036867276 -0.014245061 0.00198038
-0.004785322 0.0087672295 0.0010256438 0.0016726786 0.0033400196 0.004132132 -0.01767948 0.003969721
-0.010353734 -0.008792595 0.012093195 0.74688804 0.0011505618 -0.004116394 0.022940671 -0.0076238406
-0.011344449 -0.011819846 0.010843264 0.035160054 -0.0034664182 0.115707085 -0.0024574588 0.00425617
-0.114236385 -0.002167056 -0.007310418 0.0063177026 -0.0015591176 0.003459721 0.0059124245 0.009035315
-0.0051395944 0.00530303 -0.018137893 -0.0031835916 0.0022176395 0.00089463056 -0.0001874475 0.0043528154
-0.0003939119 0.038243923 -0.013117034 -0.0042221667 -0.00091293704 0.00010625312 0.007672839 0.0028765986
0.048810583 -0.004341307 -0.003132941 0.006626731 -0.27204624 -0.006541451 0.0070004854 -0.0074469065
-0.0027520026 -0.0036489363 -0.0035844636 0.002781891 0.0022611753 -0.0012067873 -0.014406774 -0.012764041
0.0061522783 -0.09150327 -0.000420759 -0.00185312 -0.002557858 0.0034157136 0.04028401 -0.0041734707
-0.0027985994 -0.02574292 0.11923191 0.008076354 0.0057202373 0.00036398057 -0.0042381193 0.045247644
-0.043920778 -0.02870737 -0.00839811 0.0144373365 -0.0044386587 -0.012079375 0.010854768 -0.01968233
0.0008186856 -0.0067043165 -0.015567261 -0.019033223 -0.0015813119 0.010661582 0.008320776 0.004846145
-0.012850236 0.013266267 -0.0073604058 0.0008583556 0.011819219 0.0043541878 -0.0013340198 0.0066982247
-0.0009949154 0.0016122657 -0.039315894 0.00082149886 -0.0025595007 0.007835892 0.005452678 0.0052215797
0.009030917 -0.013531915 -0.005304534 -0.003002284 0.014732477 -0.008410272 0.016007727 -0.011634751
-0.0005120843 0.0067162565 -0.009782387 0.009892978 0.0054872925 -0.018817225 -0.015012816 -0.051679797
0.009494868 0.011294467 -0.0042801467 0.0005315284 0.0015713968 0.0010984181 0.13535804 0.016028695
-0.06827805 -0.05388776 0.12535721 0.0153784165 0.008204904 -0.017199663 -0.06483699 -0.05404727
-0.010272657 -0.008639691 0.0065887906 0.018510014 -0.0053449636 -0.009975107 -0.001979001 0.013635465
0.0046938234 -0.024505999 0.0025680785 0.007211562 -0.0007552519 0.0025564895 0.004199801 0.010170113
-0.0067158453 -0.0010345234 0.036453586 -0.00066908484 0.004089523 0.015163881 -0.0032423027 -0.01712201
-0.0016002952 -0.003664401 -0.0072231656 -0.012921458 -0.00570128 0.008364588 -0.004384022 0.0037420695
-0.0045230286 0.0064129177 -0.0051183193 -0.0035285745 -0.0038937936 -0.003781777 0.0035173623 -0.011428428
0.0018035723 0.008180231 -0.004135079 0.020075303 -0.0022075316 -0.0031852287 0.011890396 -0.044679873
-0.06219641 -0.020111378 0.0009052791 -0.00059666473 0.007205299 -0.000467685 0.052471627 -0.009629897
0.0048663574 0.009971207 0.04321026 0.0066222106 0.005384951 0.0019274458 0.12235691 0.014133295
00000000: d6a3 95bb 15e3 3dbc 6100 8aba 78fa 51bc
00000010: 800f 4e3b 20b5 343b cb91 203b 053b fabc
00000020: 8525 1cbc a71a a73b dd88 16bb c682 92bb
00000030: 9377 383b 3c30 023c 134a 3f3b 8b94 11ba
00000040: 8b9e f83b a764 fcbb 655b 643b de9f babb
00000050: 24c8 0f3b 7d15 3cbc 3897 d63a b585 023d
00000060: eba4 ab3b 70e0 223a 68b6 33bb b81c 493c
00000070: bc5c 7c3b d068 3f3c 658f 443a 79c5 8cbb
00000080: 6b49 b9b9 72e7 fb3a 1dea 643b 7dd8 e7bb
00000090: d05b f6ba 3d46 bdbb a1f8 10ba 5094 0abb
000000a0: c649 b83b 7516 91bb 2c49 ca3a 53cb 223c
000000b0: db6d 043c 2402 173d 1e64 69bc 43c9 013b
000000c0: 31ce 9cbb 6da4 0f3c e56e 863a c83d db3a
000000d0: 3be4 5a3b d666 873b 8fd4 90bc 6f14 823b
000000e0: b5a2 29bc d10e 10bc 8922 463c 0e34 3f3f
000000f0: 73ce 963a d1e2 86bb 13ee bb3c 69d1 f9bb
00000100: 11de 39bc 07a8 41bc f2a7 313c fd03 103d
00000110: d92c 63bb d6f7 ec3d 510d 21bb 5777 8b3b
00000120: c4f4 e9bd 2b05 0ebb 3b8c efbb bb04 cf3b
00000130: 4e5b ccba 7dbc 623b 03bd c13b dc08 143c
00000140: 0b6a a8bb 0ac5 ad3b eb95 94bc cea3 50bb
00000150: d155 113b a485 6a3a 8e8d 44b9 10a2 8e3b
00000160: f685 ceb9 a9a5 1c3d d4e8 56bc 1a5a 8abb
00000170: 2b52 6fba 36d4 de38 706c fb3b 5185 3c3b
00000180: 9bed 473d 8641 8ebb 0752 4dbb 0c25 d93b
00000190: a549 8bbe ab59 d6bb 5464 e53b 2e05 f4bb
000001a0: f15a 34bb fe22 6fbb 52e9 6abb 6350 363b
000001b0: 3a30 143b 102d 9eba 640a 6cbc 4520 51bc
000001c0: 0d99 c93b 1166 bbbd 5199 dcb9 64e4 f2ba
000001d0: bca1 27bb 2ada 5f3b d900 253d 9cc1 88bb
000001e0: b568 37bb d1e2 d2bc dc2f f43d af52 043c
000001f0: d470 bb3b a5d4 be39 ecdf 8abb 9855 393d
00000200: 46e6 33bd b82b ebbc 3a98 09bc 948a 6c3c
00000210: 2b72 91bb 92e8 45bc 32d8 313c d63c a1bc
00000220: 109d 563a e2af dbbb d30d 7fbc 90eb 9bbc
00000230: 0644 cfba ebad 2e3c dd53 083c 69cc 9e3b
00000240: cc89 52bc c25a 593c 8f2f f1bb 4503 613a
00000250: 66a5 413c 93ad 8e3b 47da aeba c87c db3b
00000260: d267 82ba a952 d33a b409 21bd db59 573a
00000270: 4cbd 27bb 1d62 003c 61ac b23b c919 ab3b
00000280: 69f6 133c f7b4 5dbc a8d1 adbb f8c1 44bb
00000290: 7d60 713c 3dcb 09bc a322 833c af9f 3ebc
000002a0: 653d 06ba 0b14 dc3b 4e46 20bc 2816 223c
000002b0: bfce b33b 9526 9abc 50f8 75bc 32ae 53bd
000002c0: 5d90 1b3c 6e0c 393c 7940 8cbb 4456 0b3a
000002d0: 54f7 cd3a ccf8 8f3a 4c9b 0a3e 9c4e 833c
000002e0: 5dd5 8bbd 69b9 5cbd a45d 003e c1f5 7b3c
000002f0: dd6d 063c 4fe6 8cbc 41c9 84bd ac60 5dbd
00000300: a54e 28bc 7e8d 0dbc c8e6 d73b 50a2 973c
00000310: ce24 afbb a26e 23bc 21b2 01bb 4967 5f3c
00000320: a5ce 993b cec0 c8bc 354d 283b f74e ec3b
00000330: 19fc 45ba c78a 273b 7c9e 893b 8ca0 263c
00000340: 9810 dcbb d898 87ba 5b50 153d 8665 2fba
00000350: 6801 863b ed71 783c d07c 54bb 7543 8cbc
00000360: ffc0 d1ba 7226 70bb 4eb0 ecbb 86b4 53bc
00000370: ced1 babb a00b 093c d8a7 8fbb 823d 753b
00000380: ea35 94bb 7423 d23b 93b7 a7bb a83f 67bb
00000390: 042f 7fbb b1d7 77bb 8c83 663b 4d3e 3bbc
000003a0: d865 ec3a 6006 063c 8f7f 87bb f674 a43c
000003b0: 3cac 10bb 45bf 50bb efcf 423c 3e02 37bd
000003c0: aac1 7ebd 9ec0 a4bc 4150 6d3a 7e69 1cba
000003d0: 6e1a ec3b 9e33 f5b9 7dec 563d b7c6 1dbc
000003e0: f775 9f3b 465e 233c 3efd 303d 21ff d83b
000003f0: 3e74 b03b 59a2 fc3a 4296 fa3d 568f 673c

cls_token f4 [1, 1, 64]
-0.003660072 -0.010000049 -0.072077274 -0.012814772 0.003144216 0.0027562382 0.0028096861 0.014456255
0.012551581 0.005792499 -0.004361748 -0.004393131 0.0028147434 0.007914443 -0.008833874 -0.047825485
0.0076352432 -0.021167938 0.0034892913 -0.005695907 0.002193945 -0.00723652 0.0016371362 0.0077730403
0.005238165 0.00062132743 -0.002742049 0.012424385 0.0038451767 0.004921724 0.00074021256 -0.0042960863
-0.0002984103 0.0019218408 0.0034929584 -0.007514525 -0.0018802448 -0.0057761967 -0.0004586637 -0.002113932
0.005623967 -0.0049389014 0.001497611 0.009936169 0.008083214 0.0039703767 -0.013008865 0.003303492
-0.004492103 0.00876395 0.0010258089 0.0016726686 0.003270517 0.0040898635 -0.020762123 0.033168
-0.0096477 -0.0092897555 0.0017636048 -0.0067097964 0.0037035036 -0.001676989 0.008309886 -0.007620103
00000000: d2dd 6fbb 3fd7 23bc 409d 93bd 0df5 51bc
00000010: 310f 4e3b 01a2 343b b622 383b eed9 6c3c
00000020: 25a5 4d3c 01cf bd3b ffec 8ebb 41f4 8fbb
00000030: 8f77 383b 94ab 013c f4bb 10bc a8e4 43bd
00000040: 1031 fa3b 6268 adbc 98ac 643b bba4 babb
00000050: 4ac8 0f3b 5420 edbb 2d95 d63a fdb4 fe3b
00000060: eaa4 ab3b 94e0 223a f3b3 33bb a68f 4b3c
00000070: 5cff 7b3b 6a46 a13b d30a 423a 2fc6 8cbb
00000080: f473 9cb9 47e6 fb3a 1eea 643b 683c f6bb
00000090: 8c72 f6ba 4046 bdbb cd78 f0b9 e589 0abb
000000a0: 4149 b83b 82d6 a1bb 7d4b c43a 50cb 223c
000000b0: 756f 043c ef19 823b 2223 55bc 667f 583b
000000c0: 7e32 93bb ac96 0f3c 6f74 863a 723d db3a
000000d0: 2c56 563b 4304 863b 5415 aabc 2bdb 073d
000000e0: 6311 1ebc 0f34 18bc c228 e73a dadd dbbb
000000f0: 7bb6 723b 6ace dbba 3026 083c 0fb2 f9bb

patch_to_embedding.weight f4 [64, 343]
0.0015951116 0.00065928756 0.001710505 0.00038371448 0.0055603655 0.0032954065 0.011880023 -0.00189488
0.0015747979 0.00048760016 0.005050942 0.008240524 0.00161036 0.016452143 0.0041670315 0.013314664
0.00526621 0.007308964 0.0031698747 0.0032219153 0.01178991 0.012970706 0.011773999 0.016866578
0.010069534 0.012394884 0.012860313 0.011024968 -0.0043744454 0.005363255 0.019966504 0.03107314
0.026826879 0.021569766 0.013626145 -0.003618857 0.0012536885 0.012368246 0.031264298 0.030860336
0.026882676 0.012183905 -0.002525754 0.009533489 0.014354184 0.020444784 0.0217479 0.011988106
-0.00425875 -0.014405612 -0.0083275335 -0.011395314 -0.004988616 -0.005602489 -0.0066914978 0.0024738582
-0.012594997 -0.0035528578 -0.004157624 -0.007872884 -0.0014467799 -0.006206793 0.0037154022 -0.003468605
0.0038886985 0.0022393076 0.0026963677 -0.00020942769 -0.0022896023 0.0006885075 0.0049107247 0.006962736
0.0052582747 0.0032243906 0.002784552 0.00585169 0.004212254 -0.010361007 -0.0061666374 0.008728066
0.020376733 0.018262686 0.014869197 0.0011549924 -0.010042066 -0.0034199948 0.0045754868 0.019190134
0.02244276 0.012063071 0.0043359436 -0.009518906 0.0025284875 0.01183818 0.010908248 0.007602151
0.004114757 -0.013278423 -0.02426426 -0.0170069 -0.018202739 -0.019421237 -0.016454088 -0.020093277
-0.008643963 -0.019542394 -0.008622429 -0.013893978 -0.012531578 -0.008966642 -0.009785087 -0.0038652571
-0.011404572 -0.0042728516 -0.008832392 -0.004789303 -0.010826533 -0.014258315 -0.008022563 -0.005089779
-0.003218018 -0.0043880283 -0.0072719012 -0.0040271794 -0.009315204 -0.008558346 -0.016360657 -0.0128102945
-0.0042556613 0.012180361 0.010402 0.0060348855 -0.008700078 -0.01741885 -0.017057065 -0.0020558054
0.01008316 0.015893215 0.008737656 -0.0030538072 -0.018178442 -0.008074006 0.0008418644 -0.0017894342
0.0030207701 -0.0024276932 -0.016827393 0.0069711655 0.0035191807 0.0028671096 0.0026006137 0.010489075
0.006752644 0.012439866 0.0010193104 0.007728279 0.005022634 -0.00063951116 0.0058185337 0.00887932
0.016566673 0.009215076 0.012057682 0.011250053 0.0063643483 0.008636275 0.0054348903 0.01235451
0.011193853 0.017298609 0.018430747 0.00859994 0.01970295 0.008369874 0.015040219 0.0010365831
0.0039800243 0.016759442 0.034654584 0.030769726 0.02729531 0.012056154 0.0051722093 0.008274506
0.016029488 0.027631992 0.028614074 0.022773389 0.0070196018 0.005937797 0.008171227 0.02117992
0.028205471 0.025184037 0.013406281 -0.006735325 0.001742322 -0.0009859957 -0.0037324626 -0.0024214154
0.0062385555 0.0056342524 0.011447696 -0.0021345154 0.0048765326 -0.0020620853 -0.0038510389 0.00883431
0.0027265747 0.017629711 0.009157624 0.01368461 0.004596974 0.010329148 0.0029952421 0.0013099016
0.011447244 0.013155593 0.013632279 0.00908362 0.015313868 0.016322488 0.0055386513 0.009362331
0.0021123837 -0.0012709969 0.013179544 0.032900464 0.030506514 0.025839858 0.014420192 0.000120719706
0.006259993 0.012987717 0.0265728 0.029060965 0.027786098 0.0042180335 0.008570087 0.008593593
0.017411454 0.021544462 0.023448905 0.015695203 -0.0064441105 0.0024080947 0.0001484147 -0.012118147
-0.008957318 0.0009337733 0.0022759996 0.00942837 -0.0030299197 -0.004979912 -0.0014193666 -0.0058573103
00000000: 1013 d13a 0ad4 2c3a 0633 e03a 492d c939
00000010: ba33 b63b bff7 573b 6ea4 423c 9f5d f8ba
00000020: 7369 ce3a 96a4 ff39 5f82 a53b 4303 073c
00000030: b712 d33a a5c6 863c 988b 883b c025 5a3c
00000040: 2c90 ac3b 0980 ef3b acbd 4f3b c526 533b
00000050: 772a 413c 1683 543c bbe7 403c c72b 8a3c
00000060: b0fa 243c e913 4b3c 10b4 523c 11a2 343c
00000070: 8257 8fbb 3ebe af3b cb90 a33c 198d fe3c
00000080: 0bc4 db3c 14b3 b03c 3240 5f3c 582a 6dbb
00000090: ce52 a43a 2fa4 4a3c fe0e 003d d1ce fc3c
000000a0: 0f39 dc3c 009f 473c 1f87 25bb 5a32 1c3c
000000b0: d02d 6b3c d27b a73c a728 b23c c369 443c
000000c0: fc8c 8bbb 8405 6cbc 3570 08bc 69b3 3abc
000000d0: 8b77 a3bb 1695 b7bb 5a44 dbbb 7420 223b
000000e0: 3f5b 4ebc 10d7 68bb ae3c 88bb 45fd 00bc
000000f0: e1a1 bdba 5a62 cbbb 1b7e 733b 8951 63bb
00000100: 89d9 7e3b 59c1 123b 8bb5 303b d199 5bb9
00000110: 270d 16bb f57c 343a 25ea a03b aa27 e43b
00000120: 9b4d ac3b 4c50 533b 087d 363b 89bf bf3b
00000130: f306 8a3b 37c1 29bc 8111 cabb 2a00 0f3c
00000140: 1bed a63c a19b 953c ef9d 733c 1d63 973a
00000150: 7a87 24bc fe21 60bb f7ed 953b a134 9d3c
00000160: e1d9 b73c 30a4 453c 8814 8e3b 2ff5 1bbc
00000170: fbb4 253b edf4 413c 82b8 323c 771b f93b
00000180: 15d5 863b be8d 59bc d7c5 c6bc 0e52 8bbc
00000190: e91d 95bc 4919 9fbc b9ca 86bc a89a a4bc
000001a0: 699f 0dbc 5f17 a0bc 1745 0dbc 91a3 63bc
000001b0: 3f51 4dbc d3e8 12bc a151 20bc 4150 7dbb
000001c0: 3eda 3abc 4703 8cbb bdb5 10bc 96ef 9cbb
000001d0: c561 31bc b59b 69bc 1171 03bc 29c8 a6bb
000001e0: 62e5 52bb 73c9 8fbb 2149 eebb 6ef6 83bb
000001f0: cc9e 18bc 4e38 0cbc c906 86bc 45e2 51bc
00000200: 1373 8bbb 2390 473c 266d 2a3c 4ac0 c53b
00000210: c68a 0ebc fab1 8ebc 42bb 8bbc b1ba 06bb
00000220: d733 253c 7d32 823c 6328 0f3c 6222 48bb
00000230: f5ea 94bc d648 04bc 90b0 5c3a 738b eaba
00000240: 1df8 453b ef19 1fbb 9ad9 89bc 606e e43b
00000250: 0ea2 663b 1ee6 3b3b 0f6f 2a3b 5fda 2b3c
00000260: 4945 dd3b 94d0 4b3c 629a 853a 813d fd3b
00000270: e894 a43b dea4 27ba 66a9 be3b 917a 113c
00000280: d5b6 873c d5fa 163c 958d 453c 2452 383c
00000290: 068c d03b 2a7f 0d3c 2a17 b23b 926a 4a3c
000002a0: 6c66 373c d0b5 8d3c 14fc 963c c3e6 0c3c
000002b0: 1568 a13c cc21 093c 406b 763c f5dd 873a
000002c0: dd6a 823b 194b 893c f7f1 0d3d cb10 fc3c
000002d0: 6a9a df3c 2d87 453c a37b a93b cb91 073c
000002e0: 4650 833c 7d5c e23c 1068 ea3c 428f ba3c
000002f0: b004 e63b da91 c23b 9ce0 053c 8381 ad3c
00000300: 290f e73c c14e ce3c 05a6 5b3c 00b4 dcbb
00000310: a05e e43a 873c 81ba 559c 74bb 9cb0 1ebb
00000320: cc6c cc3b 899f b83b 1e8f 3b3c 3ae3 0bbb
00000330: 52cb 9f3b 0d24 07bb b661 7cbb c8bd 103c
00000340: 55b0 323b 2f6c 903c dc09 163c 6a35 603c
00000350: 36a2 963b 963b 293c d34b 443b 01b1 ab3a
00000360: 398d 3b3c 8e8a 573c ec59 5f3c 77d3 143c
00000370: 05e7 7a3c bdb6 853c 937d b53b 7664 193c
00000380: eb6f 0a3b 9497 a6ba 04ef 573c a3c2 063d
00000390: cce8 f93c 1cae d33c ab42 6c3c e62a fd38
000003a0: a120 cd3b 6fca 543c 33af d93c 4311 ee3c
000003b0: ac9f e33c 6e37 8a3b 8d69 0c3c 24cc 0c3c
000003c0: 77a2 8e3c 037e b03c eb17 c03c 3a93 803c
000003d0: 1e29 d3bb 20d1 1d3b c59f 1b39 318b 46bc
000003e0: b7c1 12bc 77c8 743a f028 153b 7379 1a3c
000003f0: 9e91 46bb 882e a3bb 0a0a baba aeee bfbb

patch_to_embedding.bias f4 [64]
-0.16326144 -0.15056632 -0.06492658 -0.14897221 0.021347692 0.02012215 0.02307137 0.1292503
-0.2233028 0.13042043 -0.11176353 1.0135951e-05 -0.0046540196 -0.027355043 -0.005731077 -0.13682547
0.095870525 0.16148439 0.1420933 -0.018316053 0.019637195 -0.109647445 -0.009148849 0.08287622
0.014945854 0.046262816 -0.05094623 0.14205952 0.06857444 -0.04868984 0.07861309 0.09100342
-0.11720781 0.052201327 0.03103503 0.19785775 -0.13624929 -0.0015668502 -0.049112547 0.050009597
-0.014518875 -0.092808776 0.0017100084 0.12964514 0.05815769 0.1159936 -0.021885302 -0.050450213
-0.18279982 0.041956555 -0.026076172 -0.01767678 0.054509092 0.08142822 -0.012187381 0.18234307
-0.02820227 0.123000406 -0.107082784 0.13245189 -0.068420686 0.0030371638 -0.14646067 -0.129167
00000000: 022e 27be 0f2e 1abe 3af8 84bd 2c8c 18be
00000010: 5be1 ae3c 35d7 a43c 2b00 bd3c 315a 043e
00000020: 7da9 64be ef8c 053e 47e4 e4bd 940d 2a37
00000030: bf80 98bb af17 e0bc c2cb bbbb fa1b 0cbe
00000040: c457 c43d 2a5c 253e e880 113e 8c0b 96bc
00000050: 2fde a03c d78e e0bd 0ee5 15bc 02bb a93d
00000060: 75df 743c 147e 3d3d feac 50bd 0d78 113e
00000070: c270 8c3d ff6e 47bd e6ff a03d 0060 ba3d
00000080: a60a f0bd 0fd1 553d 2d3d fe3c 399b 4a3e
00000090: ef84 0bbe c55e cdba 3d2a 49bd ddd6 4c3d
000000a0: 93e0 6dbc 8712 bebd 5c22 e03a b2c1 043e
000000b0: c236 6e3d 0d8e ed3d ce48 b3bc e2a4 4ebd
000000c0: e02f 3bbe a3da 2b3d b29d d5bc e5ce 90bc
000000d0: ed44 5f3d d7c3 a63d 95ad 47bc 24b8 3a3e
000000e0: 7208 e7bc a3e7 fb3d 384e dbbd 78a1 073e
000000f0: 2520 8cbd 270b 473b c9f9 15be 5b44 04be

transformer.layers.0.0.fn.norm.weight f4 [64]
-2.47e-43 1.161223e-30 -2.1e-43 6.92e-43 -6.88e-43 -5.7e-44 -1.75e-43 -5.56e-43
4.53e-43 2.2e-43 -1.26e-43 5.41e-43 5.2e-43 1.1e-43 -5.16e-43 5.9e-44
-7.71e-43 6.95e-43 6.35e-43 1.6e-43 3.55e-43 7.29e-43 7.16e-43 -1.01e-43
-1e-44 -7.37e-43 4.09e-43 2.77e-43 6e-43 4.55e-43 -7e-45 6.82e-43
-1.15e-43 2.1e-44 -6.9e-44 -5.93e-43 -1.16e-43 -5.96e-43 -7.51e-43 -1.56e-43
7.54e-43 -6.8e-43 3.91e-43 -5.21e-43 4.99e-43 1.01e-43 -3.52e-43 2.1e-44
2.09e-43 2.68e-43 1.57e-43 -7.51e-43 -5.77e-43 6.2e-44 1.43e-43 -4.41e-43
1.36e-43 3.2e-43 2.9e-43 -6.68e-43 -7.26e-43 -6.07e-43 -4.4e-43 -3.05e-43
00000000: b000 0080 516b bc0d 9600 0080 ee01 0000
00000010: eb01 0080 2900 0080 7d00 0080 8d01 0080
00000020: 4301 0000 9d00 0000 5a00 0080 8201 0000
00000030: 7301 0000 4e00 0000 7001 0080 2a00 0000
00000040: 2602 0080 f001 0000 c501 0000 7200 0000
00000050: fd00 0000 0802 0000 ff01 0000 4800 0080
00000060: 0700 0080 0e02 0080 2401 0000 c600 0000
00000070: ac01 0000 4501 0000 0500 0080 e701 0000
00000080: 5200 0080 0f00 0000 3100 0080 a701 0080
00000090: 5300 0080 a901 0080 1802 0080 6f00 0080
000000a0: 1a02 0000 e501 0080 1701 0000 7401 0080
000000b0: 6401 0000 4800 0000 fb00 0080 0f00 0000
000000c0: 9500 0000 bf00 0000 7000 0000 1802 0080
000000d0: 9c01 0080 2c00 0000 6600 0000 3b01 0080
000000e0: 6100 0000 e400 0000 cf00 0000 dd01 0080
000000f0: 0602 0080 b101 0080 3a01 0080 da00 0080

transformer.layers.0.0.fn.norm.bias f4 [64]
-5.3e-43 7.99e-43 -3.07e-43 -2.42e-43 -1.95e-43 1.04e-43 3.88e-43 6.6e-43
7.6639995e-37 -9.4e-44 5.5e-43 -6.84e-43 3.22e-43 -2.62e-43 1.88e-43 -4.32e-43
6.95e-43 6.57e-43 -1.5e-44 -2.21e-43 -5.35e-43 2.87e-43 -2.2e-44 6.45e-43
-2.89e-43 -6e-44 7.24e-43 -3.62e-43 4.78e-43 -7.79e-43 7.55e-43 6e-43
6e-45 1.113e-42 2.4e-43 -4.83e-43 -3.66e-43 8.4e-44 -2.62e-43 7.92e-43
5.5e-43 6.38e-43 -5.6e-43 -1.42e-43 6.36e-43 -5.32e-43 6.01e-43 6.94e-43
-2.9e-43 -5.09e-43 -6.43e-43 6.29e-43 -8.7e-44 -3.27e-43 1.4e-43 -1.82e-43
3.59e-43 -2.05e-43 5.35e-43 -1.63e-43 6e-45 6.21e-43 4.27e-43 5.58e-43
00000000: 7a01 0080 3a02 0000 db00 0080 ad00 0080
00000010: 8b00 0080 4a00 0000 1501 0000 d701 0000
00000020: 6d65 8203 4300 0080 8801 0000 e801 0080
00000030: e600 0000 bb00 0080 8600 0000 3401 0080
00000040: f001 0000 d501 0000 0b00 0080 9e00 0080
00000050: 7e01 0080 cd00 0000 1000 0080 cc01 0000
00000060: ce00 0080 2b00 0080 0502 0000 0201 0080
00000070: 5501 0000 2c02 0080 1b02 0000 ac01 0000
00000080: 0400 0000 1a03 0000 ab00 0000 5901 0080
00000090: 0501 0080 3c00 0000 bb00 0080 3502 0000
000000a0: 8801 0000 c701 0000 9001 0080 6500 0080
000000b0: c601 0000 7c01 0080 ad01 0000 ef01 0000
000000c0: cf00 0080 6b01 0080 cb01 0080 c101 0000
000000d0: 3e00 0080 e900 0080 6400 0000 8200 0080
000000e0: 0001 0000 9200 0080 7e01 0000 7400 0080
000000f0: 0400 0000 bb01 0000 3101 0000 8e01 0000

transformer.layers.0.0.fn.fn.to_qkv.weight f4 [192, 64]
-2.263e-42 5.78e-42 -4.075e-42 -2.196e-42 -3.64e-43 -1e-44 3.359e-42 4.623e-42
-4.327e-42 4.565e-42 -4.274e-42 1.226e-42 2.721e-42 6.069e-42 3.977e-42 2.426e-42
-3.33e-42 -3.63e-42 -2.856e-42 1.886e-42 1.62e-42 3.952e-42 -7e-42 -1.512e-42
3.152e-42 1.417e-42 1.966e-42 2.386e-42 -1.188e-42 -1.51e-43 2.497e-42 -8.76e-43
-2.501e-42 -1.672e-42 5.119e-42 2.709e-42 4.616e-42 -1.693e-42 5.63e-42 -2.33e-42
-2.768e-42 1.411e-42 3.643e-42 -1.338e-42 -2.462e-42 1.767e-42 -1.456e-42 -6.66e-43
3.457e-42 -5.085e-42 8.37e-43 -3.342e-42 -2.002e-42 5.188e-42 -1.822e-42 -9.78e-43
1.756e-42 1.505e-42 1.057e-42 3.203e-42 1.107e-42 -1.19e-43 -1.54e-42 3.788e-42
-6.234e-42 6.31e-42 -1.885e-42 3.4e-44 3.394e-42 -2.773e-42 -1.93e-43 6.447e-42
-3.33e-42 1.666e-42 -2.73e-42 9.16e-43 2.036e-42 1.816e-42 -1.47e-43 2.208e-42
3.423e-42 1.029e-42 2.019e-42 5.7e-44 -5.97e-43 -1.333e-42 -4.442e-42 1.708e-42
1.243e-42 2.696e-42 4.093e-42 1.414e-42 -3.805e-42 2.344e-42 -2.511e-42 -5.042e-42
1.656e-42 1.139e-42 1.84e-42 6.564e-42 -2.627e-42 1.607e-42 -4.181e-42 -1.541e-42
-1.888e-42 2.154e-42 -3.87e-42 -1.43e-43 -9.229e-42 2.454e-42 2.7e-42 2.709e-42
2.555e-42 7.888e-42 4.98e-42 2.58e-43 -1.016e-42 -3.138e-42 -1.662e-42 -1.959e-42
-2.428e-42 2.955e-42 2.23e-43 2.923e-42 -4.861e-42 -3.414e-42 1.478e-42 3.419e-42
-3.625e-42 3.929e-42 -6.95e-42 3.611e-42 -4.061e-42 -9.5e-43 3.705e-42 -1.415e-42
-9.54e-43 1.548e-42 1.599e-42 -5.629e-42 -2.657e-42 1.75e-43 2.026e-42 -2.629e-42
-1.131e-42 -1.8e-43 3.456e-42 4.64e-43 -4.99e-43 1.4e-44 1.995e-42 2.96e-43
5.97e-43 2.79e-43 5.41e-43 -2.168e-42 -4.8e-42 2.444e-42 -6.88e-43 7e-45
2.66e-42 -1.513e-42 -1.58e-43 1.32e-43 5.3e-42 3.139e-42 -1.157e-42 -5.684e-42
4.86e-43 -1.312e-42 2.063e-42 -3.034e-42 -8.52e-43 -5.75e-42 -5.588e-42 2.504e-42
-7.077e-42 1.99e-42 2.7e-42 3.747e-42 5.824e-42 -7.29e-43 3.974e-42 4.42e-42
1.841e-42 1.967e-42 1.909e-42 -1.473e-42 -6.08e-43 -5.186e-42 -5.478e-42 4.906e-42
4.24e-42 4.966e-42 -3.62e-43 -2.293e-42 3.429e-42 -7.15e-42 -1.235e-42 -2.371e-42
-2.02e-42 5.775e-42 -4.448e-42 -3.285e-42 2.225e-42 -1.792e-42 2e-42 -1.07e-42
-3.687e-42 1.585e-42 3.32e-43 4.072e-42 4.65e-42 2.246e-42 -3.649e-42 -6.07e-42
4.242e-42 -1.652e-42 3.457e-42 -4.728e-42 4.48e-42 4.221e-42 -3.219e-42 -2.287e-42
3.432e-42 7.93e-43 -2.468e-42 1.568e-42 -1.593e-42 -1.359e-42 -2.506e-42 -1.044e-42
-1.411e-42 -3.997e-42 2.442e-42 1.314e-42 -2.032e-42 -9.8e-43 -1.907e-42 -4.02e-43
2.115e-42 -3.36e-42 8.9e-43 1.439e-42 -2.208e-42 2.542e-42 -6.197e-42 -1.618e-42
2.011e-42 -3.489e-42 1.244e-42 -1.976e-42 -8.91e-43 3.29e-42 1.142e-42 -1.984e-42
00000000: 4f06 0080 1d10 0000 5c0b 0080 1f06 0080
00000010: 0401 0080 0700 0080 5d09 0000 e30c 0000
00000020: 100c 0080 ba0c 0000 ea0b 0080 6b03 0000
00000030: 9607 0000 eb10 0000 160b 0000 c306 0000
00000040: 4809 0080 1e0a 0080 f607 0080 4205 0000
00000050: 8404 0000 040b 0000 8313 0080 3704 0080
00000060: c908 0000 f303 0000 7b05 0000 a706 0000
00000070: 5003 0080 6c00 0080 f606 0000 7102 0080
00000080: f906 0080 a904 0080 450e 0000 8d07 0000
00000090: de0c 0000 b804 0080 b20f 0000 7f06 0080
000000a0: b707 0080 ef03 0000 280a 0000 bb03 0080
000000b0: dd06 0080 ed04 0000 0f04 0080 db01 0080
000000c0: a309 0000 2d0e 0080 5502 0000 5109 0080
000000d0: 9505 0080 760e 0000 1405 0080 ba02 0080
000000e0: e504 0000 3204 0000 f202 0000 ee08 0000
000000f0: 1603 0000 5500 0080 4b04 0080 8f0a 0000
00000100: 6111 0080 9711 0000 4105 0080 1800 0000
00000110: 7609 0000 bb07 0080 8a00 0080 f911 0000
00000120: 4809 0080 a504 0000 9c07 0080 8e02 0000
00000130: ad05 0000 1005 0000 6900 0080 2806 0000
00000140: 8b09 0000 de02 0000 a105 0000 2900 0000
00000150: aa01 0080 b703 0080 620c 0080 c304 0000
00000160: 7703 0000 8407 0000 690b 0000 f103 0000
00000170: 9b0a 0080 8906 0000 0007 0080 0e0e 0080
00000180: 9e04 0000 2d03 0000 2105 0000 4c12 0000
00000190: 5307 0080 7b04 0000 a80b 0080 4c04 0080
000001a0: 4305 0080 0106 0000 ca0a 0080 6600 0080
000001b0: ba19 0080 d706 0000 8707 0000 8d07 0000
000001c0: 1f07 0000 fd15 0000 e20d 0000 b800 0000
000001d0: d502 0080 bf08 0080 a204 0080 7605 0080
000001e0: c506 0080 3d08 0000 9f00 0000 2608 0000
000001f0: 8d0d 0080 8409 0080 1f04 0000 8809 0000
00000200: 1b0a 0080 f40a 0000 6013 0080 110a 0000
00000210: 520b 0080 a602 0080 540a 0000 f203 0080
00000220: a902 0080 5104 0000 7504 0000 b10f 0080
00000230: 6807 0080 7d00 0000 a605 0000 5407 0080
00000240: 2703 0080 8000 0080 a209 0000 4b01 0000
00000250: 6401 0080 0a00 0000 9005 0000 d300 0000
00000260: aa01 0000 c700 0000 8201 0000 0b06 0080
00000270: 610d 0080 d006 0000 eb01 0080 0500 0000
00000280: 6a07 0000 3804 0080 7100 0080 5e00 0000
00000290: c60e 0000 c008 0000 3a03 0080 d80f 0080
000002a0: 5b01 0000 a803 0080 c005 0000 7508 0080
000002b0: 6002 0080 0710 0080 940f 0080 fb06 0000
000002c0: ba13 0080 8c05 0000 8707 0000 720a 0000
000002d0: 3c10 0000 0802 0080 140b 0000 520c 0000
000002e0: 2205 0000 7c05 0000 5205 0000 1b04 0080
000002f0: b201 0080 750e 0080 450f 0080 ad0d 0000
00000300: d20b 0000 d80d 0000 0201 0080 6406 0080
00000310: 8f09 0000 ee13 0080 7103 0080 9c06 0080
00000320: a205 0080 1910 0000 660c 0080 2809 0080
00000330: 3406 0000 ff04 0080 9305 0000 fc02 0080
00000340: 470a 0080 6b04 0000 ed00 0000 5a0b 0000
00000350: f60c 0000 4306 0000 2c0a 0080 ec10 0080
00000360: d30b 0000 9b04 0080 a309 0000 2e0d 0080
00000370: 7d0c 0000 c40b 0000 f908 0080 6006 0080
00000380: 9109 0000 3602 0000 e106 0080 5f04 0000
00000390: 7104 0080 ca03 0080 fc06 0080 e902 0080
000003a0: ef03 0080 240b 0080 cf06 0000 aa03 0000
000003b0: aa05 0080 bb02 0080 5105 0080 1f01 0080
000003c0: e505 0000 5e09 0080 7b02 0000 0304 0000
000003d0: 2806 0080 1607 0000 4611 0080 8304 0080
000003e0: 9b05 0000 ba09 0080 7803 0000 8205 0080
000003f0: 7c02 0080 2c09 0000 2f03 0000 8805 0080

transformer.layers.0.0.fn.fn.to_out.0.weight f4 [64, 64]
8.3e-43 -1.808e-42 3.03e-43 -2.17e-43 -4.09e-43 6.3e-43 5.56e-43 -1.623e-42
-1.89e-43 6.5e-43 9.8e-44 -1.64e-43 8.1e-44 3.31e-43 -9.1e-44 6.59e-43
1.7e-43 6.14e-43 2.68e-43 4.6e-43 6.92e-43 -4.47e-43 -1.558e-42 1.55e-42
7e-44 -5e-43 8.09e-43 -7.54e-43 5.45e-43 -6e-44 -5.31e-43 -1.85e-43
3.92e-43 -4.44e-43 1.281e-42 -5.04e-43 -4.43e-43 9.247e-42 3.07e-43 -3.63e-43
7.97e-43 2.7e-43 1.75e-43 -1.36e-43 6.28e-43 4.62e-43 1.5e-43 1.02e-43
2.173e-42 -4.22e-43 -6.35e-43 -4.57e-43 5.93e-43 6.6e-43 9.37e-43 -3e-44
1.84e-43 -2.31e-43 -5.56e-43 -1.42e-43 -5.9e-44 -7.7e-43 -5.48e-43 5.76e-43
1.728e-42 -1.15e-43 -8e-45 2.34e-43 -1.799e-42 -4.74e-43 -7.09e-43 3.97e-43
2.97e-43 -2e-44 2.65e-43 -6.05e-43 4.4e-43 -7.89e-43 8.32e-43 -3.77e-43
-2.54e-43 -1.84e-43 -7.15e-43 5.76e-43 8.25e-43 -6.11e-43 -1.733e-42 7.38e-43
-5.34e-43 6.81e-43 -5.9e-44 -1.26e-43 -7.08e-43 4.79e-43 -5.2e-44 1.09e-42
6.24e-43 -1.54e-43 -1.37e-43 -2.47e-43 6.63e-43 2.89e-43 -9.5e-44 -2.58e-43
-2.66e-43 -5.1e-43 -5.58e-43 8.44e-43 3.11e-43 8.16e-43 2.86e-43 -1.679e-42
1.244e-42 -5.3e-43 2.62e-43 -1.04e-43 1.286e-42 5.55e-43 1.89e-43 4.89e-43
6.49e-43 -5.9e-44 -9.51e-43 -5.4e-43 -2.4e-43 3.69e-43 1.61e-43 -6.04e-43
2.686e-42 3.24e-43 -4.2e-44 1.32e-43 3.936e-42 1.897e-42 -1.711e-42 4.1e-43
8.3e-44 6.45e-43 -3.6e-43 -5e-44 -3.1e-43 -6.11e-43 -6.87e-43 7.52e-43
2.76e-43 -1.67e-43 3.67e-43 2.96e-43 -3.643e-42 2e-44 -1.14e-42 -1e-43
3.88e-43 5.4e-43 -4.74e-43 -8.11e-43 6.7e-43 -4.44e-43 -2.2e-44 2.17e-43
4.62e-43 7.45e-43 -1.8e-44 -1.393e-42 -3.88e-43 -6.4e-44 -8.32e-43 1e-45
-3e-45 3.71e-43 3.71e-43 -7.9e-43 7.09e-43 -1.06e-43 -3.85e-43 6.29e-43
-3.27e-43 1.1e-44 -9.23e-43 4.37e-43 1.2e-43 -2.66e-43 4.749e-42 2.12e-43
-1.258e-42 1.29e-43 1.082e-42 3.097e-42 -5.7e-44 -7.82e-43 -4.8e-44 -3.35e-43
-3.27e-43 1.725e-42 6.7e-43 -7e-44 7.6e-44 -9.67e-43 5.23e-43 8.44e-43
4.88e-43 -1.74e-43 -2.44e-43 -5.73e-43 -5.62e-43 -8.5e-43 4.9e-44 1.016e-42
5.23e-43 -3.52e-43 9.02e-43 1.72e-43 -7e-45 3.35e-43 3.14e-43 1.798e-42
4.16e-43 -1.51e-43 6.11e-43 -3.88e-43 7.6e-44 1.56e-43 -1.2e-43 4.75e-43
5.2e-44 -3.84e-43 -1.851e-42 -2.97e-43 -6.47e-43 -5.93e-43 5.48e-43 -5.1e-43
-1.15e-43 9.2e-44 -3.11e-43 -4.68e-43 1.33e-43 5.23e-43 -6.2e-44 3.139e-42
9.1e-43 1.75e-43 -4.78e-43 -3.94e-43 1.86e-43 -1.35e-43 -1.302e-42 5.6e-44
-6.38e-43 -8.77e-43 -2.535e-42 -2.465e-42 6.14e-43 4.95e-43 -5.2e-43 -1.85e-43
00000000: 5002 0000 0a05 0080 d800 0000 9b00 0080
00000010: 2401 0080 c201 0000 8d01 0000 8604 0080
00000020: 8700 0080 d001 0000 4600 0000 7500 0080
00000030: 3a00 0000 ec00 0000 4100 0080 d601 0000
00000040: 7900 0000 b601 0000 bf00 0000 4801 0000
00000050: ee01 0000 3f01 0080 5804 0080 5204 0000
00000060: 3200 0000 6501 0080 4102 0000 1a02 0080
00000070: 8501 0000 2b00 0080 7b01 0080 8400 0080
00000080: 1801 0000 3d01 0080 9203 0000 6801 0080
00000090: 3c01 0080 c719 0000 db00 0000 0301 0080
000000a0: 3902 0000 c100 0000 7d00 0000 6100 0080
000000b0: c001 0000 4a01 0000 6b00 0000 4900 0000
000000c0: 0f06 0000 2d01 0080 c501 0080 4601 0080
000000d0: a701 0000 d701 0000 9d02 0000 1500 0080
000000e0: 8300 0000 a500 0080 8d01 0080 6500 0080
000000f0: 2a00 0080 2502 0080 8701 0080 9b01 0000
00000100: d104 0000 5200 0080 0600 0080 a700 0000
00000110: 0405 0080 5201 0080 fa01 0080 1b01 0000
00000120: d400 0000 0e00 0080 bd00 0000 b001 0080
00000130: 3a01 0000 3302 0080 5202 0000 0d01 0080
00000140: b500 0080 8300 0080 fe01 0080 9b01 0000
00000150: 4d02 0000 b401 0080 d504 0080 0f02 0000
00000160: 7d01 0080 e601 0000 2a00 0080 5a00 0080
00000170: f901 0080 5601 0000 2500 0080 0a03 0000
00000180: bd01 0000 6e00 0080 6200 0080 b000 0080
00000190: d901 0000 ce00 0000 4400 0080 b800 0080
000001a0: be00 0080 6c01 0080 8e01 0080 5a02 0000
000001b0: de00 0000 4602 0000 cc00 0000 ae04 0080
000001c0: 7803 0000 7a01 0080 bb00 0000 4a00 0080
000001d0: 9603 0000 8c01 0000 8700 0000 5d01 0000
000001e0: cf01 0000 2a00 0080 a702 0080 8101 0080
000001f0: ab00 0080 0701 0000 7300 0000 af01 0080
00000200: 7d07 0000 e700 0000 1e00 0080 5e00 0000
00000210: f90a 0000 4a05 0000 c504 0080 2501 0000
00000220: 3b00 0000 cc01 0000 0101 0080 2400 0080
00000230: dd00 0080 b401 0080 ea01 0080 1902 0000
00000240: c500 0000 7700 0080 0601 0000 d300 0000
00000250: 280a 0080 0e00 0000 2e03 0080 4700 0080
00000260: 1501 0000 8101 0000 5201 0080 4302 0080
00000270: de01 0000 3d01 0080 1000 0080 9b00 0000
00000280: 4a01 0000 1402 0000 0d00 0080 e203 0080
00000290: 1501 0080 2e00 0080 5202 0080 0100 0000
000002a0: 0200 0080 0901 0000 0901 0000 3402 0080
000002b0: fa01 0000 4c00 0080 1301 0080 c101 0000
000002c0: e900 0080 0800 0000 9302 0080 3801 0000
000002d0: 5600 0000 be00 0080 3d0d 0000 9700 0000
000002e0: 8203 0080 5c00 0000 0403 0000 a208 0000
000002f0: 2900 0080 2e02 0080 2200 0080 ef00 0080
00000300: e900 0080 cf04 0000 de01 0000 3200 0080
00000310: 3600 0000 b202 0080 7501 0000 5a02 0000
00000320: 5c01 0000 7c00 0080 ae00 0080 9901 0080
00000330: 9101 0080 5f02 0080 2300 0000 d502 0000
00000340: 7501 0000 fb00 0080 8402 0000 7b00 0000
00000350: 0500 0080 ef00 0000 e000 0000 0305 0000
00000360: 2901 0000 6c00 0080 b401 0000 1501 0080
00000370: 3600 0000 6f00 0000 5600 0080 5301 0000
00000380: 2500 0000 1201 0080 2905 0080 d400 0080
00000390: ce01 0080 a701 0080 8701 0000 6c01 0080
000003a0: 5200 0080 4200 0000 de00 0080 4e01 0080
000003b0: 5f00 0000 7501 0000 2c00 0080 c008 0000
000003c0: 8902 0000 7d00 0000 5501 0080 1901 0080
000003d0: 8500 0000 6000 0080 a103 0080 2800 0000
000003e0: c701 0080 7202 0080 1107 0080 df06 0080
000003f0: b601 0000 6101 0000 7301 0080 8400 0080

transformer.layers.0.0.fn.fn.to_out.0.bias f4 [64]
-0.020775694 -0.034692936 -0.0055302745 -0.014024414 -0.0038094302 -0.0101660285 -0.0030652937 0.0059724688
0.003351596 -0.0012960288 -0.004760335 -0.004535958 -0.0033938482 -0.013989323 -0.009125735 -0.0042727487
0.008215316 -0.00067967956 0.006893721 0.0076672975 -0.010652804 -0.011471993 0.009233288 -0.010904308
0.005568053 0.021216394 -0.014250485 0.012604434 0.014669513 0.00433074 0.023878356 0.034459095
-0.03048263 -0.007225851 0.0064122393 -0.0033142397 -0.016724188 -0.0045251707 -0.0004815059 0.025022335
0.002114276 0.016193215 0.035644773 -0.00068699114 -0.01975021 0.04440447 -0.028366359 -0.013306509
-0.0076800864 0.008429899 -0.0150261875 -0.010266269 0.010774882 0.022209432 -0.011459782 0.005801797
-0.027946418 0.021865832 -0.021803796 0.0076477616 -0.026423234 0.0017639942 0.0028135218 -0.005762024
00000000: ca31 aabc 2e1a 0ebd 4e37 b5bb a8c6 65bc
00000010: a2a7 79bb 6a8f 26bc 18e3 48bb b3b4 c33b
00000020: 73a6 5b3b 83df a9ba 96fc 9bbb 60a2 94bb
00000030: 536b 5ebb 7933 65bc 1b84 15bc 6a02 8cbb
00000040: 8899 063c 862c 32ba b9e4 e13b f43d fb3b
00000050: 1989 2ebc 07f5 3bbc 3747 173c fca7 32bc
00000060: 3774 b63b 01ce ad3c de7a 69bc d482 4e3c
00000070: 6658 703c e1e8 8d3b 8b9c c33c fb24 0d3d
00000080: b5b6 f9bc d5c6 ecbb c31d d23b b733 59bb
00000090: 2a01 89bc e247 94bb a172 fcb9 a4fb cc3c
000000a0: aa8f 0a3b a2a7 843c 4100 123d 3217 34ba
000000b0: 31cb a1bc 76e1 353d 9160 e8bc 8b03 5abc
000000c0: 3ca9 fbbb 8f1d 0a3c 6630 76bc da33 28bc
000000d0: 2189 303c 8ef0 b53c cfc1 3bbc 001d be3b
000000e0: e3ef e4bc f91f b33c e09d b2bc 139a fa3b
000000f0: 8a75 d8bc d335 e73a 1063 383b 5ccf bcbb

transformer.layers.0.1.fn.norm.weight f4 [64]
5.75e-43 1.04e-43 4.8e-43 2.2e-43 -2.54e-43 -1.61e-43 3.36e-43 -2.21e-43
-3.87e-43 -3.12e-43 6.81e-43 1.06e-43 1.96e-43 -5.09e-43 -4.13e-43 5.1e-43
-1.75e-43 7.64e-43 4.71e-43 -1.9e-43 6.91e-43 -7.48e-43 -1e-45 -8.4e-44
-4.58e-43 1.71e-43 -7.02e-43 6.7e-43 6.8e-43 -5.45e-43 -3.1e-43 -7.26e-43
-2.73e-43 -6.2e-44 6.77e-43 8.3e-44 2.24e-43 -4.88e-43 2.4e-44 4.3e-43
-2.72e-43 -2.68e-43 -4.74e-43 -5.21e-43 -4e-45 -6.24e-43 -4.39e-43 -6.01e-43
4e-45 -3.01e-43 4.64e-43 1.4e-44 3.69e-43 -2.17e-43 4.86e-43 5.87e-43
-5.91e-43 -9.1e-44 2.06e-43 -3.95e-43 7.38e-43 2.06e-43 -6.81e-43 -3.69e-43
00000000: 9a01 0000 4a00 0000 5701 0000 9d00 0000
00000010: b500 0080 7300 0080 f000 0000 9e00 0080
00000020: 1401 0080 df00 0080 e601 0000 4c00 0000
00000030: 8c00 0000 6b01 0080 2701 0080 6c01 0000
00000040: 7d00 0080 2102 0000 5001 0000 8800 0080
00000050: ed01 0000 1602 0080 0100 0080 3c00 0080
00000060: 4701 0080 7a00 0000 f501 0080 de01 0000
00000070: e501 0000 8501 0080 dd00 0080 0602 0080
00000080: c300 0080 2c00 0080 e301 0000 3b00 0000
00000090: a000 0000 5c01 0080 1100 0000 3301 0000
000000a0: c200 0080 bf00 0080 5201 0080 7401 0080
000000b0: 0300 0080 bd01 0080 3901 0080 ad01 0080
000000c0: 0300 0000 d700 0080 4b01 0000 0a00 0000
000000d0: 0701 0000 9b00 0080 5b01 0000 a301 0000
000000e0: a601 0080 4100 0080 9300 0000 1a01 0080
000000f0: 0f02 0000 9300 0000 e601 0080 0701 0080

transformer.layers.0.1.fn.norm.bias f4 [64]
3.85e-43 -7.55e-43 2.21e-42 -4.51e-43 -1.68e-42 1.06e-43 -3.53e-43 -2.2e-43
1.512e-42 2.17e-43 -3.4e-43 1.53e-43 -4.26e-43 4.47e-43 -1.019e-42 4.36e-43
9.92e-43 1.075e-42 2.52e-43 1.61e-43 5.7e-44 3.42e-43 -6.53e-43 -1.39e-43
-3.85e-43 6.39e-43 6.28e-43 1.124e-42 -1.052e-42 2.12e-43 -7.05e-43 4e-45
4e-45 -3.48e-43 3.55e-43 -2.59e-43 7.74e-43 3.07e-43 1.65e-43 5.48e-43
1.265e-42 -8.6e-43 3.24e-43 2.02e-43 -1.506e-42 2.5e-43 1.32e-43 7.16e-43
3.1e-43 1.43e-43 1.58e-43 9.54e-43 -4.05e-43 -5.24e-43 -5.4e-43 -4.76e-43
4.34e-43 -8.7e-43 5.52e-43 -8.5e-43 6.49e-43 -1.14e-43 -4.74e-43 4.99e-43
00000000: 1301 0000 1b02 0080 2906 0000 4201 0080
00000010: af04 0080 4c00 0000 fc00 0080 9d00 0080
00000020: 3704 0000 9b00 0000 f300 0080 6d00 0000
00000030: 3001 0080 3f01 0000 d702 0080 3701 0000
00000040: c402 0000 ff02 0000 b400 0000 7300 0000
00000050: 2900 0000 f400 0000 d201 0080 6300 0080
00000060: 1301 0080 c801 0000 c001 0000 2203 0000
00000070: ef02 0080 9700 0000 f701 0080 0300 0000
00000080: 0300 0000 f800 0080 fd00 0000 b900 0080
00000090: 2802 0000 db00 0000 7600 0000 8701 0000
000000a0: 8703 0000 6602 0080 e700 0000 9000 0000
000000b0: 3304 0080 b200 0000 5e00 0000 ff01 0000
000000c0: dd00 0000 6600 0000 7100 0000 a902 0000
000000d0: 2101 0080 7601 0080 8101 0080 5401 0080
000000e0: 3601 0000 6d02 0080 8a01 0000 5f02 0080
000000f0: cf01 0000 5100 0080 5201 0080 6401 0000

transformer.layers.0.1.fn.fn.net.0.weight f4 [8, 64]
2.31e-43 -6.56e-43 -3.88e-43 -7.13e-43 5.89e-43 6.66e-43 7.93e-43 3.55e-43
5.37e-43 -5.59e-43 5.87e-43 -5.2e-44 -3.85e-43 2.06e-43 -2.37e-43 1.63e-43
2.7e-44 -7.08e-43 1.32e-43 -1.05e-43 6.32e-43 2.21e-43 -6.88e-43 4.46e-43
7.54e-43 7.1e-44 3.04e-43 -7.26e-43 -3.62e-43 5.62e-43 7.1e-43 -5e-44
5.44e-43 3.91e-43 4.89e-43 1.43e-43 -6.22e-43 -2.19e-43 -5.69e-43 8.44e-43
-6.74e-43 -1.95e-43 -2.07e-43 -4.55e-43 4.65e-43 2.84e-43 -1.86e-43 1.92e-43
-5.76e-43 8.09e-43 -1e-45 3.3e-43 2.1e-43 -5.37e-43 -5.31e-43 -3.97e-43
1.75e-43 -1.15e-43 4.55e-43 7.38e-43 7.23e-43 -1.93e-43 2.55e-43 -6.1e-43
2.5e-44 4.99e-43 3.25e-43 -7.33e-43 -4.79e-43 -7.78e-43 1.32e-43 -8.52e-43
1.22e-43 -6.87e-43 -2.68e-43 -6.11e-43 -6e-43 -2.83e-43 3.2e-44 -6.59e-43
5.31e-43 -1.3e-43 -3.22e-43 7.17e-43 1.571e-42 6e-44 -2.3e-43 4.5e-44
4.6e-43 -6.71e-43 -3.14e-43 2.66e-43 -1e-42 8.37e-43 -3.18e-43 -1.93e-43
4.26e-43 -5.41e-43 -7.38e-43 8.17e-43 1.15e-43 5.76e-43 5.13e-43 3.1e-44
-7.55e-43 -5.16e-43 -9.18e-43 -3.01e-43 -5.32e-43 7.54e-43 6.39e-43 9.26e-43
-1.95e-43 4.1e-43 -3.39e-43 -9.36e-43 1.74e-43 1.05e-43 6.64e-43 4.57e-43
6.66e-43 -5.5e-43 2.7e-44 3.36e-43 2.56e-43 1.114e-42 5.16e-43 -6.9e-44
-1.42e-43 -3.59e-43 3.92e-43 -4.27e-43 6.91e-43 -1.78e-43 -5.1e-43 -6.8e-43
-6.4e-44 2.3e-43 4.97e-43 4.54e-43 1.95e-43 1.64e-43 5.25e-43 -3.43e-43
-7.17e-43 -3.39e-43 -6e-45 -2.52e-43 -7.4e-43 7.1e-44 3.81e-43 -3.2e-43
-6.08e-43 5.5e-43 1.63e-43 -4.74e-43 -1.75e-43 -3.8e-43 -6.2e-44 -3.22e-43
-7.67e-43 6e-43 4.9e-43 -1e-45 -7.1e-43 -2.03e-43 -1.26e-43 4.6e-44
-4.1e-43 4.51e-43 5.3e-43 4.55e-43 6.47e-43 -9.2e-43 3.4e-44 1e-43
6.2e-44 5.16e-43 -7.47e-43 -7.57e-43 -8.53e-43 -3.1e-44 -2.2e-43 -5.65e-43
-5.77e-43 2.76e-43 -6.9e-43 -5.9e-43 8.44e-43 1.5e-44 -6.2e-43 -4.04e-43
4.64e-43 6.12e-43 -1.026e-42 1.163e-42 -4.65e-43 -4.74e-43 7.44e-43 -3.27e-43
4.19e-43 3.4e-43 -4.43e-43 -1.382e-42 -4.1e-43 1.22e-43 -7e-44 -7.88e-43
-4.96e-43 -1.115e-42 -8.16e-43 -4.85e-43 6.73e-43 3.43e-43 6.28e-43 5.6e-43
-9.22e-43 -4e-43 -7.96e-43 1.094e-42 -1.96e-43 -5.9e-44 -3e-45 -5.14e-43
-7.7e-44 2.38e-43 -1.3e-43 3.81e-43 6.7e-43 9.73e-43 6.1e-43 -7.9e-43
3.11e-43 -4.76e-43 -2.2e-44 5.28e-43 1.002e-42 -4.09e-43 -5.77e-43 -7.09e-43
9.01e-43 1.85e-43 -3.85e-43 -2.73e-43 -7.9e-43 8.53e-43 -5.7e-44 9.7e-44
-1.356e-42 -1.35e-43 5.76e-43 9.77e-43 -1.155e-42 -8.35e-43 4.68e-43 3.98e-43
00000000: a500 0000 d401 0080 1501 0080 fd01 0080
00000010: a401 0000 db01 0000 3602 0000 fd00 0000
00000020: 7f01 0000 8f01 0080 a301 0000 2500 0080
00000030: 1301 0080 9300 0000 a900 0080 7400 0000
00000040: 1300 0000 f901 0080 5e00 0000 4b00 0080
00000050: c301 0000 9e00 0000 eb01 0080 3e01 0000
00000060: 1a02 0000 3300 0000 d900 0000 0602 0080
00000070: 0201 0080 9101 0000 fb01 0000 2400 0080
00000080: 8401 0000 1701 0000 5d01 0000 6600 0000
00000090: bc01 0080 9c00 0080 9601 0080 5a02 0000
000000a0: e101 0080 8b00 0080 9400 0080 4501 0080
000000b0: 4c01 0000 cb00 0000 8500 0080 8900 0000
000000c0: 9b01 0080 4102 0000 0100 0080 eb00 0000
000000d0: 9600 0000 7f01 0080 7b01 0080 1b01 0080
000000e0: 7d00 0000 5200 0080 4501 0000 0f02 0000
000000f0: 0402 0000 8a00 0080 b600 0000 b301 0080
00000100: 1200 0000 6401 0000 e800 0000 0b02 0080
00000110: 5601 0080 2b02 0080 5e00 0000 6002 0080
00000120: 5700 0000 ea01 0080 bf00 0080 b401 0080
00000130: ac01 0080 ca00 0080 1700 0000 d601 0080
00000140: 7b01 0000 5d00 0080 e600 0080 0002 0000
00000150: 6104 0000 2b00 0000 a400 0080 2000 0000
00000160: 4801 0000 df01 0080 e000 0080 be00 0000
00000170: ca02 0080 5502 0000 e300 0080 8a00 0080
00000180: 3001 0000 8201 0080 0f02 0080 4702 0000
00000190: 5200 0000 9b01 0000 6e01 0000 1600 0000
000001a0: 1b02 0080 7001 0080 8f02 0080 d700 0080
000001b0: 7c01 0080 1a02 0000 c801 0000 9502 0000
000001c0: 8b00 0080 2501 0000 f200 0080 9c02 0080
000001d0: 7c00 0000 4b00 0000 da01 0000 4601 0000
000001e0: db01 0000 8801 0080 1300 0000 f000 0000
000001f0: b700 0000 1b03 0000 7001 0000 3100 0080
00000200: 6500 0080 0001 0080 1801 0000 3101 0080
00000210: ed01 0000 7f00 0080 6c01 0080 e501 0080
00000220: 2e00 0080 a400 0000 6301 0000 4401 0000
00000230: 8b00 0000 7500 0000 7701 0000 f500 0080
00000240: 0002 0080 f200 0080 0400 0080 b400 0080
00000250: 1002 0080 3300 0000 1001 0000 e400 0080
00000260: b201 0080 8801 0000 7400 0000 5201 0080
00000270: 7d00 0080 0f01 0080 2c00 0080 e600 0080
00000280: 2302 0080 ac01 0000 5e01 0000 0100 0080
00000290: fb01 0080 9100 0080 5a00 0080 2100 0000
000002a0: 2501 0080 4201 0000 7a01 0000 4501 0000
000002b0: ce01 0000 9102 0080 1800 0000 4700 0000
000002c0: 2c00 0000 7001 0000 1502 0080 1c02 0080
000002d0: 6102 0080 1600 0080 9d00 0080 9301 0080
000002e0: 9c01 0080 c500 0000 ec01 0080 a501 0080
000002f0: 5a02 0000 0b00 0000 ba01 0080 2001 0080
00000300: 4b01 0000 b501 0000 dc02 0080 3e03 0000
00000310: 4c01 0080 5201 0080 1302 0000 e900 0080
00000320: 2b01 0000 f300 0000 3c01 0080 da03 0080
00000330: 2501 0080 5700 0000 3200 0080 3202 0080
00000340: 6201 0080 1c03 0080 4602 0080 5a01 0080
00000350: e001 0000 f500 0000 c001 0000 9001 0000
00000360: 9202 0080 1d01 0080 3802 0080 0d03 0000
00000370: 8c00 0080 2a00 0080 0200 0080 6f01 0080
00000380: 3700 0080 aa00 0000 5d00 0080 1001 0000
00000390: de01 0000 b602 0000 b301 0000 3402 0080
000003a0: de00 0000 5401 0080 1000 0080 7901 0000
000003b0: cb02 0000 2401 0080 9c01 0080 fa01 0080
000003c0: 8302 0000 8400 0000 1301 0080 c300 0080
000003d0: 3402 0080 6102 0000 2900 0080 4500 0000
000003e0: c803 0080 6000 0080 9b01 0000 b902 0000
000003f0: 3803 0080 5402 0080 4e01 0000 1c01 0000

transformer.layers.0.1.fn.fn.net.0.bias f4 [8]
4.4043377e-13 1.4660892e-21 -1.018468e-15 -3.3972547e-29 3.5614127e-26 -1.2169e-41 -1.5008912e-24 7.559103e-14
00000000: 32f1 f72a 948c dd1c d6c6 92a6 e342 2c90
00000010: 455a 3015 ec21 0080 6d40 e897 4337 aa29

transformer.layers.0.1.fn.fn.net.3.weight f4 [64, 8]
-1.00358076e-13 -8.49432e-22 5.434513e-16 2.0450764e-29 -2.5456885e-26 5.602e-42 1.4519384e-24 -3.1523032e-14
1.0241297e-13 -1.1009221e-21 2.2145662e-15 1.3762048e-29 -2.804269e-26 1.5383e-41 2.187505e-24 -5.534823e-14
-8.763046e-14 8.635985e-22 -1.5602282e-15 -7.3169825e-30 1.7209642e-27 2.962e-42 -1.2241635e-24 7.665449e-15
1.2979777e-13 1.7287334e-21 -2.7967184e-15 -1.858267e-29 1.3525879e-27 4.086e-42 -1.4943489e-24 -1.8575741e-14
-2.3060746e-14 -1.581043e-22 2.537245e-16 -2.8273734e-32 1.5380934e-27 4.48e-43 1.4738272e-25 6.3621797e-15
-1.8589105e-14 -4.2376613e-22 1.363665e-16 2.31513e-30 1.8916335e-28 -4.97e-43 1.4912691e-25 1.1530985e-15
1.8119202e-14 -6.2183863e-22 6.3619067e-16 -1.2506875e-30 7.844025e-28 6.14e-43 4.7140824e-26 -2.7579696e-15
1.4543073e-14 7.8092094e-24 3.1582494e-16 1.1638802e-30 1.563681e-26 -1.0676e-41 -2.3473875e-25 1.6681414e-14
-3.539212e-13 -1.0705131e-21 2.5263088e-15 1.0989199e-29 -2.0990975e-26 1.1837e-41 6.7631407e-25 -1.8673651e-14
-1.0115247e-14 -6.42329e-22 1.6076858e-15 3.5663652e-30 2.8246357e-27 -2.161e-42 6.680694e-25 -1.2159117e-15
-6.712129e-14 -5.049968e-22 1.4853323e-15 1.2917038e-29 -1.5868308e-26 5.189e-42 8.513437e-25 -4.3119144e-15
2.8557577e-14 -5.677878e-22 2.3338916e-16 2.5283503e-30 2.9488033e-27 -6.96e-43 8.29983e-25 6.045769e-16
2.0911361e-14 1.0464837e-22 2.4721707e-17 -4.339579e-31 -7.338191e-28 5.06e-43 -9.9564594e-26 -3.418997e-15
-6.084491e-14 5.8358344e-22 -4.304586e-16 -4.253969e-30 -5.158691e-28 3.596e-42 -5.2445706e-25 -5.4911198e-15
3.499129e-14 -5.2811735e-23 -9.056044e-16 3.461646e-30 -5.515283e-27 -2.7e-43 -4.259792e-25 -5.7901605e-15
2.7438086e-14 3.5769018e-22 -1.1713483e-15 -4.5006918e-30 2.76972e-27 2.201e-42 -6.0384734e-25 1.6570618e-15
-1.3964789e-14 -4.0282045e-22 9.559708e-16 -1.44124955e-30 9.26608e-27 -5.626e-42 4.0717327e-25 7.509701e-15
-4.473994e-14 -8.21735e-23 2.9060093e-15 4.4500278e-30 9.078145e-27 -6.272e-42 1.9350192e-25 2.9459416e-14
8.832903e-14 7.881196e-22 -1.1249547e-15 -1.8096805e-29 3.1472355e-26 -4.813e-42 -1.7127058e-24 2.8695474e-14
2.7160118e-14 -3.1663807e-23 2.1231797e-17 1.8149702e-30 -8.543848e-28 -4.7e-43 -1.5118974e-25 -9.731684e-15
-2.7421856e-14 -3.035023e-22 1.5379267e-15 2.1795617e-31 1.8876037e-27 -1.369e-42 6.657254e-25 6.899566e-15
-3.1697213e-14 4.3802293e-22 6.9259804e-16 1.7307516e-30 -6.0799682e-27 4.638e-42 -7.1490707e-25 1.6818839e-15
-8.920987e-16 -3.492866e-23 -2.4059862e-16 -1.3633401e-30 -4.369127e-27 1.1e-42 1.9052281e-25 -5.6989203e-15
-2.2946194e-14 -1.2142189e-22 1.0074773e-15 -6.2505473e-31 1.2754618e-26 -5.89e-42 -3.3360067e-25 2.885138e-14
3.074785e-14 -2.9327763e-22 8.5107224e-16 -2.191572e-30 1.3538829e-27 -5.91e-43 4.48897e-25 4.0721338e-15
1.7799782e-14 -4.382284e-22 -1.2664523e-16 5.713428e-31 -2.7353567e-28 -1.626e-42 3.250479e-25 1.9571702e-15
-1.3461947e-14 4.6686366e-23 5.8914424e-16 1.639463e-30 -9.708289e-28 5.48e-43 -3.7226916e-25 -1.4195946e-14
5.785012e-14 -4.1352937e-23 8.2660775e-16 3.491125e-30 1.9561621e-26 -1.2212e-41 -4.2317137e-25 4.213654e-14
4.180934e-14 -4.5243917e-22 9.693394e-16 -1.7221248e-30 3.5903668e-27 -1.626e-42 -6.996022e-26 -6.9048876e-16
-2.3147555e-14 9.5998e-22 2.1529473e-15 -2.0541749e-29 2.994417e-26 -9.955e-42 -4.6416704e-25 -1.8747988e-14
-1.0277622e-14 -1.007864e-21 2.0200508e-15 1.3426165e-29 5.6940492e-27 -4.966e-42 9.254113e-25 2.2803091e-14
-4.1625994e-14 -5.0979736e-22 2.5669888e-15 5.4885633e-30 9.2278376e-27 -4.945e-42 1.0437261e-24 3.1051052e-14
00000000: 7efc e1a9 cf5c 809c a1a3 1c26 3865 cf0f
00000010: df1c fc94 9e0f 0000 35ad e017 95f7 0da9
00000020: 0f9d e629 dc5d a69c 8993 1f27 5290 8b0f
00000030: 55dc 0a95 e22a 0000 0040 2918 2a44 79a9
00000040: 8553 c5a9 d980 821c 43da e0a6 f267 148f
00000050: 4d59 0813 4208 0000 1d6e bd97 a516 0a28
00000060: a923 122a 919e 021d 5986 49a7 5f73 bc8f
00000070: 7c53 d612 640b 0000 423d e797 be50 a7a8
00000080: 76b6 cfa8 e922 3f9b 2143 9225 3dce 128b
00000090: 7bb8 f312 4001 0000 7373 3616 c038 e527
000000a0: 8f6f a7a8 5113 009c 4938 1d25 5ed3 3b0e
000000b0: 04cb 6f11 6301 0080 349c 3816 d32d a626
000000c0: 0934 a328 6ff0 3b9c 965e 3726 87ef ca8d
000000d0: 4b96 7812 b601 0000 186e 6915 8fbb 46a7
000000e0: 0bfe 8228 550d 1719 890f b625 b1d9 bc0d
000000f0: 06dc 9a14 c31d 0080 d74b 9196 b940 9628
00000100: 6c3d c7aa 78c5 a19c 2c0a 3627 2fe3 5e0f
00000110: 72e2 cf94 ff20 0000 1f4f 5117 8232 a8a8
00000120: 5838 36a8 cd21 429c 23b1 e726 41ab 900e
00000130: 6bca 5f13 0606 0080 e9c1 4e17 393b afa6
00000140: ca24 97a9 3ca0 189c 170f d626 8cfe 820f
00000150: f126 9d94 770e 0000 33bd 8317 645a 9ba7
00000160: a59c 0029 749a 2b9c 298a 8625 c81f 4d0e
00000170: d6a0 6913 f101 0080 046f 8017 e741 2e26
00000180: 515a bc28 3406 fd1a 7b04 e423 d0d3 0c8d
00000190: 7a8e 6892 6901 0000 8f82 f695 5d5d 76a7
000001a0: b402 89a9 9560 301c 7a24 f8a5 bd8f ac8e
000001b0: 467c 2392 060a 0000 c54f 2297 a4d6 c5a7
000001c0: 3696 1d29 c361 7f9a e882 82a6 ca6b 8c0e
000001d0: 9d7b da93 c100 0080 8dd5 0397 ce9c d0a7
000001e0: eb23 f728 e035 d81b 20cf a8a6 db91 b68e
000001f0: 9870 5b13 2306 0000 b7e1 3a97 cace ee26
00000200: 3991 7ba8 727d f39b 19c5 8926 2adb e98d
00000210: 9c88 3714 af0f 0080 2e07 fc16 6248 0728
00000220: a47d 49a9 efae c69a 6966 5127 bb83 b40e
00000230: aacf 3314 7c11 0080 358b 6f16 65ac 0429
00000240: 38e6 c629 cd31 6e1c 811f a2a6 fe85 b78f
00000250: f3d7 1b15 6b0d 0080 a283 0498 a13b 0129
00000260: f8a2 f428 e51d 199a 2ad4 c323 753f 130e
00000270: f761 8792 4f01 0080 f129 3b96 794f 2fa8
00000280: 7ffe f6a8 b574 b79b 7ba3 dd26 2e76 8d0c
00000290: 278d 1513 d103 0080 3308 4e17 4495 f827
000002a0: 66c0 0ea9 6262 041c b7a0 4726 4e6a 0c0e
000002b0: 34da f093 ee0c 0000 c640 5d97 9062 f226
000002c0: a290 80a6 96e7 289a 17b2 8aa5 ef36 dd8d
000002d0: 3614 ad93 1103 0000 17db 6b16 4353 cda7
000002e0: 52ae cea8 41ca 129b 5a31 9126 84d7 4a8d
000002f0: 99a1 7c14 6b10 0080 237d ce96 60ef 0129
00000300: dc79 0a29 8446 b19b 0c4e 7526 2bcd 318e
00000310: 0488 d612 a601 0080 49ed 0a17 ceb6 9227
00000320: 8153 a028 4872 049c 1303 12a5 4e69 390d
00000330: b35f ad91 8804 0080 e531 c916 6b07 0d27
00000340: 4682 72a8 ecc2 611a 2ccf 2926 5002 050e
00000350: 80d5 9992 8701 0000 676c e696 3fbb 7fa8
00000360: 5344 8229 75f8 479a e340 6e26 ea9d 8d0e
00000370: 9aba c114 0b22 0080 17f7 0297 20c4 3d29
00000380: e34a 3c29 c9bd 089c 50b2 8b26 22b7 0b8e
00000390: a53a 8e13 8804 0080 8f36 ad95 1405 47a6
000003a0: a17e d0a8 6d11 911c de22 1b27 6e51 d08f
000003b0: bf46 1415 c01b 0080 1aa7 0f97 ebdd a8a8
000003c0: 2a25 39a8 da4d 989c 5c8f 1127 5128 880f
000003d0: 8590 e113 d80d 0080 5233 8f17 5964 cd28
000003e0: 8177 3ba9 a913 1a9c 96f8 3827 80a4 de0e
000003f0: b2c6 3614 c90d 0080 4082 a117 6dd7 0b29

transformer.layers.0.1.fn.fn.net.3.bias f4 [64]
-0.04042447 -0.10337917 -0.045053437 -0.0347041 -0.002617992 0.031989116 0.026924176 -0.0041039744
0.02550477 0.060251802 -0.036963552 -0.007388096 0.0023425438 -0.00019991872 0.024928033 -0.025391214
0.040872265 0.030857675 -0.0036048915 -0.0138198 0.04713102 0.0018651744 -0.016241765 0.047250416
-0.016358143 -0.003269791 -0.0023632578 0.016839689 -0.019009195 0.045701876 -0.03105616 -0.023570392
-0.050801903 0.041077107 0.016823452 0.0013266305 -0.025169805 -0.077619605 -0.026451902 0.06587617
0.016165324 -0.033309888 -0.046981703 0.07867103 0.035873607 0.0024612588 -0.025932925 -0.09670628
-0.015212844 0.0072083487 -0.05188631 0.007467989 0.0063917255 0.01676765 -0.120203726 0.03296359
-0.023551987 0.02220549 -0.009734448 0.109406725 -0.03892126 0.018731102 -0.07880234 -0.011125548
00000000: 2194 25bd 75b8 d3bd f489 38bd e325 0ebd
00000010: 9e92 2bbb 0507 033d 1790 dc3c a27a 86bb
00000020: 61ef d03c 98ca 763d 1867 17bd d717 f2bb
00000030: 5d85 193b 46a1 51b9 e035 cc3c 3c01 d0bc
00000040: ad69 273d 3cc9 fc3c 0b40 6cbb 716c 62bc
00000050: 750c 413d de78 f43a 730d 85bc a789 413d
00000060: 8301 86bc fd49 56bb e3e0 1abb 63f3 893c
00000070: 2cb9 9bbc e431 3b3d 7d69 febc b216 c1bc
00000080: a815 50bd 7840 283d 56d1 893c 55e2 ad3a
00000090: e830 cebc 07f7 9ebd a9b1 d8bc 16ea 863d
000000a0: 246d 843c f36f 08bd e36f 40bd 471e a13d
000000b0: 34f0 123d 124d 213b 4971 d4bc f10d c6bd
000000c0: 4b3f 79bc 0334 ec3b bd86 54bd 08b6 f43b
000000d0: ae71 d13b 505c 893c 5f2d f6bd d404 073d
000000e0: 19f0 c0bc 4ae8 b53c 3c7d 1fbc a210 e03d
000000f0: e66b 1fbd f871 993c 1f63 a1bd ee47 36bc
