log/ViT_houston.pt (torch, 933788 bytes, 69 tensors)

pos_embedding f4 [1, 145, 64]
000000 28 10 b3 bf 6f 3e 81 bf 7c a8 8f be 50 4f 40 be
       -1.3989305 -1.0097178 -0.2805823 -0.18780255
000010 d7 af 0d 3f 61 30 05 3f e8 0c b6 be b6 a0 ed bf
       0.55346435 0.52026945 -0.35556722 -1.856467
000020 9c 18 b3 3e 50 fb 9f bf 58 45 00 3f 60 00 3c 3e
       0.34979713 -1.249857 0.5010581 0.18359518
000030 5f 8f 29 3e 23 95 80 3f 1c f3 5e 3f c5 e8 e3 be
       0.16558598 1.0045513 0.87089705 -0.44513527
000040 35 05 45 bf c2 25 bb bf 57 c9 ea 3e a0 3a 2d 3f
       -0.7696107 -1.4620898 0.45856735 0.6766758
000050 fe ba 0a 3f 34 f4 a1 bf 98 06 34 bf 12 ed c9 3f
       0.5419158 -1.265265 -0.7032256 1.5775473
000060 d9 97 25 3f e9 de 33 be 1c e2 68 bd 77 d6 14 bd
       0.64684826 -0.17565502 -0.05685626 -0.036337342
000070 64 0f a2 3f f5 f9 a3 3f f2 7c 95 3f 21 a0 4c bf
       1.2660947 1.2810656 1.1678755 -0.7993184
000080 08 d5 2a be c3 73 e8 3d 61 78 80 be 11 55 0c 3f
       -0.16682827 0.11350205 -0.25091842 0.548173
000090 f6 70 93 3e 23 68 8c 3e 08 be 09 3f bb ed 3d 3f
       0.2879712 0.274232 0.5380559 0.7419087
0000a0 05 20 be be 16 1f 48 3f 79 d6 e1 be ab e6 9d 3e
       -0.37133804 0.78172433 -0.44108942 0.30840048
0000b0 90 ed e3 3e d1 1b ef 3f e5 dd 94 bf 43 44 a1 bf
       0.44517183 1.8680364 -1.1630217 -1.2598957
0000c0 cc 50 15 bf 54 28 35 3f e9 02 53 3f c1 6e 26 3e
       -0.5832641 0.7076466 0.82426316 0.16253187
0000d0 e0 6f 2c be 65 35 6e be ae a0 2a 3e b6 eb 79 be
       -0.16839552 -0.23262556 0.16662857 -0.24406323
0000e0 45 30 09 bf 41 5b 38 3f 9a 8b bd 3f 12 e0 42 40
       -0.5358928 0.7201424 1.4808228 3.0449262
0000f0 b5 30 98 bf 2b f6 68 bf 00 70 d0 3f 2a 89 26 bf
       -1.1889864 -0.9100062 1.628418 -0.65053046
000100 a4 e6 ff be 35 85 86 3f ca cb 62 3f 13 c1 8b 3f
       -0.49980652 1.0509402 0.8859221 1.0918297
000110 5f e1 95 bf 5d 84 11 40 ff ab 39 be fb 8b 60 3e
       -1.1709403 2.2737038 -0.18132018 0.21928398
000120 3f 1d b5 bf 71 d4 da be 3a 56 a0 be 01 27 19 bf
       -1.414955 -0.42740205 -0.31315786 -0.5982514
000130 c1 4b 89 bf 34 66 75 3f 35 3e fe bd 35 25 16 3f
       -1.0726243 0.95859075 -0.12414209 0.58650523
000140 a4 02 cb 3d 2b b6 3d 3f 60 b0 2c bf 37 8b 17 be
       0.09912613 0.7410609 -0.67456627 -0.147992
000150 d1 99 13 3f 91 b2 e6 be 4b 55 5c 3f 50 d5 9c 3e
       0.5765658 -0.4505811 0.86067647 0.30631495
000160 b8 2a 23 be 12 fb ec 3f 99 19 e0 bf a5 b7 3c be
       -0.15934265 1.851412 -1.7507812 -0.1842943
000170 ce c5 70 bf c7 9a 3a bf 6e 64 3e 3d 06 6e d5 3e
       -0.94051826 -0.7289242 0.046482496 0.41685504
000180 ba 6b ac 3f 2f 2f 85 bf f9 ba 0b 3f db f0 e5 3e
       1.3470376 -1.0405024 0.5458217 0.4491032
000190 b0 f9 0c c0 19 e3 ae bf 22 52 69 be 41 2c a3 3e
       -2.2027397 -1.3663055 -0.22785237 0.318697
0001a0 68 cb e7 3d d8 0f ee 3d ef 61 ea 3e cb bb f1 3e
       0.113180935 0.11624116 0.45777842 0.47213587
0001b0 a7 98 8b 3e e0 b9 37 bf 14 3a 0d 3f 15 74 51 bf
       0.27264902 -0.71768 0.55166745 -0.8181775
0001c0 d9 2d 90 be d4 19 04 c0 19 e6 a9 bd ec eb ab bd
       -0.2815998 -2.0640764 -0.08295841 -0.08394608
0001d0 99 ef 55 3f ce e5 44 3e 41 61 20 bf 95 e5 b4 bd
       0.8356872 0.19228289 -0.626484 -0.08832852
0001e0 e4 98 05 bf 24 af e6 be f4 55 c0 3f 17 66 31 bf
       -0.5218642 -0.45055497 1.5026231 -0.692964
0001f0 db 96 ad 3d e5 d8 70 3f 41 14 62 3f 7c f4 81 3f
       0.08476039 0.94080955 0.88312155 1.0152736
000200 68 09 46 bf 6a e0 b8 be 32 bd f4 be 33 66 e8 3e
       -0.773581 -0.36108714 -0.47800595 0.45390472
000210 ae 3c 0b 3d ba fa 22 3f 2e d8 d0 3f ca 18 3e bf
       0.033993416 0.6366383 1.6315973 -0.74256575
000220 60 fb 94 be ac 51 31 bd 3d fc aa be 2e 81 80 bf
       -0.29098034 -0.04329078 -0.33395568 -1.0039423
000230 18 e5 e6 be fb fa 21 bf af d7 97 be b1 ea d3 3d
       -0.4509666 -0.6327359 -0.2965674 0.10347498
000240 dc ae dc 3c f0 e8 94 3e 81 d1 8e 3d 42 ec 62 3f
       0.026938848 0.29083967 0.069735534 0.8864175
000250 01 7a ac bd 68 b8 88 3d ab 56 9c be 17 a3 0a 3e
       -0.08421708 0.06675798 -0.30534872 0.13538776
000260 cc 75 bc 3e 5d bc 35 bf 5c 0e ca bf ed 5a fc bd
       0.36808622 -0.70990545 -1.5785632 -0.1232203
000270 8d 28 0d bf 1e 35 94 bd 44 22 f8 bc 4f e4 67 3d
       -0.5514 -0.07236694 -0.030289777 0.056614216
000280 02 29 59 3f d8 ea e8 be 8d de 0b 3f 2c 1d 99 3d
       0.848282 -0.45491672 0.5463646 0.07476267
000290 8d e7 71 3f e6 e2 c4 bd f2 3b 47 3e 22 1a 21 3f
       0.94493943 -0.0961359 0.19456461 0.629305
0002a0 ec e8 b8 3b 4c 7a bb 3d 9f 1a b7 3d 45 fa ca 3e
       0.005643001 0.09154186 0.089406244 0.39644065
0002b0 7a 83 00 be c9 77 7f bf d0 a9 2b bc 15 22 a2 bf
       -0.12550154 -0.9979215 -0.010477498 -1.2666651
0002c0 6a 19 5f be a1 36 93 be cc 5c ab bf e1 63 97 be
       -0.21787038 -0.28752616 -1.3387694 -0.2956839
0002d0 47 36 56 3f 0c cf 96 bc 09 2b 9e 3f 14 33 0f 3f
       0.8367657 -0.018409275 1.2356883 0.55937314
0002e0 2e 40 21 bf 53 de 19 bf 92 d2 96 3f 00 88 24 be
       -0.62988555 -0.60104865 1.1783011 -0.16067505
0002f0 cb 4f 49 3e ec 27 0c bf 46 03 68 bf 7b a5 7e bf
       0.19659345 -0.54748416 -0.90629995 -0.99471253
000300 f3 ab 04 bf 2f b1 2a 3f 0a 0f c9 3e 04 9a d9 3e
       -0.51824874 0.6667661 0.39269286 0.42500317
000310 a1 c2 a7 3d 3a 69 46 3f 45 3d 38 bb cb e1 79 3f
       0.081914194 0.77504313 -0.0028112691 0.9761016
000320 11 ed 92 be 92 7e 4f bf 64 b2 e2 3e 92 05 96 3e
       -0.28696492 -0.81052506 0.44276726 0.29301125
000330 d3 55 c1 3e f8 e1 66 bf ca 11 f5 3e e0 af 54 bf
       0.3776079 -0.9018855 0.47865134 -0.83080864
000340 24 c8 6b 3f a3 19 9d 3e 79 45 40 3f ae d2 e1 3e
       0.92102265 0.30683622 0.75106007 0.44106048
000350 2e 94 5b bf 03 84 ee 3e c2 67 cd be 43 b3 72 bf
       -0.8577298 0.46585092 -0.40118223 -0.9480478
000360 05 89 4a 3f 67 8d 7c 3f 1b b6 d9 be aa 68 c0 3e
       0.79115325 0.9865326 -0.42521748 0.37579852
000370 81 fc 9b 3d 27 89 26 be 26 94 4c bf 20 0e 89 bd
       0.07616521 -0.16263257 -0.79913557 -0.06692147
000380 12 f7 cd be 47 d3 9d 3f 4a 46 09 3f ca ec 89 3e
       -0.40227562 1.2330102 0.5362288 0.26938468
000390 06 02 b1 3a 7d 91 3f 3f c9 4c 8e be bb 1c 94 bf
       0.0013504631 0.7483137 -0.27792957 -1.1571268
0003a0 d5 f2 03 be 4c 25 60 bd 93 5f f2 be ea 86 21 3f
       -0.12885602 -0.05472307 -0.47338542 0.6309649
0003b0 7b 32 1e bf 9b 06 12 3f e7 1b 66 3f e0 4f 8f bf
       -0.6179578 0.5704133 0.89886326 -1.1196251
0003c0 80 de b2 bf 47 f5 cb bf 35 98 91 3d f2 a5 56 bf
       -1.3974152 -1.5934228 0.07109109 -0.8384696
0003d0 26 64 8e 3f 08 7c 48 3c ab 5a b5 3e 32 6e 07 be
       1.1124313 0.012236603 0.35420737 -0.1322563
0003e0 54 04 13 be 6f 4b 63 3f 8a 5b 42 3f 36 0f 32 bf
       -0.1435712 0.8878698 0.7592093 -0.6955446
0003f0 b0 d2 3a bf 6e 86 73 3e a7 31 c9 3f c1 28 85 3d
       -0.72977734 0.2378175 1.5718278 0.06501914

cls_token f4 [1, 1, 64]
000000 41 8d d2 3f e7 da 08 3f af e1 25 3e 02 46 3d bf
       1.6449357 0.5345902 0.16199373 -0.7393495
000010 aa da d7 be 3f ef ed bb 34 dd 47 3e 18 62 a8 3e
       -0.42159015 -0.0072611864 0.19517976 0.3288734
000020 d5 ee 22 bf 1f d8 02 c0 90 d5 dc 3e a8 22 20 3f
       -0.6364568 -2.044441 0.43131685 0.6255288
000030 b0 95 19 bf 02 79 52 bf 1d ac 05 bf a3 c0 28 3f
       -0.5999403 -0.82215893 -0.5221575 0.6591894
000040 4f f4 37 be d1 2f d0 be 7c 77 8a 3f 6c 58 ac be
       -0.1796429 -0.4066148 1.0817714 -0.3366121
000050 7a 0e 04 bf 59 23 0b 3e 1a 46 b3 3f bc 3d 85 bf
       -0.5158459 0.13587703 1.4005768 -1.0409465
000060 8b 44 81 3e 5e 4e 97 bf f5 2c 4c 3f 41 b1 fb 3e
       0.25247607 -1.1820791 0.797561 0.49158671
000070 8e 52 af be 00 04 50 3f d1 d4 9b bf 27 91 d1 3e
       -0.34242672 0.81256104 -1.2174321 0.40931055
000080 22 9e 01 bf 10 a8 f6 be 26 22 e3 3d c7 d1 2f bf
       -0.50631917 -0.48175097 0.11090498 -0.6867947
000090 e3 65 9a 3e 8d 32 d1 be 27 65 a5 bc f7 28 59 bf
       0.30155858 -0.4085888 -0.020189835 -0.8482813
0000a0 06 fb 7c 3f 5a 54 5d bf fb d8 6b 3f 7f d3 02 c0
       0.9882053 -0.86456835 0.9212796 -2.0441587
0000b0 8c af a0 3c a7 9a 00 bf 3e 01 0f bf 82 49 be be
       0.019614957 -0.5023598 -0.5586127 -0.37165457
0000c0 94 cd f6 3e 26 9e bb bc c4 fc fc 3d 85 93 ec 3e
       0.4820372 -0.02290256 0.12352899 0.46206298
0000d0 8b 2a 87 3e 09 aa 7e bf b7 04 75 3b c1 6d 52 bf
       0.26399645 -0.99478203 0.0037386843 -0.8219872
0000e0 8a 94 1e 3f 16 2a 61 bf 2f 8d ae bf d3 0b 32 bf
       0.619454 -0.87954843 -1.3636836 -0.6954929
0000f0 6d f6 48 3f d5 5f 1d 3e 77 b2 8e be e7 b8 5f 3f
       0.78501016 0.15368588 -0.27870533 0.87391514

patch_to_embedding.weight f4 [64, 1]
000000 7b 08 31 c0 a0 ba 13 c0 75 32 3b 40 0a fa 18 c0
       -2.7661426 -2.3082657 2.9249547 -2.3902612
000010 41 75 5f c0 61 87 31 c0 ca c9 48 c0 2b e8 0b 40
       -3.4915316 -2.7738879 -3.1373162 2.1860454
000020 f1 23 3e 40 db 4c 5f c0 68 35 29 c0 1d 31 37 40
       2.9709437 -3.489066 -2.6438847 2.8623726
000030 a9 0d c5 bf ea ca f6 bf c3 df 1a c0 04 a1 3c 40
       -1.5394794 -1.9280674 -2.4199073 2.9473276
000040 bb 85 20 c0 4c 69 39 c0 67 5d 49 c0 90 bb d8 3f
       -2.5081623 -2.8970518 -3.1463258 1.693224
000050 41 e0 47 c0 8a 8e 25 c0 a6 de 10 c0 c3 8d 87 40
       -3.1230624 -2.586825 -2.2635894 4.236055
000060 9d a1 4a 40 99 bb 23 40 64 4c 2a c0 23 13 44 c0
       3.166114 2.558325 -2.6609125 -3.063668
000070 c1 e5 fc 3f 96 be 6d c0 27 ec 23 40 d2 9b 4f 40
       1.9757615 -3.7147574 2.5612886 3.2438855
000080 2f 4a bc bf 6d d2 58 40 e4 ba 39 c0 b4 0b 46 40
       -1.4710139 3.3878434 -2.902032 3.0944643
000090 a2 37 43 40 06 6a e8 bf 1e 73 4a c0 9f aa 39 c0
       3.0502706 -1.8157356 -3.1632762 -2.901039
0000a0 8e 53 1a 40 90 7a 41 40 8d 97 2f c0 b7 3c 38 c0
       2.4113498 3.0231056 -2.743625 -2.8787057
0000b0 72 8e 80 40 23 b9 39 c0 4b 90 3f c0 7d d2 15 c0
       4.0173883 -2.9019248 -2.993182 -2.3409722
0000c0 4a bb 3c 40 fb 30 75 c0 80 ef 42 c0 e4 e2 2e 40
       2.9489312 -3.8311145 -3.045868 2.7325983
0000d0 e7 b3 23 40 e9 3c 28 c0 af af 4f 40 71 a5 25 c0
       2.5578554 -2.6287177 3.2450979 -2.5882227
0000e0 09 a0 3a 40 bb fc 39 c0 85 02 38 c0 09 e1 64 40
       2.9160178 -2.9060504 -2.8751538 3.576235
0000f0 ef 99 37 c0 b3 ea 1c 40 6e 43 2e c0 73 b6 47 c0
       -2.8687704 2.451825 -2.7228656 -3.1205108

patch_to_embedding.bias f4 [64]
000000 e9 6f 28 3f d1 10 31 bf 9d ff 56 be 7b ab 28 be
       0.6579576 -0.69166285 -0.20995946 -0.16471665
000010 ce 61 30 3f 4e 06 e9 be 49 88 5b 3c 0b ad 90 be
       0.6889924 -0.45512623 0.013399192 -0.2825702
000020 31 50 0d 3f 6c 21 d7 3e 49 fa 28 3e 9a b0 34 3e
       0.5520049 0.42017686 0.16501726 0.17645493
000030 5c 96 36 3f 3b 9d 13 bf c5 13 39 3d 11 43 07 3f
       0.7132318 -0.5766179 0.04518487 0.5283671
000040 3f e3 7e bd 42 1f c1 be e8 b0 25 3f 16 10 0c 3f
       -0.062228438 -0.3771916 0.6472306 0.54712045
000050 e2 28 17 3f 93 bb 05 3f 35 5f cd bd 3b 9f 10 bf
       0.5904676 0.5223934 -0.10027925 -0.56492966
000060 ee 74 13 bf c7 c4 85 3e 6e e6 b8 bd 94 53 34 3f
       -0.57600296 0.26126692 -0.09028326 0.7044003
000070 7e 43 e4 3b fd c2 06 3f 46 22 9c bd b2 4d 80 be
       0.0069660535 0.5264128 -0.07623725 -0.25059277
000080 c1 d6 57 be d4 df 6d bf 79 4f 05 bf 53 d6 d6 be
       -0.21078016 -0.9291966 -0.5207439 -0.4196039
000090 89 17 38 bf 7e bf 23 bf 77 97 f3 3e 6b 41 89 be
       -0.7191091 -0.6396407 0.47576496 -0.26807722
0000a0 28 ca b5 bd a7 e1 a8 be 75 58 da be 90 16 28 be
       -0.08876449 -0.3298466 -0.42645612 -0.16414857
0000b0 4a 4b d6 be 7e 06 2c 3e 14 f1 5a 3f 62 78 e8 bd
       -0.41854316 0.16799352 0.85524106 -0.11351086
0000c0 d4 46 2d 3e df 76 fe 3e 74 a5 75 3e 2e ac bf bb
       0.1692155 0.49700066 0.23988897 -0.005849383
0000d0 f4 09 c8 be 02 4f 11 be f7 0b 00 be c6 16 18 3f
       -0.39070094 -0.14190295 -0.12504564 0.5940975
0000e0 f3 65 be 3c 87 94 f1 3e d4 2f 15 3f cf 04 0a 3f
       0.023241973 0.4718363 0.58276105 0.5391359
0000f0 6c 1d 5e 3e 6a 12 54 3c 69 8f e2 bd d2 83 f2 3e
       0.21690911 0.012943843 -0.110625096 0.47366196

transformer.layers.0.0.fn.norm.weight f4 [64]
000000 02 77 61 3f 59 bc 75 3f e6 dd 98 3f 2c 47 66 3f
       0.88072217 0.9599052 1.1942718 0.8995235
000010 07 3b 7b 3f fb d5 4a 3f 8d 16 84 3f 45 b8 5d 3f
       0.98136944 0.7923276 1.0319382 0.866093
000020 76 7b 83 3f 2b 8c 7a 3f 06 44 54 3f 0e ad 83 3f
       1.0272052 0.9787013 0.82916296 1.0287187
000030 fc cc 56 3f 1e f3 4b 3f 8c 77 80 3f 9e a9 40 3f
       0.8390653 0.7966784 1.0036483 0.75258815
000040 50 8c 8a 3f 43 b4 6c 3f 2f 71 79 3f dc 38 53 3f
       1.082407 0.9246256 0.9743833 0.82508636
000050 0c 77 86 3f 18 f6 5a 3f 31 a9 71 3f 47 b6 81 3f
       1.050508 0.8553176 0.9439879 1.0133752
000060 cd 19 84 3f 20 de 63 3f 5d 1a 47 3f 8e 97 6b 3f
       1.0320374 0.8901081 0.777746 0.9202813
000070 77 47 7f 3f 1d 24 87 3f 1b 7d 7f 3f 38 df 99 3f
       0.9971842 1.0557896 0.9980027 1.2021246
000080 11 9a 50 3f aa e8 85 3f db b3 58 3f c5 d2 86 3f
       0.81485087 1.0461628 0.8464944 1.0533072
000090 3b 4c 74 3f 52 cb 46 3f 49 39 8b 3f 08 a8 5a 3f
       0.9542882 0.7765399 1.0876857 0.85412645
0000a0 7d 82 93 3f d7 d9 ad 3f 3e b2 5b 3f d7 b1 85 3f
       1.1524197 1.3582104 0.8581885 1.0444897
0000b0 5e 85 67 3f 6e 62 71 3f 54 63 72 3f 7e 4e 87 3f
       0.9043788 0.94290817 0.9468281 1.0570829
0000c0 6d a7 84 3f 7d b7 86 3f 09 bb 79 3f f6 f8 92 3f
       1.0363594 1.0524746 0.9755102 1.1482227
0000d0 bb 1f 79 3f 12 9c 72 3f ed 05 8d 3f af b5 5c 3f
       0.9731404 0.94769394 1.1017433 0.8621473
0000e0 be 8b 93 3f 61 f2 85 3f 13 cd 81 3f ff bd 80 3f
       1.1527021 1.0464593 1.0140709 1.0057982
0000f0 59 32 92 3f fa bd 70 3f 09 26 89 3f de 9d 84 3f
       1.1421615 0.9403988 1.0714732 1.0360677

transformer.layers.0.0.fn.norm.bias f4 [64]
000000 ea bf a1 bc ff b2 46 3e 91 76 d9 bc de f4 cb 3d
       -0.019744832 0.19404219 -0.026545795 0.09958814
000010 e5 68 b9 bc 39 e9 54 3e 88 78 2e 3d e9 fb c9 3c
       -0.022633025 0.20792092 0.042595416 0.024656253
000020 49 25 96 bd 46 09 95 bd e3 46 c3 3d 5b dd e4 bd
       -0.0733133 -0.072771594 0.09535005 -0.11175033
000030 9c 62 c1 bd 3b a6 16 3e 93 36 45 bc a5 98 6f be
       -0.09442636 0.1471185 -0.012036937 -0.23398073
000040 83 0a b5 3d b7 10 36 3e f6 67 f5 bc d1 81 fe bd
       0.088398956 0.17779814 -0.029956799 -0.12427104
000050 91 ea be bd 15 fd 86 bd 60 31 9f 3d 95 5f eb 3c
       -0.09322084 -0.0659124 0.077730894 0.0287321
000060 4b f3 e4 3c d4 b8 a1 bd 5d 74 47 3e 44 57 97 bd
       0.027948042 -0.07896581 0.19477983 -0.073896915
000070 e1 3a 48 bd bc 77 8e 3c 01 f7 02 bd 15 ad 1e bd
       -0.048884276 0.017391078 -0.031973843 -0.038739283
000080 fa 66 be 3d 0a a0 b0 3b b6 4c 52 3e 68 ae b5 bc
       0.09296985 0.005390172 0.20537075 -0.02217789
000090 77 4b 81 3d d7 e1 40 3e 45 52 20 3c cf 58 d7 3d
       0.06313222 0.18836151 0.00978524 0.10514986
0000a0 a7 64 2e bd c4 cf 1e bd 92 26 13 3e 0c 69 75 3d
       -0.04257646 -0.03877236 0.14370182 0.059914634
0000b0 c1 4b b2 3d 65 5e 0d 3d 34 47 df bc 9f 53 6a 3d
       0.08705855 0.03451385 -0.027255632 0.057208654
0000c0 d9 89 44 bd 18 6e a5 bb ef ca 93 3c 0f f8 2b bd
       -0.047983024 -0.0050485246 0.018041102 -0.041984614
0000d0 c6 4a 83 bc af bc 16 3d 3d 52 30 bd 34 97 e3 bd
       -0.016026866 0.036801036 -0.04304718 -0.11112824
0000e0 ac c7 62 bd 0d da 48 bd 38 d8 24 bd 46 2e d2 bd
       -0.055366203 -0.049036074 -0.040245265 -0.10262732
0000f0 47 c0 54 3d 90 54 0e bd fd ab 98 3d 3a a2 9a bc
       0.051941182 -0.034748614 0.07454679 -0.018876184

transformer.layers.0.0.fn.fn.to_qkv.weight f4 [192, 64]
000000 09 38 09 3a 5d 0f 2f bc ec eb 54 3d eb 7d da bd
       0.0005234485 -0.010684815 0.051982805 -0.10668548
000010 89 85 85 3d 58 31 79 3d ec 13 7d be ba 86 80 bd
       0.065196104 0.060838073 -0.24714631 -0.06275697
000020 d7 1b 03 be 82 25 60 be a2 9f ac bb 61 64 1a 3e
       -0.12803589 -0.21889308 -0.005268053 0.15077354
000030 3f f5 28 bd 53 8f 2b be 91 46 e3 bd fd 44 d1 3d
       -0.04124951 -0.16753893 -0.11097444 0.102182366
000040 32 a4 89 bb b8 8f 8f bd 50 27 b5 bc 0f dc db bd
       -0.004200482 -0.07009834 -0.022113472 -0.10735332
000050 66 d8 4e 3c 2d e5 ef 3b 8c 9f 60 bd 7e 1d a5 bb
       0.012624836 0.007321021 -0.054839656 -0.005038916
000060 b9 3e 4e 3d 6a e4 eb 3b f4 3d 0e 3c 22 8f ec 3d
       0.050352786 0.00719886 0.008681763 0.11550738
000070 bd 4f c3 3d b4 ab 3f bc f5 84 79 3e 62 0e 51 3b
       0.09536693 -0.011698652 0.24367125 0.0031899442
000080 1d 17 7c bd e6 99 e1 3d 57 b5 e9 bc 6c d5 68 3e
       -0.06154548 0.11015682 -0.028528852 0.22737664
000090 04 f0 bd ba 19 5e b5 bc 09 c4 7e be 1f 44 2c 3e
       -0.0014491086 -0.022139596 -0.24879469 0.16822861
0000a0 1b 4e 33 3e a1 3e ed 3e 3b 0d 78 3d 74 92 f7 bd
       0.17510264 0.46336845 0.060559493 -0.120884806
0000b0 d0 9c 29 3d 0a d1 49 bd 9e 1e 9e bd 2d f1 6c be
       0.041409314 -0.04927162 -0.077206835 -0.23138876
0000c0 1f 02 84 3d d6 da cc bb 34 35 4e 3b 6c 0b 2c 3e
       0.06445717 -0.006251673 0.0031464817 0.16801232
0000d0 ce c5 8f 3c 23 2b a3 bd ae 73 9d 3c 08 e9 79 bd
       0.017550375 -0.07967212 0.0192202 -0.06101325
0000e0 c3 2e cb bc 47 df 91 3d f1 a3 04 3e b6 c2 8d 3e
       -0.024802571 0.07122665 0.12953164 0.27687615
0000f0 90 9a d0 3d 3f b3 ac bb 8d 26 00 3e 9c 59 64 bd
       0.101857305 -0.0052703912 0.12514706 -0.05574952
000100 18 a9 13 3e eb 66 81 be 61 8d 06 be 8b 75 97 be
       0.14419973 -0.25273833 -0.1313987 -0.29581866
000110 69 f0 e8 bc 16 e5 66 bd 1e 74 2e be ea a4 e0 3b
       -0.028434949 -0.056370817 -0.17036483 0.006855597
000120 cd 63 db bc 47 bc 9f 3d ef 10 41 bc da 7b b9 3d
       -0.026780987 0.07799583 -0.011783822 0.09056826
000130 4c b0 66 3e 74 be 9b 3c 9e b5 f2 bc 3d 0d 3f 3e
       0.2252819 0.019011714 -0.029627617 0.18657394
000140 a0 7b 2c be 31 e7 0a be 4b 0e 29 3e 16 60 d0 3c
       -0.16844034 -0.13564755 0.16509359 0.025436442
000150 af c4 0c 3e 0e 57 4d bd 05 78 fb 3c 1d 80 0f 3e
       0.13746904 -0.05013185 0.030696878 0.14013715
000160 5a 3b 9d 3d 20 c9 81 3d f1 bd 7f 3d 58 64 bb 3d
       0.07677336 0.0633719 0.062437 0.091499984
000170 03 aa a3 3c e2 a6 41 3e b0 3c e5 3d 8d dd 22 be
       0.019978529 0.18911317 0.11193216 -0.15904827
000180 fa 18 f6 bd d4 35 64 be ad 2d 2f bb 07 47 e4 3d
       -0.12016483 -0.22286159 -0.0026730106 0.1114636
000190 73 45 f5 3c 9f 26 3b be fa bf b2 be 26 6b e1 bd
       0.029940343 -0.18276452 -0.34912091 -0.11006765
0001a0 ba d6 4a 3e bc e3 82 bd cb e3 e8 3d cc 25 9b be
       0.19808474 -0.06391093 0.11371573 -0.30302274
0001b0 99 c2 bd bd fb 7c 8f 3b 88 04 be 3d cd e4 9b bd
       -0.09265632 0.0043789125 0.09278208 -0.07612
0001c0 e8 62 48 3e 4b 8a ba 3c aa d8 6e 3e b9 c0 58 3c
       0.1956898 0.022771021 0.23324838 0.013229542
0001d0 3e a3 8c bc 2a d0 aa bc 99 23 d5 bd 80 42 8b 3c
       -0.017167684 -0.020851213 -0.1040718 0.016999483
0001e0 6e 8c 59 bd a1 a5 c3 3d be ba 3a 3d ff 5b 03 3e
       -0.05311244 0.095530756 0.045588247 0.12828062
0001f0 10 72 80 be 70 0e 23 bd fb 1a 74 3d b3 bc db 3d
       -0.25087023 -0.03980869 0.059596043 0.10729351
000200 e3 1c 2e 3e db e8 a5 3d c2 8f 55 be aa fe ee 3d
       0.17003207 0.08101054 -0.2085562 0.11669667
000210 43 18 b2 3c 26 58 07 3c 2d d4 72 3d 04 f2 bf bd
       0.021740085 0.008260762 0.059284378 -0.09372333
000220 e9 10 bb bc 42 6f 1d 3c f1 43 b6 3c 1b c0 e2 bd
       -0.022835212 0.009609045 0.022249194 -0.110717975
000230 13 14 f4 3d 96 85 91 bc a9 51 52 3d 32 36 01 be
       0.11917891 -0.017763894 0.05134741 -0.1261833
000240 8a f1 e4 3d ea 08 77 bd d6 5a 99 bd 0a fc 97 3d
       0.111788824 -0.060311235 -0.07488029 0.074211195
000250 de 5b 99 bc 47 1e d7 3d 10 0b c1 3d 18 e4 b2 bd
       -0.018720564 0.10503822 0.09425938 -0.08734912
000260 59 e8 2a be 8b 94 3a be 91 60 8f bc 32 4f e4 3d
       -0.16690196 -0.18220727 -0.017502101 0.11147918
000270 0f 2d 41 be 17 d1 27 3d 32 8f bc 3d ac 3a d4 bd
       -0.18864845 0.040970888 0.09207 -0.10362753
000280 a7 8d ee bb 3b 77 91 3c a8 bb e6 3d d8 e6 4c be
       -0.00728007 0.017757049 0.11266261 -0.20009935
000290 6a af 9b 3d fc 0a 7c bd 73 59 4d 3d 53 29 83 bd
       0.07601817 -0.061533913 0.050134134 -0.06404366
0002a0 20 28 54 be c9 ac 2c bf b9 b6 b9 3d 69 d7 0c 3d
       -0.20718431 -0.6745115 0.09068055 0.03438512
0002b0 59 28 08 bd ca 4b 09 3e 0f ff db 3d 0f e0 2e 3e
       -0.033241604 0.13407817 0.10742008 0.17077659
0002c0 bd 36 9d 3d 26 73 be bc a5 e4 3b 3e c9 5c 30 be
       0.07676456 -0.023248266 0.1834894 -0.17222895
0002d0 4f 62 eb 3d 57 41 dd 3c 4c 9c 7c be 1c b1 7b 3c
       0.1149336 0.027008696 -0.24668998 0.01536205
0002e0 b4 45 99 bd 01 df 15 3e a1 49 cc 3d e1 72 99 3c
       -0.07483998 0.1463585 0.09974981 0.018731536
0002f0 93 57 8c 3e a9 33 04 3e d9 c1 fe bd de 9a 1d 3e
       0.27410564 0.12910332 -0.12439317 0.15391108
000300 d6 39 13 bd 71 e4 7c 3c 3c a9 04 3e 72 41 84 3d
       -0.03594383 0.015435324 0.12955183 0.06457795
000310 ab 7a b9 3c 6c db d4 bd b9 58 8c bd 3d 15 2a bc
       0.0226415 -0.10393414 -0.0685286 -0.01038104
000320 ac 71 16 3e b3 10 d4 bd af 57 29 be da a4 31 3e
       0.146918 -0.103547476 -0.16537355 0.17348042
000330 6a 69 07 be aa b6 f8 bc e2 38 8b 3d 96 7c 6c 3d
       -0.13223806 -0.030360539 0.06797959 0.057736002
000340 65 ab 13 bd 6b bc 01 bd bc 23 77 be 98 97 a3 bd
       -0.036052126 -0.03167383 -0.24134725 -0.079878986
000350 45 22 7f be 98 01 17 be d4 7e c7 bd 71 2e 7e 3d
       -0.24915417 -0.14746702 -0.097409874 0.06205601
000360 97 65 e3 3c 03 5c b1 3d 11 d6 da bc cf 79 3f bd
       0.027758403 0.08660128 -0.026713403 -0.046747025
000370 32 0a 8e 3d 37 aa 71 be 09 6f 6b 3c 7a 9d 9b 3e
       0.06935538 -0.23600088 0.014369735 0.30393583
000380 7a 12 5f 3b 38 d6 e3 3d 01 95 a4 bd 2f 79 dd 3d
       0.0034038112 0.11124843 -0.08036233 0.108141296
000390 ed 30 5e 3e f0 5a 91 bd 12 30 8f 3b d3 0a 3b 3d
       0.21698351 -0.07097423 0.004369744 0.04566462
0003a0 59 15 18 3e 0a d7 3c 3e b7 d7 9f 3d ad e0 f2 bd
       0.14851893 0.18441406 0.07804816 -0.1185926
0003b0 d2 41 29 3c b5 e6 d2 3c 34 09 16 bd 15 4b 42 be
       0.010330634 0.025744775 -0.03662987 -0.18973954
0003c0 52 67 51 3e 75 04 28 3c a5 b0 24 be 8f 59 a4 3c
       0.2044957 0.010254969 -0.1608301 0.020062236
0003d0 c0 12 01 be 47 1c 0f bd 6c 9c 60 3e b1 e3 47 3c
       -0.12604809 -0.034939077 0.2193467 0.012200282
0003e0 96 de 0c 3e e1 3f fb bc 4e cc 2b 3d 9d 23 0e be
       0.13756785 -0.030670108 0.041942887 -0.13880773
0003f0 a5 dc 33 be 44 cd f8 3d e7 20 b0 3d b7 f4 00 be
       -0.17564638 0.12148526 0.086000256 -0.12593351

transformer.layers.0.0.fn.fn.to_out.0.weight f4 [64, 64]
000000 ed 6a 79 3c e9 de 10 3c f7 bc c7 3d 57 00 ac 3d
       0.015223247 0.008842208 0.09752839 0.08398502
000010 d8 d8 80 3b cb 0c 94 3d 9c f8 83 3d eb 7c 61 bc
       0.0039321 0.072290026 0.06443903 -0.013762693
000020 85 e5 f9 3d 12 2c 14 3e 36 f6 ab bd 6d 61 0a be
       0.122019805 0.14469936 -0.083965704 -0.13513727
000030 4e 32 d9 3d ce 18 0a be 3d 28 f2 3c b9 c3 a5 bd
       0.10605298 -0.13486025 0.029560203 -0.08093972
000040 9d 43 6a bc d9 fe 32 3d 91 84 03 be c6 de c0 3d
       -0.014298347 0.043700073 -0.12843539 0.09417491
000050 94 cb 98 3d 12 0d b3 bd af 2a 6e bd 3b 0c b1 3c
       0.074607044 -0.08742727 -0.058146175 0.021612277
000060 6f aa 23 be 41 bd db bd 79 8f 66 bd fd 83 bf 3d
       -0.15982984 -0.10729457 -0.05628917 0.09351347
000070 0d 8e 76 bd 34 f2 d9 bc 2a 50 85 3c 29 33 14 be
       -0.060194064 -0.02660475 0.016273577 -0.14472641
000080 56 3e 9f 3d f4 75 a2 3c 3e e1 5a 3d cb 25 68 3d
       0.077755615 0.019831635 0.053437464 0.056676667
000090 21 5a a7 bd a7 08 79 bb 80 4a 5c 3d 64 b6 8f 3d
       -0.081714876 -0.0037999542 0.053781986 0.0701721
0000a0 21 b3 33 bd be b3 84 3d c1 51 5b be 54 62 8e bc
       -0.043872003 0.064795956 -0.21417905 -0.01738087
0000b0 89 a2 2b 3d e2 56 50 bd 9c 42 22 3e 86 cd 29 3b
       0.041903052 -0.050864108 0.15845722 0.0025909855
0000c0 6e 8c 6e bd fc 81 10 3e 5a 55 9b bc 9e 8d 8f bd
       -0.058239393 0.14112085 -0.018961597 -0.07009433
0000d0 8c 3e 62 3d 26 df 2a bd e0 0f 3b bc d3 e3 1b be
       0.05523543 -0.041716717 -0.011417359 -0.15223627
0000e0 36 cd a4 bd 87 3e 7f 3d 60 f3 47 bc 36 24 99 3d
       -0.080469534 0.06231549 -0.012204021 0.0747761
0000f0 98 f7 dd bc 93 d8 6e bd 57 7e 92 3d d8 f3 88 bd
       -0.027095601 -0.05831201 0.07153004 -0.066871345
000100 24 6a 0f be af ed 1e 3d c1 3f 86 bd 76 f9 ab 3d
       -0.14005333 0.03880089 -0.06555129 0.0839719
000110 48 5e 6d 3d 3e 41 b9 bd 8a 7e 19 3d 76 9c 3d 3d
       0.05795124 -0.09045647 0.037474193 0.04629179
000120 a2 60 20 3d cd 18 09 3e de f6 57 3d 0f 91 4b 3d
       0.039154656 0.13388367 0.052725665 0.049698886
000130 76 fa b4 3d c7 9d 8f bd 86 4b 25 be 25 fa 46 3d
       0.08836834 -0.070125155 -0.16142091 0.0485784
000140 7d 08 84 bc e7 6d 19 bd bf 86 e4 3d 02 45 9b bd
       -0.016117329 -0.037458327 0.11158513 -0.075815216
000150 82 1e 99 bb ff 95 d9 bd 7f 81 06 3d 69 77 0c 3d
       -0.0046728263 -0.106243126 0.03283834 0.034293566
000160 68 27 38 bd 34 a8 20 be c4 32 9e 3d a3 59 5c 3c
       -0.044959456 -0.15689164 0.077245265 0.013449105
000170 a1 af 32 bd b4 ec 0a 3e d3 81 8e 3d 06 49 6e 3d
       -0.043624524 0.13566858 0.06958356 0.05817511
000180 b9 6c bf 3d 5b a5 da b7 8e dc 5e bd 88 f7 6e 3d
       0.09346909 -2.6064625e-05 -0.054409556 0.058341533
000190 c1 b5 dd 3d ff 92 33 be 71 e5 a1 bd 3e 4e 48 bd
       0.108256824 -0.17536543 -0.079050906 -0.048902743
0001a0 35 4d 96 3d 7d ee c2 bd 6f 9d 86 ba b3 26 92 3c
       0.07338945 -0.09518144 -0.0010270308 0.017840719
0001b0 85 49 a9 bc e0 22 8a bd 6d b9 20 3e 32 3b 61 bd
       -0.02066494 -0.06744933 0.15695734 -0.054988094
0001c0 fb f8 0f bd 0a ae 30 3e b0 11 05 3d 19 63 d9 bd
       -0.035149556 0.1725389 0.03248757 -0.106146045
0001d0 55 fb 8d 3a a9 d6 80 39 fa 51 61 ba 2a 88 71 be
       0.0010832349 0.00024573997 -0.00085952843 -0.23587099
0001e0 99 ed 96 3d 68 39 05 be 28 6a 82 bd e3 51 e4 3d
       0.07369537 -0.1301018 -0.06367904 0.11148431
0001f0 54 0b ad bd 38 a9 ac 3b 17 ce c8 bc 92 1c d4 bc
       -0.08449426 0.005269196 -0.024512334 -0.02589253
000200 d2 97 1e bd 34 82 e4 3d 82 76 d9 bd 03 4c be 3c
       -0.038719006 0.11157647 -0.10618307 0.023229605
000210 74 e6 80 3c 05 af b1 3d c8 ee f8 3c 23 e6 91 bd
       0.015734889 0.086759605 0.030387297 -0.07123973
000220 26 42 83 3d a7 d1 e4 3d 48 5b 32 bd fd 05 1f 3d
       0.06409101 0.111728005 -0.043544084 0.03882407
000230 48 23 f5 3d 28 e7 18 be 39 29 b9 bd d0 0a 95 bd
       0.1196962 -0.14931929 -0.09041066 -0.07277453
000240 2a 93 b3 3d 95 e2 7d 3d 07 97 2f bd fe 86 9e 3d
       0.08768304 0.061983664 -0.04286864 0.077405915
000250 10 49 a7 3d 82 e5 14 be 57 10 87 bb dd 1c f2 3d
       0.081682324 -0.14540675 -0.004121821 0.118219115
000260 80 08 a5 3c a6 b1 dc bc 57 bf 8d bc b3 24 13 3e
       0.020145655 -0.026940178 -0.017303152 0.14369468
000270 80 92 7f bc 9c d4 80 3d b7 36 c0 bd 31 e1 26 be
       -0.015598893 0.06290552 -0.09385436 -0.16296841
000280 f2 8e 9b bd 2f 66 b2 3d 89 dc 09 3d 17 10 c6 bc
       -0.07595624 0.08710896 0.033657584 -0.024177594
000290 b2 38 82 bd 86 23 94 bd e6 87 89 3d f8 b7 4e bd
       -0.0635847 -0.07233338 0.06715374 -0.050468415
0002a0 9d 89 90 bd e4 f9 a4 3d cd c5 74 3d a8 93 07 bd
       -0.07057498 0.08055475 0.05975895 -0.0330998
0002b0 af f4 35 bd c6 a5 86 bc 07 62 65 3d 97 b6 30 3d
       -0.0444228 -0.016436469 0.05600169 0.04314288
0002c0 24 12 be 3d 79 24 04 be 2e 5f 0c be 90 74 d4 3c
       0.09280804 -0.12904538 -0.13708183 0.025934488
0002d0 a5 71 c7 3b 50 b1 47 bd c5 de e0 3d 67 80 ba 3d
       0.0060865455 -0.048753083 0.1097999 0.09106522
0002e0 36 88 c9 bd 46 c6 87 3c 02 c7 6c bc f2 27 be 3d
       -0.09840433 0.016574036 -0.014451744 0.09284963
0002f0 69 c0 a6 3d 72 8f ba 3d 5a 1e e3 bd b7 b5 3b bc
       0.08142168 0.09109391 -0.110897735 -0.011456898
000300 b5 97 00 3d 56 c8 1f 3e 7b 63 d9 bd 96 cf 7c bb
       0.03139468 0.15603766 -0.106146775 -0.003857588
000310 fb a0 91 bd 1f 2d 02 bd af 37 0b be 4c 4d 9e bd
       -0.07110783 -0.031781312 -0.1359546 -0.07729587
000320 37 74 2d 3c cd b4 ef bc c1 a6 b0 bd b0 d4 d3 bd
       0.01058679 -0.029261017 -0.08625556 -0.10343301
000330 67 4d ba bd c1 2f a1 bc bd 83 c4 bd 67 28 75 3d
       -0.090967946 -0.019676091 -0.095954396 0.059852984
000340 0c 5d e5 bd 69 4f 75 bd 8b ba 9f bc c1 96 49 be
       -0.11199388 -0.059890185 -0.01949813 -0.19686414
000350 75 5f 00 3d 39 6e 81 bd 0f 5d 54 bd 8c 17 90 3d
       0.031341035 -0.063198514 -0.05184656 0.07035741
000360 35 76 8f bc f5 1d 8b 3d 30 44 82 bd 20 d5 46 bd
       -0.01751242 0.06792823 -0.06360662 -0.048543096
000370 96 38 36 3c c7 3a e2 bc 16 d9 4d 3d 2a ca 83 bc
       0.01112189 -0.027615918 0.050255857 -0.01608761
000380 91 f7 3f 3d 85 e5 f3 3d 3b 50 d0 bd 51 50 e5 bd
       0.046866957 0.11909012 -0.10171553 -0.1119696
000390 36 d7 20 3e 63 eb b2 b9 31 d6 83 3c b6 2d a2 bc
       0.15707096 -0.00034126182 0.016093345 -0.019797187
0003a0 4e 1b b1 3d 5e 1c d7 bc 15 bf 8d be 7f 0f 49 be
       0.08647786 -0.026258644 -0.27684847 -0.19634818
0003b0 02 38 29 bd 61 df ff bd 3e 11 f7 3d 3d af 04 3d
       -0.04131318 -0.12493778 0.120638356 0.032393683
0003c0 55 25 c9 3d 5a 9c 0c be 72 61 a9 3d 28 12 9a 3c
       0.09821574 -0.13731518 0.08270539 0.018807486
0003d0 3f 9b 3e bd 99 f0 1e 3e 04 ba dc bd 92 88 53 be
       -0.046534773 0.15521468 -0.10777667 -0.20657566
0003e0 84 77 21 be b0 8f a4 bd 3e 53 81 3d 2e 8e 80 be
       -0.15768248 -0.08035219 0.06314705 -0.25108474
0003f0 d6 12 9f bc 9a 7a 53 3c e1 3f e7 bd de 13 2c be
       -0.019418161 0.012907648 -0.11291481 -0.16804454

transformer.layers.0.0.fn.fn.to_out.0.bias f4 [64]
000000 db 6d f7 3d 88 fe ec 3c 11 6d 4e bd e5 2a fb 3d
       0.120815 0.028929964 -0.050396983 0.12264041
000010 e5 28 b3 bc 11 ac a7 3d 3c ab 7a bd 0d 02 82 bb
       -0.021870086 0.08187116 -0.061198458 -0.0039675296
000020 5b 78 48 bc 25 7b 97 bd ac a8 fc 3c 73 f4 f8 bc
       -0.012235726 -0.07396535 0.030842148 -0.03039
000030 03 15 0c bc 04 f4 0a 3d 34 52 bb 3b 02 56 6d bd
       -0.008549931 0.033924118 0.0057165865 -0.05794335
000040 5b 69 89 bc 35 6b f3 3c 68 5e 9d 3c f0 64 61 bd
       -0.01677387 0.029714206 0.019210055 -0.055027902
000050 11 39 fa bb 17 a4 88 3c 30 1d fa 3d f9 79 95 3c
       -0.0076361974 0.016679807 0.12212598 0.018246638
000060 d0 42 bb bd ab 86 b6 bc 21 09 92 3d 72 10 55 3d
       -0.09143603 -0.022281012 0.071306475 0.052017637
000070 53 8f 39 bd f2 b7 bb bb cd 73 85 3d 68 e5 63 3d
       -0.0453027 -0.005728715 0.06516228 0.0556387
000080 b7 93 75 3d 3d 29 93 3c 24 21 20 3d 5b f3 07 3d
       0.059955325 0.017964 0.039094105 0.033191066
000090 de 04 f8 3c dd 24 0a 3d d2 8e 85 3d ff ed c4 3c
       0.030275758 0.03372656 0.065213814 0.024039267
0000a0 35 84 0b 3d ce df 30 3d 82 d2 94 3d 6d 5c a1 bd
       0.03406163 0.043182187 0.07266714 -0.07878957
0000b0 78 78 21 3d db 00 9a bd fa 59 d4 bc 91 36 ea bc
       0.03942153 -0.075196944 -0.02592181 -0.028590472
0000c0 37 ad 40 bd f7 83 7b 3d 01 19 17 bd eb b1 06 bc
       -0.04704019 0.06140515 -0.03688908 -0.00822113
0000d0 0b ea 07 3d 63 bd 9a 3d ff cd 0b bd cc 73 e2 bb
       0.033182185 0.07555654 -0.034132 -0.0069107767
0000e0 cc 78 56 3d fc 6c 69 3c f7 ba 57 bd e1 14 01 bb
       0.052361295 0.014247175 -0.052668538 -0.0019696283
0000f0 ac 47 19 bd 08 b6 6b 3d 3e f7 31 3c a3 ee 00 bd
       -0.037421867 0.057546645 0.01086217 -0.03147758

transformer.layers.0.1.fn.norm.weight f4 [64]
000000 cb 47 61 3f 61 d4 7e 3f d2 b2 78 3f b7 38 39 3f
       0.8800017 0.99542814 0.9714786 0.72352165
000010 3a 88 6c 3f 56 88 69 3f d6 5f 83 3f e7 8a 65 3f
       0.92395365 0.9122366 1.0263622 0.89665073
000020 83 d1 69 3f 04 92 7f 3f 66 4f 5c 3f f1 79 57 3f
       0.91335315 0.9983218 0.8605865 0.8417044
000030 75 a6 68 3f 1d d1 4d 3f 08 7d 67 3f a5 32 76 3f
       0.90878993 0.80397207 0.9042516 0.9617103
000040 95 8b 8b 3f fa af 86 3f c9 fe 50 3f bd e3 4f 3f
       1.0901972 1.0522454 0.8163877 0.81206876
000050 02 09 80 3f 3f 83 61 3f 4c 40 68 3f 20 9c 72 3f
       1.0002749 0.8809089 0.9072311 0.9476948
000060 71 bd 5a 3f 14 40 40 3f a4 35 42 3f a5 7e 46 3f
       0.85445315 0.75097775 0.758631 0.77536994
000070 4f a0 71 3f 50 5a 76 3f 2f 77 66 3f 9a 6f 98 3f
       0.94385237 0.96231556 0.9002561 1.1909058
000080 68 53 65 3f 7a 48 8b 3f c5 24 82 3f 50 11 83 3f
       0.8958039 1.0881493 1.0167471 1.0239658
000090 64 b9 6d 3f 7c 72 64 3f 66 a8 89 3f c3 c0 74 3f
       0.9286101 0.8923719 1.0754516 0.9560663
0000a0 07 b3 90 3f 5f dd 9f 3f 0c d0 6c 3f 4b ee 78 3f
       1.1304635 1.2489432 0.92504954 0.97238606
0000b0 1c ab 5a 3f 88 e6 4c 3f 3f c7 83 3f a4 70 71 3f
       0.8541734 0.8003926 1.029518 0.943125
0000c0 5f e9 63 3f 1d f2 65 3f 0e e8 7e 3f 54 a3 83 3f
       0.8902797 0.8982256 0.9957284 1.0284219
0000d0 3e 78 6f 3f a7 73 7c 3f bf 7a 69 3f 1c 51 53 3f
       0.9354285 0.9861397 0.9120292 0.8254564
0000e0 0d e0 91 3f f6 23 69 3f 20 82 69 3f fd 38 8f 3f
       1.13965 0.910705 0.9121418 1.1189266
0000f0 fc 55 7a 3f 77 00 66 3f 42 8b 82 3f 94 d9 67 3f
       0.9778745 0.8984446 1.0198748 0.9056637

transformer.layers.0.1.fn.norm.bias f4 [64]
000000 80 19 ea 3d e7 c0 a8 bd 84 7d eb bb 03 25 cb 3d
       0.11430645 -0.08239918 -0.0071865935 0.09919169
000010 f9 e7 aa bc 88 57 0e bb 8b 54 44 bd d3 4f 6a 3d
       -0.020862566 -0.0021719653 -0.04793219 0.057205033
000020 f1 0c ad 3d 03 b0 0f be 8e 52 86 bb dd 7e ea 3c
       0.08449734 -0.14031987 -0.0040991968 0.028624946
000030 01 9d c5 3d b4 b4 87 3d 90 96 c4 bd 4b 35 00 3e
       0.09649087 0.06626263 -0.0959903 0.1252033
000040 0c df 04 3d de 3d ee bd 3b 19 40 3d 9c 7b 5e 3d
       0.032439277 -0.11632894 0.04689906 0.0543171
000050 be a2 92 3d b6 3c 8d bd ba 3a 20 3e 63 7d 17 3e
       0.07159947 -0.06896345 0.15647402 0.14793925
000060 9b 13 30 3e f7 f5 0a be d4 76 00 3d 90 ef 1d be
       0.17194979 -0.1357039 0.031363323 -0.15423417
000070 6b d1 5c bd 1e 5c 01 be a6 e3 0a 3e 93 8e 96 bb
       -0.053910654 -0.12632796 0.13563403 -0.004594633
000080 f0 66 9a bd c5 c2 6a 3c bb ce f4 bd ed 8b 20 3d
       -0.07539165 0.014328663 -0.11953493 0.039195944
000090 ed ef 18 3d b3 92 02 3c f1 d2 8f bb bd b2 06 bd
       0.037338186 0.007969546 -0.00438916 -0.0328853
0000a0 aa ac 4b 3d 5a 38 dd 3d 21 23 67 3b bc 5f 63 bd
       0.049725212 0.10801764 0.0035268741 -0.05551122
0000b0 8d 0f e2 3d c9 c2 82 bd c3 ab cd 3c f8 72 55 3d
       0.11038122 -0.063848086 0.025106316 0.052111596
0000c0 a3 93 8e 3d 95 30 3b be b5 4c 83 3d 1e 54 d5 bd
       0.06961753 -0.18280251 0.06411115 -0.10416435
0000d0 6e 2a 1d 3d c5 af ca bd 30 f3 c7 3d 35 96 80 be
       0.038370542 -0.09896807 0.09763181 -0.251146
0000e0 07 e2 da 3d 2c aa 36 be c0 a6 33 bd 4b 1b 12 3e
       0.106876425 -0.17838353 -0.043860197 0.14268224
0000f0 8d 71 04 3c ca 2b ec 3d fe 65 ab bd 11 28 b9 bd
       0.008083713 0.115317896 -0.08369063 -0.09040845

transformer.layers.0.1.fn.fn.net.0.weight f4 [8, 64]
000000 85 42 36 bd f9 a5 83 3d 66 ec a0 3c 86 2e b9 bd
       -0.04449703 0.06428141 0.019643974 -0.09042077
000010 b3 2a 66 3d a7 e9 b9 bd 9e 64 69 bc be 91 11 3c
       0.056193065 -0.09077769 -0.01424518 0.008884845
000020 0f 91 fd bc b0 d1 1e 3e b2 f4 3c bd 76 c7 4f 3d
       -0.030952958 0.15509677 -0.046131797 0.05072733
000030 96 b3 01 be 14 9a a7 3c 7a c7 59 3b 98 6f e5 bd
       -0.12666163 0.020459212 0.003323047 -0.112029254
000040 ff 07 e2 3d e2 52 88 3e c5 2e f3 bc f0 93 81 bd
       0.110366814 0.26625735 -0.029685387 -0.06327045
000050 17 ee 9d 3c ed c8 2e 3d 8e fe 81 bd 92 7f c3 bd
       0.01927857 0.042672087 -0.063473806 -0.095458165
000060 5d b6 6f 3d ad b1 9a 3a 6c 11 36 3d 8d f1 9b bd
       0.058523525 0.0011802219 0.04445021 -0.076144315
000070 f3 31 9c bc ac 57 96 3c 4a 1b 11 3d bf 82 1e be
       -0.019066786 0.018352352 0.035426416 -0.15479563
000080 d0 d8 a9 3d 76 c6 b5 bd ed ce f3 3d 29 b2 51 bd
       0.08293307 -0.08875744 0.11904702 -0.051195297
000090 ea 9a c6 3b ab 14 3c 3c 59 99 23 bd e5 af 8f 3d
       0.0060609477 0.011479537 -0.039941166 0.07015971
0000a0 c3 04 a9 3d e5 a4 2a be 9c 49 b1 3c c2 44 70 3e
       0.08252861 -0.16664465 0.021641545 0.23463729
0000b0 ab 66 c6 bd 3b e2 7d 3a 18 3b 5b bc d2 9f 6a 3d
       -0.09687551 0.0009684895 -0.013380788 0.057281323
0000c0 08 1c 7f bd 0d 90 b3 3d 99 7d 73 bc 86 41 28 3e
       -0.062282592 0.0876771 -0.014861488 0.16431245
0000d0 af be 58 bc e3 bd 48 bd e3 51 81 bd 8e 7d 50 3d
       -0.013229056 -0.049009215 -0.06314447 0.05090099
0000e0 71 19 00 bd 1a 21 90 bd e6 2e 1d be 98 cc 71 be
       -0.031274263 -0.070375636 -0.15349922 -0.23613203
0000f0 a8 30 8b 3d 95 cd 74 3d f7 e9 1b 3e a4 d0 92 3c
       0.0679639 0.05976637 0.1522597 0.017921753
000100 ac 2a 29 be 13 c2 17 bc ba aa 6e 3c 0e bb c9 3d
       -0.16520184 -0.0092625795 0.014567072 0.09850131
000110 2d 60 29 3d 13 cc b2 3d 30 f0 f3 3c c4 cf dd 3b
       0.041351486 0.0873033 0.029777616 0.0067691524
000120 35 75 36 be cc 38 05 3d cc 0e 2f b9 0e c6 c3 3d
       -0.17818148 0.03252487 -0.00016694813 0.0955926
000130 f6 b7 db bb 58 8f 86 3d 2e 0b 2a 3d 3d ec cd 3c
       -0.0067052795 0.065703094 0.041514568 0.025137061
000140 55 d8 bb 3c ee 09 d2 bd c5 ef de bd 95 f6 1e 3d
       0.022930304 -0.102558 -0.10885576 0.038809378
000150 f9 4d 09 be f7 27 55 bd a0 18 61 bd 87 d2 60 3d
       -0.1340865 -0.052040067 -0.054955125 0.054888275
000160 e0 f2 d0 bc 47 99 84 3d 6c 4e fe 3c b8 c2 6f 3d
       -0.025506437 0.06474548 0.031043254 0.058535308
000170 67 48 fa ba cd c2 e0 3c 7b f7 c5 bc 36 c1 1b bd
       -0.0019095064 0.027436638 -0.02416586 -0.038026057
000180 5f 36 25 3d 78 7d 7a 3d 14 54 9c 3d b7 e8 d9 3d
       0.040335055 0.061154813 0.07633224 0.1064009
000190 a3 ac 1d 3e 35 e4 2c 3d 4b 00 26 3e 72 c3 06 3e
       0.15397887 0.042209823 0.1621105 0.13160494
0001a0 db df 29 3e 0e 89 25 be 28 3d 8a 3d 2d 2b 03 bd
       0.165893 -0.16165563 0.06749946 -0.032023598
0001b0 0d b2 50 bd 87 b3 71 3d 5b c6 d6 3d 6c 21 46 bd
       -0.050951052 0.0590091 0.10487052 -0.048371717
0001c0 05 fb 03 3e 39 ca d8 bd cc ac 59 bd 1b ff ea bd
       0.12888725 -0.10585446 -0.053143308 -0.11474439
0001d0 91 40 f3 3c c3 ec e4 bc c6 ac 4e 3b 5c c0 94 3d
       0.029693874 -0.027944928 0.0031536086 0.07263252
0001e0 91 f0 3f be 28 01 7b 3d 94 10 de bb 48 23 b1 3b
       -0.18744113 0.0612804 -0.0067768786 0.005405817
0001f0 69 a1 28 3c ed d3 3c bd 53 d6 84 3d 7c e3 05 bd
       0.010292389 -0.046100546 0.064861916 -0.03268765
000200 f6 3d 54 bd 84 00 b4 bc af 95 be 3d 04 be 10 3d
       -0.051816903 -0.021972902 0.09305894 0.035337463
000210 98 c4 92 bd 38 b5 99 bc a5 c2 39 3c eb b3 c1 bc
       -0.071664035 -0.01876317 0.011337911 -0.023645362
000220 f8 25 8d 3d b4 ee 8e bd e1 8a 0a 3e 27 d2 9e bd
       0.068920076 -0.06979123 0.1352954 -0.07754927
000230 11 1e 0e bd c3 ab 47 bd e8 37 f6 bd ea 7d 50 be
       -0.034696642 -0.04874779 -0.12022382 -0.20360532
000240 38 90 37 bd d5 b1 ea 3c 67 97 de bd f8 d5 db 3a
       -0.044815272 0.02864925 -0.108687215 0.0016772142
000250 ac e5 f8 bd 44 cd 12 bd fa ad 93 bd 7b 73 5f bd
       -0.121531814 -0.035840288 -0.07210918 -0.05455349
000260 e4 00 7e bd 4a 6d f9 3c f2 76 62 bd 3a 13 8a 3b
       -0.062012568 0.03044762 -0.055289216 0.0042137178
000270 cc 57 fa 3c 2e 93 a4 3d e1 98 3b be 1a 46 0d 3e
       0.030559443 0.08035885 -0.18320037 0.13796273
000280 ea 5c 9e 3d 26 d2 49 3d 9d 78 e8 3d 7d a7 02 be
       0.07732566 0.04927268 0.1135113 -0.12759204
000290 23 65 03 be ab a0 83 3e d4 5e 61 3e f2 43 0f 3d
       -0.1283155 0.25708517 0.2200883 0.034976907
0002a0 5c 87 e3 bd 0d 8c 83 be 04 6c b5 3c 1b 3b c1 bd
       -0.11109802 -0.25692788 0.022146232 -0.094351016
0002b0 6e 1d a5 bd de 9e 28 bd 44 9a 36 be cd 34 a7 3b
       -0.08062254 -0.041167133 -0.17832285 0.00510273
0002c0 bc 8d 32 bd 8f 0d 35 bd c1 2c 2b bd 67 dd ec bd
       -0.0435922 -0.044202384 -0.041790728 -0.11565667
0002d0 ed b9 2e be 91 5a 5a 3e ff b9 20 3d 43 ff 20 3c
       -0.17063113 0.21323611 0.03923988 0.009826484
0002e0 9a 4b 8b be 66 0d 85 3d 5f d1 ca 3d 49 10 aa bc
       -0.27206117 0.06496696 0.099032156 -0.020759718
0002f0 3b b0 49 bd 18 a7 98 bd 2f 90 36 bd e0 66 e8 3d
       -0.049240332 -0.074537456 -0.044571098 0.11347747
000300 54 e1 64 bd 4a 04 09 3c 9f cb 3d 3e 1b ed 88 bc
       -0.055878952 0.008362839 0.18534707 -0.016714623
000310 fe 0f be bd c7 37 8e 3d 96 aa 1c 3e 39 e7 1c 3d
       -0.09280394 0.069442324 0.15299448 0.03830645
000320 f9 d9 7c bd 8b fe c4 3d 9b a5 7a bb 7f 4e 69 bd
       -0.061731312 0.09618863 -0.0038245681 -0.056959625
000330 fa 8d 3d 3c be 8d e9 bb bc 19 d2 3c 12 94 05 bc
       0.011569494 -0.0071274927 0.025647037 -0.0081529785
000340 d7 ff 61 be 9f 76 93 3d cd 28 15 bd 4f fa 95 bd
       -0.22070251 0.072003596 -0.036415864 -0.07323133
000350 03 b0 2c be 57 f4 14 bd 5a df 86 bd f6 f2 9f bd
       -0.16864018 -0.036365833 -0.0658557 -0.07810013
000360 f9 a6 6e bd ba 40 e9 bb 29 d1 80 3c ce f7 25 3c
       -0.058264706 -0.0071183117 0.015724735 0.010129882
000370 fe df 55 bd fb b3 0e 3d 5e d9 a9 bd bb 94 a9 3e
       -0.05221557 0.03483961 -0.082934126 0.33121285
000380 62 61 00 bd 15 fc 85 3e 92 d6 2b 3e 2a e0 70 3d
       -0.03134287 0.26168886 0.16781071 0.05880753
000390 9e 8f a0 bd af a2 ef bc ae 32 bd bd 0d e6 82 bb
       -0.07839893 -0.029252378 -0.09238182 -0.0039947093
0003a0 28 38 aa 3d d0 cb 15 bd 47 81 c6 3d be d7 80 3d
       0.08311492 -0.036571324 0.096926264 0.062911496
0003b0 40 1e eb ba 9c e2 d9 3c 42 98 68 be 40 a0 0a be
       -0.0017938092 0.026597314 -0.22714332 -0.13537693
0003c0 eb e5 2b bd cd 3e 97 3d e7 8a 21 be 6b 73 b9 3d
       -0.041967314 0.07385025 -0.15775643 0.09055217
0003d0 19 40 bb 39 7b 81 39 3d d1 a5 8d bd f3 58 8f 3d
       0.00035715176 0.045289498 -0.069163926 0.069993876
0003e0 3e d4 36 3c 90 7e 90 3d 0d e4 95 bd 02 db f3 bd
       0.011159001 0.0705539 -0.07318888 -0.11907007
0003f0 32 d2 7d be 40 71 13 be c4 a8 95 b8 16 9f 5e 3d
       -0.24787214 -0.1439867 -7.136309e-05 0.054350935

transformer.layers.0.1.fn.fn.net.0.bias f4 [8]
000000 43 11 b0 bc 16 34 fd bd b7 5a e9 bb 84 30 ff bd
       -0.021492606 -0.1236345 -0.0071214098 -0.124604255
000010 66 10 02 be 00 11 f5 bd 05 fa a7 3c e0 69 37 be
       -0.12701568 -0.11966133 0.02050496 -0.17911482

transformer.layers.0.1.fn.fn.net.3.weight f4 [64, 8]
000000 bf f0 b8 be e9 d1 76 be c2 e5 55 be 17 be ad 3d
       -0.36121175 -0.24103512 -0.20888427 0.084835224
000010 5f 0d a1 be 97 8f 1a 3e 72 84 b6 bb ce ff 72 be
       -0.31455514 0.15093838 -0.005569988 -0.23730394
000020 1b 6a 45 3e 13 5c ca 3b b0 53 8a bd 6e 37 33 3e
       0.19278757 0.006175527 -0.067542434 0.17501613
000030 a7 2b d8 3e 2c 93 83 bd 77 21 3d 3c c5 89 87 3e
       0.42220804 -0.06424555 0.011543623 0.26472297
000040 e3 75 e3 bd fe 0b b3 3d b6 fe c3 bc b8 3c 96 3c
       -0.111064695 0.08742522 -0.023925167 0.0183395
000050 6e a0 70 bd 1b 19 00 be f4 b5 a3 bd ee dd 17 be
       -0.058746748 -0.12509577 -0.07993689 -0.14830753
000060 20 9f 8a be e2 9e 35 bc 51 5d 55 3d 6a 37 23 bc
       -0.27074528 -0.011085244 0.052090947 -0.009961942
000070 48 df b2 3d ca 72 3b be 94 78 1a bd 45 70 ae be
       0.08733994 -0.18305507 -0.03771265 -0.3407003
000080 b5 66 0a 3e 7d 4a 96 bc ef 3e da 3d 0b 61 19 3e
       0.13515742 -0.018346066 0.10656535 0.14978425
000090 be b8 86 3c 90 3d cb 3c 0f 4d 54 bd 0a f9 8d 3d
       0.016445514 0.024809629 -0.0518313 0.06932266
0000a0 bf 63 05 3e 32 f4 ed bb 99 d2 bb bd 20 22 b2 be
       0.13026331 -0.0072617764 -0.09171028 -0.3479166
0000b0 43 88 61 3d 12 35 2e 3e 27 14 46 bb af 11 11 be
       0.05506159 0.17012432 -0.0030224414 -0.14166902
0000c0 60 d0 33 3e 15 44 fa 3d 9b 04 d7 bd 87 9f 59 3e
       0.17559958 0.12220017 -0.10498925 0.21252261
0000d0 4f 44 4d 3e 09 ae be bc b8 19 c4 3c 8d 01 88 3e
       0.20045589 -0.023276346 0.023938045 0.26563683
0000e0 13 6a 15 3e b6 c8 56 be d7 c7 56 be 4c 12 b0 bd
       0.14591245 -0.20975003 -0.2097467 -0.0859724
0000f0 e0 55 62 3d 1a 55 51 be 1a 01 40 bd bc a9 a4 3d
       0.055257678 -0.2044262 -0.04687605 0.08040187
000100 45 ea 3a 3e 71 97 a5 bd 66 61 99 3d 1b 23 ba 3e
       0.18253429 -0.08085526 0.074892804 0.36354908
000110 89 51 65 be 16 15 13 be 76 0a 82 be 16 67 60 bd
       -0.22394384 -0.14363512 -0.25398606 -0.05478581
000120 17 84 58 be f8 ba 70 be cd 17 1d 3d f1 53 65 be
       -0.21144138 -0.23508823 0.038352776 -0.22395302
000130 d1 b5 02 3e 8d 50 8c 3d 8b bc 5f 3d 29 65 54 3d
       0.1276467 0.06851301 0.054623168 0.051854286
000140 67 9a 0f 3e fe 9c 9b 3e fa a6 25 3d 20 67 64 be
       0.14023744 0.30393213 0.040442444 -0.22304964
000150 32 9e ea bd 24 f0 3a be eb 96 5e 3d 1e 63 32 bd
       -0.114559546 -0.18255669 0.054343145 -0.043551557
000160 87 5a 45 be 3d a8 95 be 4f 1c 34 be ed be 97 3e
       -0.19272815 -0.29229918 -0.17588924 0.29637852
000170 40 65 0e be 83 db 25 3e 78 54 87 3e f6 4c c1 3d
       -0.13905811 0.16197018 0.26431632 0.09438507
000180 fb ec 18 3d 86 42 04 3e 06 4d 3e be 92 63 d1 3d
       0.037335377 0.12916002 -0.1858407 0.1022407
000190 87 eb 04 3e 31 19 99 3c c5 61 97 be 52 39 3d be
       0.12980472 0.01868877 -0.2956678 -0.18478897
0001a0 78 fa cf 3e e7 41 11 be a8 07 1f be 94 14 79 be
       0.4062078 -0.14185296 -0.15530264 -0.24324256
0001b0 7a 76 ab 3d f3 01 56 3e ec dd da bd e9 be f6 3d
       0.08372207 0.20899181 -0.106868595 0.12048132
0001c0 2a 90 dd bc 27 03 73 be e7 12 c0 3e 5d 21 31 be
       -0.027046282 -0.23731671 0.3751442 -0.17297883
0001d0 8a de 08 3e bb 8f 96 3d 5f d3 93 bd 4e 28 39 3c
       0.13366142 0.07351633 -0.0721805 0.011301113
0001e0 cd 72 d1 3d 9b d0 bd bd d5 84 81 3d 07 80 54 be
       0.10226975 -0.09268304 0.06324164 -0.20751964
0001f0 cd 92 4d be 88 7b 4d bb 1f 84 63 be eb 78 c9 3d
       -0.20075531 -0.0031354148 -0.22218369 0.098375164
000200 e4 fe 2e bc 82 86 85 bd 71 6b 94 3e ce 1a 90 3d
       -0.010680888 -0.06519796 0.2898822 0.070363626
000210 1e 71 94 be 40 8f a1 be e3 ea 11 3e c8 a1 32 be
       -0.28992552 -0.31554604 0.14249758 -0.17444527
000220 4b e7 3a bd 5d a9 54 3e aa 0f 7d bd 4a 3b 2b 3e
       -0.045630734 0.20767732 -0.061782517 0.16721836
000230 3a d9 39 3e 32 98 36 be f1 53 31 3e 28 95 b2 be
       0.18149272 -0.17831495 0.17317177 -0.34879422
000240 c0 7f 8e 3e 5a 74 52 3e ad c1 3f be 26 45 02 3e
       0.2783184 0.20552197 -0.18726225 0.1272169
000250 16 7a be bd 12 58 5e bd a0 fe 05 be 27 de 57 3d
       -0.0930063 -0.05428321 -0.13085413 0.052702095
000260 e8 e0 54 bd 47 7c 13 be f7 21 74 be b2 8b 8f 3e
       -0.0519723 -0.14402877 -0.23841082 0.28036267
000270 c8 d7 af be 05 cf 34 3e 27 86 62 3e 8a 6f 0f 3e
       -0.34344316 0.17657097 0.22121488 0.14007393
000280 5b 2b 8b 3e c6 4d 29 bd f1 be 9c 3e 33 43 a4 bd
       0.27181515 -0.041333936 0.30614427 -0.0802063
000290 78 3d 35 3d dc 08 79 be 86 62 45 3e 05 0f 56 3d
       0.044248074 -0.24319786 0.19275865 0.052260417
0002a0 f7 9c e2 3e f3 a6 8f 3e c8 6d f5 3d a8 fb b3 3d
       0.4426038 0.2805706 0.1198383 0.08788234
0002b0 65 a3 56 3d 11 09 e0 bb a1 6f b6 3e df 02 ac 3e
       0.05240192 -0.0068370183 0.3563204 0.3359594
0002c0 95 5d 3e 3e 12 ab 68 bd b2 9f 34 3e b0 b7 e3 be
       0.18590386 -0.05680377 0.17639044 -0.4447608
0002d0 b7 f0 6d 3d f8 3d 5f 3e 08 35 55 be 56 87 b2 3d
       0.05809089 0.21800983 -0.20821011 0.087172195
0002e0 48 40 30 bd c8 66 05 3e d9 d1 76 be 39 9e 0f 3e
       -0.043030053 0.13027489 -0.24103488 0.14025201
0002f0 c9 b2 f1 3d 92 65 27 3e 59 2d 8f bc 4f 71 51 3c
       0.11801679 0.1634734 -0.017477678 0.0127833625
000300 e7 24 b8 3e 45 97 1b 3e 92 96 45 be 12 8f 60 be
       0.35965654 0.15194423 -0.1929572 -0.21929577
000310 d6 52 9f 3e 07 f9 95 3d c7 7a 50 3e 0e 09 9d be
       0.31117886 0.07322889 0.20359336 -0.3067097
000320 00 f1 33 3e 6a c7 c3 be 67 60 88 bd 8d db ca 3c
       0.17572403 -0.38238078 -0.06659012 0.024762893
000330 10 33 d0 bd af 13 87 be 0e 7a 15 be 58 8d 2a be
       -0.101659894 -0.26382205 -0.14597341 -0.16655481
000340 07 d7 23 be 41 68 4b 3c b2 1b 58 bd 4b e1 e6 bd
       -0.15999995 0.012414993 -0.052760787 -0.1127344
000350 78 71 46 3e df 6d 80 be 67 41 8c 3e 87 40 bd be
       0.19379222 -0.25083825 0.27393648 -0.36963293
000360 f3 c8 5d 3e 90 03 93 be e1 47 13 bd da 39 ff 3d
       0.21658687 -0.28713655 -0.03595722 0.12462206
000370 6e e6 a6 3e ff 37 4f be 35 9d cc bd 71 52 f2 3d
       0.3259768 -0.20236205 -0.09990922 0.11832131
000380 ac ac 60 be 7f ab 42 3e 87 ae 57 3d 18 67 c1 3d
       -0.21940869 0.19010733 0.052656677 0.09443492
000390 91 99 aa bd 66 e8 52 3e d2 d5 63 3e ba a0 80 3e
       -0.08330072 0.20596465 0.22249535 0.25122625
0003a0 60 8d 9e 3d 47 c4 9b 3d d2 c7 21 3e 39 99 c1 bd
       0.07741809 0.07605796 0.15798882 -0.09453053
0003b0 5c f8 1b 3e 0f af d2 3d 6e 4c 43 3d 90 35 88 be
       0.1523146 0.10287296 0.04768031 -0.26603365
0003c0 9b 16 4b 3e 54 d3 12 3d bc 65 92 be 1c 6b 0d be
       0.19832842 0.03584607 -0.28593242 -0.1381039
0003d0 81 11 20 3c 6e e9 73 be 20 46 f9 3c 0e b3 39 be
       0.009769798 -0.23819515 0.030428946 -0.1813471
0003e0 d5 e3 ef 3d de 25 ef bc b7 62 ce 3d 8a 3d 89 3d
       0.117133774 -0.029192861 0.10077422 0.06701191
0003f0 94 56 fe 3d 10 bf e9 bd 2d e7 57 bd ac 0a 2b be
       0.12418857 -0.114133954 -0.0527107 -0.1670329
