log/ViT_pavia.pt (torch, 676124 bytes, 69 tensors)

pos_embedding f4 [1, 104, 64]
0	0xbf50bf79	-0.81542164
1	0xbfb1039f	-1.382923
2	0xbf007ce0	-0.50190544
3	0xbea3bb72	-0.31978947
4	0x3f352696	0.70762
5	0x3f4b5058	0.7941947
6	0xbe615cfd	-0.22008128
7	0xbfe36e68	-1.7768068
8	0x3f107c10	0.56439304
9	0xbf64aa69	-0.89322525
10	0x3ed9fd0b	0.4257587
11	0x3dd21d3f	0.102594845
12	0x3e8b7c42	0.2724324
13	0x3f8544eb	1.0411657
14	0x3f81cb9e	1.0140264
15	0xbef79743	-0.4835759
16	0xbf52b74d	-0.82310945
17	0xbfcbee50	-1.5932102
18	0x3f4a7ec7	0.79099697
19	0x3f3b772f	0.73228735
20	0x3ebb2788	0.36553597
21	0xbfd9d3db	-1.7017778
22	0xbeb63b10	-0.35591936
23	0x3fcda280	1.6065216
24	0x3efa772b	0.48919043
25	0xbf06c097	-0.5263762
26	0xbeaf0b82	-0.34188467
27	0x3f0f9a02	0.5609437
28	0x3f8eaf71	1.114729
29	0x3f945d14	1.1590905
30	0x3f0cf616	0.55063
31	0xbe956da0	-0.291852
32	0xbf1d6710	-0.61485386
33	0xbe5274b0	-0.20552325
34	0xbf1739b7	-0.5907244
35	0xbde6121f	-0.11233925
36	0x3e8720c9	0.263922
37	0xbe063643	-0.13106637
38	0x3f00d271	0.5032111
39	0x3f2eab2b	0.6822993
40	0xbe576514	-0.21034652
41	0x3f40ba9e	0.75284755
42	0xbe8e43d4	-0.27786124
43	0xbd9edcf8	-0.0775699
44	0x3ef530fb	0.47888932
45	0x4006ca09	2.1060812
46	0xbfa60e46	-1.2973106
47	0xbfb5557c	-1.4166713
48	0xbf0e01e0	-0.5547161
49	0x3f2029d6	0.62563837
50	0x3f0959d6	0.53652704
51	0x3d9b670c	0.07588014
52	0xbf01a274	-0.5063851
53	0xbe6ee4b2	-0.23329428
54	0x3f2a0019	0.664064
55	0xbea3ebeb	-0.3201593
56	0xbf2372ee	-0.63847244
57	0x3ee6d9c9	0.45088032
58	0x3fa523ff	1.290161
59	0x404179bf	3.0230558
60	0xbfa3b496	-1.2789485
61	0xbf923916	-1.1423671
62	0x3fbeabd6	1.489619
63	0xbee9783b	-0.4559954
64	0xbf0e526c	-0.55594516
65	0x3f395e7a	0.72409785
66	0x3f1d58d8	0.6146369
67	0x3fb613c2	1.422478
68	0xbfa95d2e	-1.3231561
69	0x40208b58	2.5085049
70	0xbf158bf9	-0.58416706
71	0x3ed96ede	0.42467397
72	0xbf2e23fc	-0.6802366
73	0xbebed7a1	-0.37273887
74	0xbed40add	-0.41414538
75	0xbeef0f92	-0.46691567
76	0xbf39baad	-0.7255047
77	0x3f8d3f66	1.1034973
78	0x3d10c5ca	0.035344876
79	0x3eebe856	0.46075696
80	0x3c413ff8	0.0117950365
81	0x3ef2f353	0.47451267
82	0xbebead97	-0.37241814
83	0x3d3a488b	0.04547934
84	0x3f18bbd2	0.5966159
85	0xbef1e9f9	-0.4724882
86	0x3fa40bc2	1.2816088
87	0x3ddd6b98	0.108115375
88	0xbd3f6316	-0.046725355
89	0x4005cd3d	2.0906518
90	0xbfdb3be9	-1.7127658
91	0xbddeaf4f	-0.10873281
92	0xbf88055d	-1.0626637
93	0xbf514586	-0.8174671
94	0xbde10b4a	-0.10988481
95	0x3f1b920e	0.60769737
96	0x3fc59f21	1.5439187
97	0xbf27fe8b	-0.65622777
98	0x3d4df13d	0.05027889
99	0x3e6838ee	0.22677967
100	0xc01fad3e	-2.4949489
101	0xbf926715	-1.1437708
102	0xbebea0dc	-0.372321
103	0xbb6d292b	-0.0036187868
104	0x3cb95ce4	0.022627302
105	0xbe07f6f3	-0.13277797
106	0x3d573aef	0.052546438
107	0x3e7f7916	0.24948534
108	0x3ea16739	0.31524065
109	0xbf2e548b	-0.6809775
110	0x3f789627	0.97104114
111	0xbf6ffac0	-0.9374199
112	0xbee13c66	-0.43991393
113	0xc01bdc58	-2.4353237
114	0xbe8087c2	-0.25103575
115	0xbd9fa702	-0.07795526
116	0x3f2444af	0.641673
117	0x3e84cbc2	0.25936705
118	0xbf65ea0a	-0.8981024
119	0x3d584a7a	0.0528054
120	0xbefe640a	-0.496857
121	0xbe851404	-0.25991833
122	0x3fd7aad7	1.6849011
123	0xbe4036b7	-0.18770872
124	0xbdc57d24	-0.09643009
125	0x3f7a83d2	0.9785739
126	0x3f821458	1.0162458
127	0x3fabb6a0	1.3415108
128	0xbf3d45d0	-0.7393465
129	0xbe6e671f	-0.23281525
130	0xbf6cf3fe	-0.925598
131	0x3f4b306c	0.7937076
132	0x3f23bf4b	0.63963765
133	0x3f7520a8	0.95752954
134	0x3fe7a8a0	1.8098335
135	0xbf4d94d0	-0.80305195
136	0x3d8f76c8	0.070050776
137	0xbd68c347	-0.056826856
138	0xbea8e1ad	-0.32984677
139	0xbf99257c	-1.1964564
140	0xbe3e3aab	-0.18577068
141	0xbf6f649f	-0.9351291
142	0xbef32117	-0.47486183
143	0x3c4c8d50	0.012484863
144	0xbd369e48	-0.044584543
145	0x3cc4436d	0.023957932
146	0x3f0d60f2	0.5522605
147	0x3fa5f211	1.2964498
148	0x3eccf5e7	0.4003136
149	0x3eff217f	0.49830243
150	0x3d0faadf	0.035075065
151	0xbe56ec95	-0.20988686
152	0x3e9b7f7e	0.30370706
153	0xbeea03ed	-0.4570612
154	0xbfe29712	-1.7702353
155	0xbe069ec1	-0.13146497
156	0xbf006b93	-0.50164145
157	0x3d2e6b15	0.04258259
158	0xbdedfe0a	-0.1162072
159	0x3e86389b	0.26215062
160	0x3f68c179	0.90920216
161	0xbefd3a7b	-0.4945868
162	0x3e303700	0.17208481
163	0xbc888217	-0.016663594
164	0x3f144924	0.57924104
165	0xbdb3a4fa	-0.08771701
166	0x3e01f7ef	0.12692235
167	0x3ef2b795	0.47405687
168	0xbd949334	-0.07254639
169	0xbe16adb4	-0.147147
170	0xbd8a0432	-0.067390814
171	0x3e182d84	0.14861113
172	0xbe257a69	-0.16159977
173	0xbf8ee06b	-1.1162237
174	0x3ba20bef	0.0049452703
175	0xbfd43093	-1.6577324
176	0xbea6b8b3	-0.3256279
177	0xbf07cbbd	-0.53045255
178	0xbfca7403	-1.5816654
179	0xbeb7a9f0	-0.3587184
180	0x3f1ea946	0.6197704
181	0xbde6897f	-0.11256694
182	0x3f9d26f8	1.2277517
183	0x3f057151	0.5212603
184	0xbf3be3bb	-0.73394364
185	0xbf13f273	-0.57791823
186	0x3fb98396	1.4493282
187	0x3ebcad69	0.3685105
188	0x3ea48abd	0.321371
189	0xbf1ca80f	-0.6119394
190	0xbf2d1e43	-0.676243
191	0xbf5442f7	-0.8291468
192	0xbe47f831	-0.19528271
193	0x3e755103	0.23956685
194	0x3e2c2732	0.16811827
195	0x3e522a66	0.20523986
196	0x3e4bb043	0.19891457
197	0x3f31fd90	0.6952753
198	0xbeeee044	-0.46655476
199	0x3f6d5e4e	0.9272202
200	0x3d6ac863	0.05732001
201	0xbf604767	-0.8760895
202	0x3ecf096a	0.4043687
203	0x3f056f3e	0.5212287
204	0x3e3d6202	0.18494418
205	0xbf5e4830	-0.868289
206	0x3f2b48dc	0.6690805
207	0xbf1071d7	-0.56423706
208	0x3f2c265d	0.6724604
209	0x3e86edb9	0.26353243
210	0x3f29a426	0.66266096
211	0x3f48fce3	0.78510875
212	0xbf4e429c	-0.8057039
213	0x3f57eb8e	0.843438
214	0xbea4559c	-0.32096565
215	0xbf24cb46	-0.6437267
216	0x3f100ea9	0.5627237
217	0x3f91b457	1.138316
218	0xbe4864f1	-0.19569756
219	0x3eb9c62d	0.3628401
220	0xbe4579d1	-0.1928475
221	0xbe8e1adb	-0.27754864
222	0xbefff076	-0.49988145
223	0x3e6f59e6	0.23374137
224	0xbe5b33dd	-0.21406503
225	0x3f7e4c91	0.9933558
226	0x3cb446cf	0.02200642
227	0xbe7e4c38	-0.24833763
228	0xbe2a7e38	-0.16649711
229	0x3f3a4aad	0.72770196
230	0xbec7fa56	-0.3905818
231	0xbf933c3e	-1.150276
232	0xbe93d219	-0.2887123
233	0xbec9f892	-0.39447457
234	0xbef94344	-0.48684132
235	0x3f1e8190	0.61916447
236	0xbf13c899	-0.5772796
237	0x3eecab9c	0.46224678
238	0x3f8c9550	1.0983067
239	0xbfe8da74	-1.8191667
240	0xbf8e883b	-1.1135324
241	0xbfb2d1a4	-1.3970227
242	0x3d016c15	0.031597216
243	0xbf89b5e4	-1.0758634
244	0x3f9ba2c8	1.2159052
245	0xbe075ba3	-0.1321855
246	0x3eecdfa5	0.46264377
247	0xbeb4279a	-0.35186464
248	0x3ba0886f	0.0048990767
249	0x3f381c88	0.71918535
250	0x3f37f3cc	0.7185638
251	0xbe4d48c0	-0.20047283
252	0xbf3cb88a	-0.73719084
253	0xbe0f2cdd	-0.13981958
254	0x3fd53ac8	1.6658564
255	0x3e8609e1	0.26179412

cls_token f4 [1, 1, 64]
0	0x3dbcf8d2	0.09227146
1	0x3fecfae4	1.8514066
2	0x3f279dcf	0.6547517
3	0xbee8fdb9	-0.45506075
4	0xbea87503	-0.32901773
5	0xbf782f85	-0.9694751
6	0x3d1a50e7	0.03767481
7	0x3e0ed8b8	0.13949859
8	0xbf993421	-1.1969033
9	0xbad366fe	-0.0016128717
10	0xbed66fb2	-0.41882092
11	0x3e615232	0.22004011
12	0xbf2172fd	-0.63066083
13	0xbf2a40eb	-0.66505307
14	0xbf513d48	-0.8173413
15	0x3f92d9ae	1.147268
16	0xbfe72307	-1.8057564
17	0x3f850b8d	1.039415
18	0xbf876815	-1.0578638
19	0xbf4ebb5d	-0.80754644
20	0x3f1306aa	0.57432044
21	0x3fcb5af1	1.5887128
22	0x3e6707c6	0.22561559
23	0xbe0b32b5	-0.13593562
24	0x3f7a3491	0.9773646
25	0x3f482440	0.78180313
26	0x3f93b72c	1.1540275
27	0xbfc0635a	-1.503032
28	0xbf5db689	-0.8660665
29	0x3f3475a3	0.70492
30	0x3f0941b3	0.53615874
31	0xbf8da3c3	-1.1065601
32	0x3f15d9a0	0.58535194
33	0x3f205884	0.62635064
34	0x3ecf797d	0.40522376
35	0x3f4e74c8	0.80646944
36	0x3ef3607d	0.47534552
37	0x3f809363	1.0044979
38	0xbe90c47f	-0.28274915
39	0xbf8a7c3c	-1.0819163
40	0x3eb71616	0.35759038
41	0xbf678214	-0.9043286
42	0xbe85cadb	-0.2613133
43	0x3e8690c3	0.2628232
44	0xbeeb81a0	-0.45997334
45	0x3ec3a170	0.38209105
46	0xbfaf01a4	-1.3672376
47	0x3ed632ef	0.41835734
48	0x3eb80bb0	0.35946417
49	0x3ef3125d	0.47474948
50	0x3f18a256	0.59622705
51	0x3d9a7c74	0.07543269
52	0x3f29b3f0	0.6629019
53	0xbea78a25	-0.32722583
54	0xbf128482	-0.5723344
55	0xc04d4f70	-3.2079735
56	0x3f64350e	0.89143455
57	0xbcd0105b	-0.025398424
58	0x3fc8e2ed	1.5694252
59	0x3f6b500b	0.9191901
60	0x3f5c5774	0.8607094
61	0x3f90d27b	1.1314234
62	0x3fc4bf7e	1.5370939
63	0x3e2d5920	0.1692853

patch_to_embedding.weight f4 [64, 1]
0	0x4026a47c	2.6037893
1	0xbff40059	-1.9062606
2	0x40056cf0	2.084774
3	0xbff229b6	-1.8918979
4	0x3dc873d2	0.09787716
5	0xbf3e73ee	-0.74395645
6	0xbfc54bd0	-1.5413761
7	0xbf928caa	-1.1449177
8	0xc0198aaf	-2.3990896
9	0xbea1d622	-0.31608683
10	0x4031dc7f	2.779083
11	0x3fcfb913	1.6228355
12	0xc04b9981	-3.1812441
13	0x3fe43e3f	1.7831496
14	0x3e00f400	0.12593079
15	0x3fbb077d	1.461166
16	0xc00b6a2d	-2.1783555
17	0x3fb152f7	1.3853444
18	0xc00b3ba7	-2.175516
19	0x3fa44106	1.2832344
20	0x3ff70c88	1.9300699
21	0x400bbaf4	2.1832857
22	0x3cc9b52c	0.024622522
23	0x40118394	2.273656
24	0xbfb3faf2	-1.4060957
25	0xbfca39ba	-1.5798867
26	0x4001813e	2.0235133
27	0x3fe7aeaa	1.8100178
28	0xc01f7ac3	-2.4918678
29	0x40103624	2.2533045
30	0x40122806	2.2836928
31	0x400a22ea	2.158381
32	0xbfe31634	-1.7741151
33	0xc015c2d7	-2.340017
34	0x40237e09	2.5545676
35	0xc0165ea4	-2.3495264
36	0x3fcefdcd	1.6171204
37	0xc0087712	-2.1322675
38	0x4011322c	2.2686872
39	0x3fb11723	1.3835186
40	0x4022abec	2.5417433
41	0x4017ba38	2.370741
42	0xc03d0d4b	-2.9539363
43	0x4010e451	2.2639353
44	0xc00fa635	-2.2445195
45	0xbfc81b11	-1.563326
46	0x3ffb0292	1.9610159
47	0xc0001e60	-2.001854
48	0x3fea0758	1.8283491
49	0x3fcf6b64	1.6204648
50	0x4007a9e7	2.119745
51	0xc007ab89	-2.1198447
52	0x40060aae	2.0944018
53	0x3f9d5526	1.229161
54	0x400349fb	2.0513904
55	0xbf9c829b	-1.2227358
56	0xc0071ce9	-2.1111395
57	0xbfc7220a	-1.5557263
58	0x3fd0bc6f	1.6307505
59	0xc01a0f1c	-2.4071722
60	0xbf3fa7e2	-0.74865544
61	0xc007f242	-2.1241612
62	0xbfb2b99e	-1.3962896
63	0x3fc9845d	1.5743519

patch_to_embedding.bias f4 [64]
0	0xbea6cd67	-0.32578585
1	0x3e9c7e65	0.3056518
2	0x3f0d503a	0.5520054
3	0x3eb6927d	0.35658637
4	0x3f416c7d	0.75556165
5	0x3e5ca33a	0.21546641
6	0x3f1cdd4d	0.6127518
7	0x3eadbf24	0.3393489
8	0x3e717de0	0.23583174
9	0x3e9e34e5	0.3089973
10	0xbf309a7e	-0.68985736
11	0x3ed7a1cc	0.4211563
12	0x3f33a939	0.7018009
13	0xbf3b31ef	-0.7312307
14	0xbf094180	-0.5361557
15	0x3f0b1a30	0.54336834
16	0x3ea54722	0.32280833
17	0xbef00fe4	-0.46887124
18	0xbe532af3	-0.20621853
19	0xbea093a7	-0.3136265
20	0xbea8c714	-0.32964385
21	0x3ea06031	0.31323388
22	0xbed73145	-0.42029777
23	0xbd9e92be	-0.077428326
24	0x3e8f51bf	0.27992055
25	0xbe52806e	-0.20556805
26	0xbe9e375a	-0.30901605
27	0xbe9765e4	-0.29569924
28	0x3f38184b	0.7191207
29	0x3e3e2017	0.18566929
30	0xbe10a261	-0.14124443
31	0xbf12a066	-0.57276
32	0xbe546d1b	-0.20744745
33	0xbe34b0da	-0.17645589
34	0x3eea02fa	0.45705396
35	0x3f3b182c	0.7308376
36	0x3c897e0e	0.01678374
37	0xbf2b367b	-0.66880006
38	0x3e51a269	0.20472111
39	0xbe967306	-0.2938463
40	0x3ea08edd	0.31358996
41	0x3ddbe87d	0.10737703
42	0x3f542c6a	0.8288027
43	0xbe8bbfc4	-0.27294743
44	0x3eac3f64	0.33642113
45	0x3d7d3622	0.061819203
46	0x3e6fb22b	0.2340781
47	0x3f27da3b	0.6556737
48	0x3d48b7ba	0.04900334
49	0xbe9e9bd5	-0.30978265
50	0xbe6a8078	-0.2290057
51	0x3f497c8d	0.78705674
52	0xbf0abf26	-0.5419792
53	0xbca39a7e	-0.019971129
54	0xbd3b4368	-0.04571858
55	0x3ec38dee	0.3819422
56	0xbd617297	-0.055040922
57	0xbd377ef9	-0.044798825
58	0xbe238105	-0.15967186
59	0x3e4481f3	0.19190197
60	0xbed73b86	-0.420376
61	0x3f0e82e0	0.5566845
62	0xbe69f9ec	-0.22849244
63	0xbe9289f9	-0.2862089

transformer.layers.0.0.fn.norm.weight f4 [64]
0	0x3f8d249e	1.10268
1	0x3f7ad588	0.9798207
2	0x3f6e1a48	0.9300885
3	0x3f6734d3	0.9031498
4	0x3f43bb02	0.76457226
5	0x3f6e5359	0.9309593
6	0x3f4197fc	0.75622535
7	0x3f43c594	0.76473355
8	0x3fa3a12a	1.2783558
9	0x3f5522e1	0.83256346
10	0x3f798132	0.9746276
11	0x3f54f2a8	0.83182764
12	0x3f823e5e	1.0175283
13	0x3f61fdbb	0.88277787
14	0x3f459268	0.77176523
15	0x3f455ae5	0.7709182
16	0x3f959d13	1.168856
17	0x3f51abfb	0.81903046
18	0x3f84600a	1.0341809
19	0x3f62f500	0.8865509
20	0x3f89f2d5	1.0777231
21	0x3f64fd0d	0.89448625
22	0x3f4bd800	0.79626465
23	0x3f8c7dcc	1.097589
24	0x3f6ade8b	0.91745824
25	0x3f4e681a	0.80627596
26	0x3f8c7323	1.0972637
27	0x3f585a0a	0.8451239
28	0x3f84e950	1.0383701
29	0x3f571dd0	0.84029865
30	0x3fa06318	1.2530241
31	0x3f92e637	1.1476506
32	0x3f650752	0.89464295
33	0x3f7da6f5	0.9908288
34	0x3f723c43	0.946232
35	0x3f877439	1.0582343
36	0x3f8bb2c8	1.0913935
37	0x3f5db69e	0.86606777
38	0x3f80f570	1.0074902
39	0x3f6105de	0.8789958
40	0x3f71b4ea	0.9441668
41	0x3f7339ff	0.9501037
42	0x3f8dae1c	1.1068759
43	0x3f6e62ff	0.93119806
44	0x3f99cc31	1.2015439
45	0x3f844522	1.0333598
46	0x3f3cadb3	0.73702544
47	0x3f7865a0	0.9703007
48	0x3f540cca	0.82832015
49	0x3f63d032	0.88989556
50	0x3f762f64	0.9616606
51	0x3f7e2117	0.9926924
52	0x3f80a22d	1.0049492
53	0x3f585eaf	0.84519476
54	0x3f53cbb2	0.8273269
55	0x3f5bcda3	0.8586065
56	0x3f7dcc59	0.99139935
57	0x3f839823	1.0280803
58	0x3f80ad03	1.0052799
59	0x3f6e7f8b	0.93163365
60	0x3f31fe70	0.69528866
61	0x3f955502	1.1666567
62	0x3f4387e9	0.7637926
63	0x3f97a1df	1.1846274

transformer.layers.0.0.fn.norm.bias f4 [64]
0	0xbc378fa8	-0.011203684
1	0x3cb9004d	0.022583151
2	0xbdae6b39	-0.08516545
3	0x3c7d2b68	0.015452243
4	0xbdc2cb58	-0.09511441
5	0x3dae8459	0.08521337
6	0xbe45bd47	-0.19310485
7	0x3dbc0aa3	0.09181716
8	0x3d108b3c	0.035289034
9	0xbcd7198b	-0.026257297
10	0x3bc2acec	0.005941024
11	0xbe5ced72	-0.21574953
12	0x3cbe6e51	0.023245962
13	0x3da137e2	0.07871987
14	0x3dff1bc1	0.124564655
15	0xbdf03283	-0.11728384
16	0x3d28055c	0.041020736
17	0x3cb35de1	0.02189535
18	0x3d9f530a	0.0777951
19	0xbced23bf	-0.02894771
20	0xbd2293e1	-0.03969181
21	0xbe236081	-0.15954782
22	0x3d067075	0.03282209
23	0xbd22691c	-0.03965102
24	0x3cd17ccf	0.025572209
25	0x3e3f9862	0.18710473
26	0xba8f2f8e	-0.0010924207
27	0xbcfdcd94	-0.030981816
28	0xbc38ec4c	-0.011286806
29	0xbe05e797	-0.13076626
30	0xbc844339	-0.016145336
31	0xbb3a1620	-0.0028394535
32	0x3e1c94ac	0.15291089
33	0x3da7cb3c	0.08193061
34	0xbdb5b6b0	-0.088727355
35	0xbcfc4fd0	-0.030799776
36	0xbd00c457	-0.031437244
37	0x3dfb922c	0.122837394
38	0xbd8b316e	-0.06796537
39	0x3c4eea07	0.012629039
40	0xbdd7110c	-0.10501298
41	0xbdd6dbbb	-0.10491129
42	0x3c633724	0.013868127
43	0xbd9d512c	-0.07681498
44	0x3d68b624	0.056814328
45	0x3d897636	0.06712
46	0xbe8e0797	-0.27740166
47	0x39fa9a18	0.00047798525
48	0xbdceaea4	-0.10091904
49	0x3cb430f3	0.021995997
50	0xbb56fb2f	-0.0032803526
51	0xbc8ec9b1	-0.017430158
52	0xbc8fde8a	-0.01756217
53	0xbd7c5e3b	-0.061613303
54	0xbde80fbd	-0.11331127
55	0x3c35bfd9	0.011093103
56	0x3df5067f	0.1196413
57	0x3da4c0b9	0.080445714
58	0xbd1b4536	-0.0379078
59	0x3d89f25f	0.06735682
60	0x3e23a33c	0.15980238
61	0x3d51347a	0.051075436
62	0x3e6c80b0	0.23095965
63	0xbc911186	-0.017708551

transformer.layers.0.0.fn.fn.to_qkv.weight f4 [192, 64]
0	0xbe42b79a	-0.19015351
1	0x3e8d6e62	0.27623278
2	0xbdcd90d3	-0.10037389
3	0x3c5e07e9	0.013551691
4	0xbcbbe5c4	-0.02293671
5	0xbc9d1353	-0.019174254
6	0xbdc78bfd	-0.097434975
7	0xbe267127	-0.16254102
8	0x3c05e11c	0.008171346
9	0xbdbe8eb6	-0.09304564
10	0x3c9babfb	0.019002905
11	0xbe1aac9c	-0.15104908
12	0x3d1486ae	0.036261253
13	0x3d0a163a	0.033712603
14	0xbd8483d8	-0.0647046
15	0x3d9af77b	0.075667344
16	0xbe4d1b3c	-0.2002992
17	0xbded0f3f	-0.115751736
18	0x3d8994d5	0.067178406
19	0x3d69797d	0.057000626
20	0xbe84a722	-0.25908762
21	0x3bc3dda6	0.0059773503
22	0xbdb49f0c	-0.08819398
23	0x3e178e4f	0.1480038
24	0x3e5b61f8	0.21424091
25	0x3dbb9df2	0.09160985
26	0xbd2c50d2	-0.042069264
27	0xbc19a206	-0.009377008
28	0x3e7f634f	0.24940227
29	0xbcc475d7	-0.023981972
30	0xbdef80c6	-0.116944835
31	0xbe927acd	-0.28609315
32	0x3e72fa91	0.23728396
33	0x3d6b26fe	0.057410233
34	0xbe5f8eb6	-0.21831784
35	0x3e5eee97	0.21770702
36	0xbc5fec1f	-0.0136671355
37	0x3d055728	0.03255382
38	0x3dc99511	0.09842885
39	0x3da32f2f	0.07967984
40	0x3dd3a5f3	0.10334387
41	0xbe94ac6a	-0.29037791
42	0x3cd61ccd	0.02613678
43	0xbd941a46	-0.07231574
44	0x3edc03de	0.429717
45	0xbc708228	-0.014679469
46	0xbda4682c	-0.08027682
47	0xbd6c88f0	-0.05774778
48	0xbd4043da	-0.04693971
49	0xbdef2243	-0.11676457
50	0x3e07ddb1	0.13268162
51	0xbccec59a	-0.025240708
52	0x3d892739	0.06696934
53	0x3d03365d	0.032034267
54	0x3d2e5799	0.04256401
55	0xbe48aea1	-0.19597866
56	0x3cda75cd	0.0266675
57	0xbe00b43a	-0.12568751
58	0x3e1f17fc	0.15536493
59	0x3d915eb2	0.0709814
60	0xbb74e63d	-0.0037368678
61	0xbe6582a1	-0.22413112
62	0x3e117669	0.14205326
63	0xbdaf9f23	-0.08575275
64	0xbe3fafb1	-0.18719365
65	0x3e273e76	0.1633242
66	0xbb82af5a	-0.0039881887
67	0xbdfeb545	-0.12436918
68	0x3c7b0866	0.015321827
69	0x3d2e5104	0.04255773
70	0xbd76363b	-0.060110312
71	0x3d9b75f7	0.075908594
72	0x3e6d24fc	0.2315864
73	0x3c4ae8c4	0.012384597
74	0xbc797bd4	-0.015227277
75	0x3c801dea	0.015639264
76	0xbd0fa462	-0.035068877
77	0xbe381242	-0.17975715
78	0xbdc9a82c	-0.09846529
79	0xbdc2f1f7	-0.095188074
80	0x3cac7fc0	0.02105701
81	0xbb75c1a3	-0.003749945
82	0xbdddc487	-0.108285
83	0x3dbb1e9a	0.09136696
84	0xbda61876	-0.08110134
85	0xbda7ddd0	-0.08196604
86	0x3cc90401	0.024538042
87	0xbe314350	-0.17310834
88	0x3d8755a9	0.06608135
89	0xbdd1ab00	-0.10237694
90	0xbec1c0f8	-0.37842536
91	0xbbed0cba	-0.007234183
92	0xbe1aaf29	-0.15105881
93	0x3c62db9e	0.013846306
94	0xbeb16d41	-0.34653667
95	0xbe636bb6	-0.22209057
96	0x3d99c5c1	0.07508422
97	0x3d343a17	0.04400071
98	0xbdcc8b73	-0.09987535
99	0x3e9640ce	0.29346317
100	0xbdf9335d	-0.12168
101	0xbded60a5	-0.11590699
102	0x3c1ae5bb	0.009454186
103	0xbd97aa28	-0.074055016
104	0xbd29866a	-0.041387953
105	0x3dc82775	0.09773151
106	0x3ea8fe80	0.33006668
107	0x3cdc55da	0.026896406
108	0x3e8688ed	0.2627634
109	0x3cf39795	0.029735366
110	0xbcf11a8a	-0.0294316
111	0xbe49adb8	-0.19695175
112	0x3e0df3c1	0.13862516
113	0xbc7c3397	-0.015393159
114	0x3e2bf2bd	0.16791816
115	0x3ce914f3	0.028452372
116	0x3da7872f	0.08180081
117	0x3cfcb1df	0.030846534
118	0xbe16d2d5	-0.14728864
119	0x3e77298b	0.24136941
120	0x3ce564ef	0.02800223
121	0x3d168f14	0.036757544
122	0x3e1e944c	0.15486258
123	0xbe03013d	-0.12793441
124	0x3c3f9fc2	0.011695804
125	0x38bd234c	9.018797e-05
126	0xbe19feec	-0.15038651
127	0xbd8ae9b7	-0.06782859
128	0xbc2a65a9	-0.010400214
129	0xbd60f2b2	-0.054918952
130	0x3da177f1	0.07884205
131	0x3d732929	0.059365425
132	0xbce54329	-0.027986126
133	0x3df54a22	0.1197703
134	0xbb4e58bc	-0.0031485995
135	0x3d546918	0.051858038
136	0x3eb730a0	0.35779285
137	0x3e23c134	0.1599167
138	0x3d4ddd53	0.0502599
139	0x3db420fe	0.08795355
140	0xbdfec520	-0.12439942
141	0xbcb3333b	-0.021875015
142	0xbc9dbadd	-0.019254142
143	0xbda576b2	-0.0807928
144	0xbd0256b4	-0.031820968
145	0xbdcfdbad	-0.10149322
146	0xbe55070d	-0.20803471
147	0x3e4290fb	0.19000618
148	0xbd9f9435	-0.0779194
149	0x3b9414a2	0.004519061
150	0x3dedef3d	0.11617897
151	0xbd1cfe51	-0.038328473
152	0x3d786de4	0.060651675
153	0xbe211f26	-0.15734538
154	0xbef7d8b8	-0.4840753
155	0xbd806f81	-0.06271268
156	0xbd3472a8	-0.044054657
157	0x3b722441	0.0036947879
158	0x3c7d3a93	0.01545586
159	0xbe65e84d	-0.22451897
160	0x3dd6a61a	0.104809
161	0x3db9ce23	0.090725206
162	0x3d03d167	0.032182124
163	0x3e99c88c	0.30035818
164	0xbe9e991d	-0.3097619
165	0x3c2db0de	0.01060125
166	0x3d36059b	0.04443894
167	0xbdcbc03f	-0.099487774
168	0xbca04199	-0.01956253
169	0x3ccefafe	0.025266167
170	0x3d8a07d4	0.06739774
171	0x3d11f273	0.03563161
172	0x3f0dc764	0.5538237
173	0xbccbaa56	-0.024861496
174	0x3d3c1f94	0.045928553
175	0xbb912598	-0.0044295304
176	0xbc4a91d1	-0.012363867
177	0xbd957310	-0.07297337
178	0xbc79509a	-0.015216971
179	0x3e2e0174	0.16992742
180	0x3d0ac17b	0.033875924
181	0xbd4d513d	-0.050126303
182	0xbd875f65	-0.06609992
183	0x3d842a5b	0.06453391
184	0x3ddf2ea2	0.108975664
185	0x3dbdb690	0.09263337
186	0xbda34a6b	-0.079731785
187	0x3dc0c5be	0.09412716
188	0xbcbfd3c8	-0.023416415
189	0xbd8788a2	-0.066178575
190	0xbd3544cc	-0.044255063
191	0xbe3b6f71	-0.1830423
192	0x3e2eb08b	0.17059533
193	0xbd65657f	-0.056004997
194	0x3d06b8ff	0.03289127
195	0x3d41a7ed	0.047279287
196	0x3d87d832	0.06633033
197	0xba9798ce	-0.0011565925
198	0x3d464659	0.048406933
199	0x3dc20dc0	0.09475279
200	0x3e99501f	0.2994394
201	0xbce807c8	-0.028324023
202	0xbcd01e1b	-0.02540498
203	0xbd4ad129	-0.049515877
204	0x3c9aab39	0.018880473
205	0xbdae768a	-0.08518703
206	0xbbc731d1	-0.0060789366
207	0xbe0223c4	-0.12708956
208	0x3dc57a9e	0.09642528
209	0xbcce5202	-0.025185589
210	0xbbfd5340	-0.0077308714
211	0x3ca7e79f	0.020496188
212	0x3cfcdedc	0.030867986
213	0xbd821af7	-0.063527994
214	0x3d585b35	0.052821357
215	0xbe3005b5	-0.17189677
216	0xbd168a93	-0.03675325
217	0xbe2dbe0e	-0.16967031
218	0xbe68428b	-0.22681634
219	0x3d1b4bb9	0.03791401
220	0xbdd6582d	-0.10466037
221	0x3dd945a5	0.10608987
222	0x3dd860e2	0.10565354
223	0x3d7266e0	0.05918014
224	0xbdc0b0df	-0.094087355
225	0x3c9ab5bb	0.018885484
226	0x3d338ccd	0.04383545
227	0x3d04a989	0.032388244
228	0xbecd290d	-0.40070382
229	0x3e8ebaa6	0.27876776
230	0xbe1d2da5	-0.15349443
231	0xbdec5e07	-0.11541372
232	0x3dd3662f	0.10322224
233	0x3dd955cd	0.10612068
234	0xbe61d805	-0.22055061
235	0x3dfa3f0d	0.12219057
236	0x3dc2854e	0.09498082
237	0xbdf9235c	-0.121649474
238	0x3d4c851c	0.04993163
239	0xbc08eeb7	-0.008357695
240	0xbd4a7170	-0.04942459
241	0x3da38bda	0.07985659
242	0x3c743aac	0.014906567
243	0xbdcf31b0	-0.10116899
244	0xbd3c07d2	-0.045905896
245	0x3dfe4c2f	0.124168746
246	0x3ce71ca4	0.0282119
247	0x39e905a9	0.0004444544
248	0xbe227ece	-0.15868685
249	0x3d90ea13	0.07075896
250	0xbd842429	-0.064522095
251	0x3d6ac8f1	0.05732054
252	0xbdff781e	-0.124740824
253	0xbd5c97b6	-0.05385562
254	0xbdfaf2d3	-0.12253346
255	0xbd398ca2	-0.045300134

transformer.layers.0.0.fn.fn.to_out.0.weight f4 [64, 64]
0	0xbdb732a3	-0.08945205
1	0xbdaad345	-0.08341078
2	0x3dc27c4b	0.09496363
3	0x3d2bda2b	0.041956108
4	0xbd78e8a0	-0.060768723
5	0x3c0f2a81	0.008738161
6	0x3da40a6f	0.080098026
7	0xbcf879c6	-0.030331504
8	0x3df6e47c	0.12055299
9	0xbd7210ed	-0.059098173
10	0x3d26ecbe	0.04075312
11	0x3e5a43c6	0.21314916
12	0xbccb4b71	-0.024816247
13	0xbda74d98	-0.08169097
14	0xbd6e2ed7	-0.05815014
15	0xbdf3cc77	-0.11904233
16	0x3d8af369	0.06784708
17	0x3c11dd0a	0.0089027975
18	0x3cd2c133	0.02572689
19	0x3cb6956a	0.022288043
20	0x3d601bd1	0.054714028
21	0x3dd7dfbe	0.10540722
22	0xbc4b8d03	-0.0124237565
23	0x3e0d7a71	0.13816239
24	0x3d9500dd	0.07275555
25	0x3b8ab01b	0.004232419
26	0x3dbc9f2d	0.09210048
27	0xbd86549f	-0.06559109
28	0xbc24887e	-0.010042308
29	0xbdd7f90b	-0.10545548
30	0x3dcbc489	0.099495955
31	0x3c160dd0	0.009158567
32	0x3d5ff91b	0.054680925
33	0x3db7eed7	0.08981102
34	0x3cc6a65d	0.02424925
35	0xbcac8090	-0.021057397
36	0xbcc480a4	-0.023987122
37	0x3de57be2	0.112052694
38	0x3c1e6bb3	0.009669232
39	0x3be41461	0.006960437
40	0xbd934800	-0.07191467
41	0x3b578dff	0.0032891033
42	0x3e1150e2	0.1419101
43	0x3d55fbb1	0.052241985
44	0x3d259d18	0.04043302
45	0x3e0bc1bd	0.13648124
46	0xbd39ef32	-0.04539413
47	0xbd169242	-0.036760576
48	0x3cf86c8f	0.030325202
49	0xbd2b28fe	-0.04178714
50	0x3d4db66a	0.05022279
51	0x3d08e1c6	0.03341844
52	0xbd8a7481	-0.067605026
53	0xbd3ba0f6	-0.0458078
54	0x3dab0f79	0.083525605
55	0x3d2c1775	0.042014558
56	0xbda487e4	-0.080337316
57	0x3d181dbe	0.03713774
58	0x3da5a0c3	0.080873035
59	0x3dd326a3	0.10310104
60	0x3de3231e	0.110906824
61	0xbbbd5658	-0.0057781152
62	0x3dab9bca	0.08379324
63	0xbd6f83d2	-0.058475323
64	0x3e034eb1	0.12822987
65	0x3dc5640b	0.09638222
66	0xbd03dca9	-0.03219286
67	0xbdaf2ae8	-0.085531056
68	0x3e0a4014	0.13501006
69	0xbd348097	-0.044067945
70	0x3df9948c	0.12186536
71	0xbdccb1cf	-0.09994852
72	0xbdb4e3fc	-0.08832547
73	0xbc2a7862	-0.010404678
74	0x3de3bb63	0.111197256
75	0xbd08d3da	-0.033405162
76	0xbc6c02de	-0.0144049805
77	0x3d31c425	0.04339995
78	0xbd8aa7ee	-0.06770311
79	0x3d9ae92f	0.075640075
80	0xbb911e86	-0.0044286875
81	0x3e0f0189	0.1396543
82	0x3d074ecb	0.033034127
83	0xbb653d73	-0.0034979254
84	0xbd1f6da6	-0.03892293
85	0xbda4f872	-0.080552
86	0xbe277359	-0.16352595
87	0x3dde20ca	0.10846098
88	0x3c8a12cf	0.016854672
89	0x3c1e5ff1	0.009666429
90	0x3d19ad29	0.037518654
91	0x3c91fc44	0.017820485
92	0x3de67ad5	0.11253897
93	0xbc436596	-0.011926075
94	0x3d7fd255	0.062456448
95	0x3c976ec5	0.018485436
96	0xbe0b57f2	-0.13607767
97	0x3e0b95dd	0.13631387
98	0xbc11cd51	-0.008899049
99	0xbcbc22a1	-0.022965731
100	0xbd27b677	-0.040945496
101	0xbe223db5	-0.15843852
102	0xbd344fc5	-0.044021387
103	0x3dad9c55	0.084770836
104	0xbe276353	-0.16346483
105	0xbcc181e5	-0.023621509
106	0xbe058322	-0.13038304
107	0xbcced822	-0.025249545
108	0xbadfe512	-0.0017081818
109	0x3d12af01	0.035811428
110	0xbd242bf6	-0.040080987
111	0xbe292af6	-0.16520295
112	0x3d93be31	0.072140105
113	0x3d0cd219	0.034380052
114	0x3d976aa3	0.07393386
115	0xbdad4f45	-0.08462385
116	0x3e1b5078	0.15167415
117	0xbd967463	-0.07346418
118	0xbe73a1bd	-0.23792167
119	0xbcab33ba	-0.020898689
120	0xbb06d732	-0.0020575044
121	0xbcc874b2	-0.024469707
122	0x3d17b47c	0.037037358
123	0x3c439841	0.011938156
124	0xbdb1f8b5	-0.08690015
125	0xbd461b5b	-0.048365932
126	0xbd1dcadc	-0.03852354
127	0xbc2327f7	-0.009958259
128	0xbd9185a9	-0.07105572
129	0x3d689899	0.056786153
130	0x3d674b4f	0.056468304
131	0xbc5cbebd	-0.01347321
132	0x3d9c2748	0.0762468
133	0xbd307d4a	-0.043088235
134	0xbd8f90f5	-0.0701007
135	0x3e17eb51	0.1483586
136	0xbd85b458	-0.065285385
137	0x3cd993c3	0.026559716
138	0x3c6a82e5	0.014313434
139	0xbc163f71	-0.009170399
140	0xbd38ea87	-0.045145538
141	0xbd61f52d	-0.05516546
142	0x3d538240	0.051637888
143	0xbcf2f573	-0.029658055
144	0x3daef49e	0.08542751
145	0xbd79d849	-0.06099728
146	0xbdc301b9	-0.09521813
147	0x3c830b2c	0.015996538
148	0x3da4ab08	0.08040434
149	0xbd41f21f	-0.047350045
150	0x3d7be3a4	0.061496392
151	0xbe02b26f	-0.1276338
152	0xbd0ca96a	-0.034341253
153	0xbd06694f	-0.032815274
154	0x3d6c9f44	0.057769075
155	0x3d1d3005	0.038375873
156	0x3d120c7b	0.035656434
157	0x3c37ebcd	0.011225653
158	0xbcc6ba90	-0.024258882
159	0x3d3fddc8	0.046842366
160	0x3dcbcfcb	0.09951743
161	0xbb163b11	-0.002292339
162	0xbd9dedb2	-0.077113524
163	0x3dc424a4	0.09577301
164	0x3c73d16e	0.014881475
165	0xbd0495e3	-0.032369506
166	0x3d435ed3	0.047697853
167	0xbcf600c6	-0.030029666
168	0xbd76c38a	-0.060245074
169	0xbd2dda8f	-0.04244476
170	0xbe00c36c	-0.12574548
171	0xbe306f8b	-0.1723005
172	0xbd90a71b	-0.07063123
173	0x3bbb8083	0.005722107
174	0xbd167502	-0.03673268
175	0x3d880579	0.06641669
176	0x3d68b674	0.056814626
177	0xbe1704c2	-0.14747909
178	0xbc642683	-0.0139251975
179	0x3d83b712	0.06431402
180	0xbd9afcb5	-0.07567731
181	0x3d086c6e	0.03330653
182	0x3d1fae0d	0.038984347
183	0x3d915819	0.070968814
184	0xbc9d94a6	-0.01923592
185	0x3d5424f2	0.051793046
186	0x3ce03db8	0.02737318
187	0x3b6e08bb	0.0036321122
188	0xbb9b2f04	-0.0047358293
189	0x3da5e8eb	0.08101066
190	0x3c85c913	0.016331231
191	0x3d3c56f5	0.045981366
192	0xbd8345dd	-0.0640981
193	0x3d42ba50	0.047540963
194	0xbdde2243	-0.10846379
195	0x3bb22ce1	0.005437479
196	0x3cc08d97	0.023505015
197	0xbde067ad	-0.109572746
198	0x3c1733e2	0.009228678
199	0xbe3deeab	-0.18548076
200	0xbe711de8	-0.23546565
201	0x3e12638a	0.14295784
202	0x3d73247f	0.059360977
203	0xbc03840f	-0.008027091
204	0x3daddfab	0.08489927
205	0xbde03be9	-0.10948927
206	0xbca62473	-0.020281052
207	0x3da8de80	0.082455635
208	0xbd9a433f	-0.075323574
209	0xbd5903c1	-0.052982096
210	0x3d45c78c	0.048286006
211	0x3e1f1c70	0.15538192
212	0xbd690a07	-0.05689433
213	0x3d787784	0.060660854
214	0x3d2d8058	0.042358726
215	0xbccf56d3	-0.025309956
216	0x3e171f89	0.14758123
217	0xbcb90d44	-0.022589333
218	0xbdb788c2	-0.08961631
219	0xbddc79b7	-0.10765403
220	0xbbdc2253	-0.006717959
221	0x3bfd8409	0.007736687
222	0x3d65375b	0.055960994
223	0x3d9ecde3	0.077541135
224	0x3e09b52c	0.13448018
225	0x3d760329	0.060061608
226	0xbd806b1a	-0.06270428
227	0xbcefd80a	-0.02927782
228	0x3d13192e	0.035912685
229	0xbdc4ab1d	-0.0960295
230	0xbe145f2a	-0.14489427
231	0x3de852c1	0.11343909
232	0xbc17d6c3	-0.009267512
233	0xbdde827b	-0.10864731
234	0xbe2064da	-0.15663472
235	0xbe2a4e27	-0.16631375
236	0xbcb34b2a	-0.021886427
237	0x3d801c0a	0.06255348
238	0xbdb0eae3	-0.08638551
239	0x3e20dac0	0.15708447
240	0xbcdd6e6e	-0.027030196
241	0xbb85f623	-0.0040881797
242	0xbdfb4c88	-0.122704566
243	0xbb65f0eb	-0.0035086225
244	0xbdbbb320	-0.09165025
245	0xbcbb78e3	-0.022884792
246	0x3de09841	0.1096654
247	0x3db970cf	0.0905472
248	0x3d9d9b3b	0.076956235
249	0x3d6f657d	0.058446396
250	0xbe2012b1	-0.1563213
251	0xbdd00515	-0.10157219
252	0x3db96c6b	0.09053882
253	0x3e5d6965	0.21622236
254	0xbd0c57c8	-0.034263402
255	0x3d23d28f	0.039995726

transformer.layers.0.0.fn.fn.to_out.0.bias f4 [64]
0	0xbd0fe82b	-0.035133522
1	0x3e1a0281	0.15040018
2	0xbdd1a444	-0.10236409
3	0x3ca1b47e	0.019739386
4	0xbcc6f374	-0.02428601
5	0x3c1408a9	0.009035268
6	0x3d82f185	0.063937224
7	0x3ca4b7c1	0.020107152
8	0x3bd00667	0.0063484195
9	0x3dc0fa8e	0.094227895
10	0x3cc12a60	0.023579776
11	0xbd0230a0	-0.031784654
12	0xbcf3760d	-0.029719377
13	0xbd2c91c0	-0.042131186
14	0x3bde457d	0.006783186
15	0x3d01573c	0.031577334
16	0x3da46662	0.080273405
17	0xbdb3d5a2	-0.087809816
18	0xbc03aab7	-0.008036307
19	0x3c7e90b9	0.015537434
20	0xbd08ac78	-0.033367604
21	0x39a2cfd2	0.00031053886
22	0x3b87199d	0.0041229264
23	0xbc84f065	-0.01622791
24	0x3c8d10ac	0.017219864
25	0xbd46720c	-0.048448607
26	0x3d7158b1	0.058922473
27	0x3bf87589	0.0075823707
28	0x3bec0b7a	0.0072035166
29	0xbd74e8de	-0.059792392
30	0xbd711dac	-0.058866188
31	0xbc368f9a	-0.011142636
32	0x3d86cda6	0.06582193
33	0x3cf4c8d0	0.029880911
34	0xbd698a70	-0.05701679
35	0x3cecb8bc	0.028896682
36	0xbd8b95c1	-0.06815673
37	0xbd20255b	-0.039098125
38	0x3b20153a	0.0024426715
39	0xbc856df7	-0.016287787
40	0xbda511ce	-0.080600366
41	0xbda034b8	-0.07822555
42	0xbd06ef5a	-0.032943107
43	0x3cebb38b	0.028772136
44	0x3d3f3801	0.04668427
45	0xbd5c94f3	-0.053852987
46	0xbcfea9d7	-0.031086845
47	0x3da8147d	0.08207033
48	0x3ca2f6e7	0.019893123
49	0x3dc35e62	0.095394865
50	0xbd75ab83	-0.05997802
51	0x3df99260	0.12186122
52	0xbc3d9a6a	-0.01157246
53	0xbd020318	-0.03174123
54	0x3d24f5b8	0.0402734
55	0x3d54ff1b	0.0520011
56	0x3c207d7d	0.009795544
57	0x3c0afcf0	0.008483157
58	0xbdc336be	-0.095319256
59	0x3d99bf96	0.07507245
60	0x3d9778b3	0.073960684
61	0xbc74afed	-0.014934522
62	0xbd9e0fd9	-0.077178665
63	0xbac6e648	-0.001517483

transformer.layers.0.1.fn.norm.weight f4 [64]
0	0x3f923375	1.1421953
1	0x3f771d2d	0.96528894
2	0x3f49d54d	0.78841096
3	0x3f56a68e	0.8384789
4	0x3f56c8b9	0.8390003
5	0x3f7b5693	0.98178977
6	0x3f8a2ac8	1.0794306
7	0x3f64447a	0.89166987
8	0x3f8fdb5a	1.1238816
9	0x3f60885c	0.8770807
10	0x3f8e0796	1.1096065
11	0x3f5994bd	0.8499258
12	0x3f4e4e61	0.80588347
13	0x3f60bb09	0.87785393
14	0x3f634afe	0.88786304
15	0x3f7d7292	0.99002945
16	0x3f8ef81f	1.116947
17	0x3f7c29b8	0.9850116
18	0x3f698546	0.91218984
19	0x3f6e2bd4	0.93035626
20	0x3f81f4f8	1.0152884
21	0x3f7c9bf6	0.9867548
22	0x3f526de2	0.8219892
23	0x3f5f7111	0.872819
24	0x3f664221	0.89944655
25	0x3f7e8e10	0.9943552
26	0x3f6b2c0b	0.9186408
27	0x3f551a28	0.83243036
28	0x3f874206	1.0567024
29	0x3f52017a	0.82033503
30	0x3f775331	0.96611315
31	0x3f9dfa24	1.2341962
32	0x3f6d112e	0.9260434
33	0x3f828505	1.0196844
34	0x3f6d6f49	0.9274793
35	0x3f975c89	1.1825114
36	0x3f85daa3	1.0457348
37	0x3f5f2bf2	0.8717643
38	0x3f6f86f3	0.9356529
39	0x3f5d8c12	0.86541855
40	0x3f72248a	0.94587004
41	0x3f72f783	0.9490892
42	0x3f81409c	1.0097842
43	0x3f80ea53	1.007151
44	0x3f84e9b2	1.0383818
45	0x3f506a08	0.8141179
46	0x3f4839a1	0.78212935
47	0x3f76a501	0.96345526
48	0x3f64ccd2	0.8937503
49	0x3f564591	0.836999
50	0x3f91fc0e	1.1405046
51	0x3f89ab2d	1.0755364
52	0x3f74770d	0.9549416
53	0x3f5bcd6f	0.8586034
54	0x3f5a7aed	0.8534382
55	0x3f4e5b97	0.80608505
56	0x3f81d42b	1.0142874
57	0x3f4f6daa	0.8102671
58	0x3f5668d9	0.83753735
59	0x3f5f4214	0.872102
60	0x3f5c7bad	0.86126214
61	0x3f72db26	0.94865644
62	0x3f6cb644	0.92465615
63	0x3f8d06ba	1.1017678

transformer.layers.0.1.fn.norm.bias f4 [64]
0	0xbe18da92	-0.14927128
1	0x3e85ebc0	0.26156425
2	0xbe1e4b68	-0.15458453
3	0xbe11dc98	-0.14244306
4	0x3c0c45f8	0.008561604
5	0xbd97dd78	-0.07415289
6	0x3e435a15	0.19077332
7	0xbdb88a44	-0.09010747
8	0x3e360c75	0.1777819
9	0xbe1cfed5	-0.15331586
10	0xbe291aef	-0.1651418
11	0xbe2eb657	-0.17061745
12	0x3cc50881	0.024051907
13	0xbd8bdb7e	-0.06828974
14	0x3dc92e6f	0.0982331
15	0x3e95cbe7	0.29257128
16	0x3bad388e	0.005286283
17	0xbe4ab017	-0.19793735
18	0x3e2f8550	0.17140698
19	0x3e09d677	0.13460718
20	0xbde68bc2	-0.112571254
21	0xbd78b79f	-0.06072199
22	0xbe054ed0	-0.13018346
23	0xbdda6b9f	-0.10665058
24	0x3c3049cd	0.010759783
25	0xbd95887e	-0.073014244
26	0xbd16e3b6	-0.036838256
27	0xbca2d99b	-0.019879153
28	0x3e4214f3	0.18953304
29	0xbe3daac4	-0.18522173
30	0xbdc4cdad	-0.09609542
31	0xbe389e65	-0.18029173
32	0x3da7ec9b	0.08199426
33	0x3e32fca4	0.17479187
34	0xbdf33f40	-0.11877298
35	0x3dda3dbd	0.10656307
36	0xbdd0563d	-0.10172699
37	0x3e1545c2	0.14577392
38	0xbe9e3721	-0.30901435
39	0xbe80dcb3	-0.2516838
40	0xbdc4a81f	-0.09602379
41	0x3d33371e	0.043753736
42	0x3e0b8483	0.13624768
43	0xbe06562d	-0.13118811
44	0x3d81aa98	0.06331366
45	0xbdc81396	-0.09769361
46	0xbe1655b2	-0.14681128
47	0x3d8edf7d	0.06976221
48	0x3e19509f	0.14972161
49	0x3e32a603	0.17446141
50	0xbe3c41be	-0.18384454
51	0x3e1ce61d	0.15322156
52	0xbe618174	-0.22022039
53	0x3de36b03	0.11104395
54	0xbd5d11d1	-0.05397207
55	0xbdf906f3	-0.121595286
56	0x3d1ff627	0.03905311
57	0x3e8a220c	0.269791
58	0x3c30ab95	0.010783096
59	0x3e38fef9	0.18066014
60	0xbdb9530d	-0.09049044
61	0x3e1c898b	0.15286843
62	0xbe837e72	-0.25682408
63	0xbe217feb	-0.15771453

transformer.layers.0.1.fn.fn.net.0.weight f4 [8, 64]
0	0x3e48db17	0.19614826
1	0xbbaa9386	-0.0052055744
2	0xbbf45417	-0.0074563134
3	0xbc02b161	-0.007976861
4	0x3d0ac3de	0.0338782
5	0x3e2c39ec	0.1681897
6	0xbe5b4df8	-0.21416461
7	0x3d6005e5	0.05469312
8	0xbe5af67c	-0.21383089
9	0xbdafc141	-0.08581782
10	0x3e6f1764	0.23348767
11	0x3de71839	0.11283917
12	0x3d57e3d4	0.05270751
13	0xbd30d2b5	-0.043169696
14	0x3e0e17ba	0.13876238
15	0xbe34a25d	-0.17640062
16	0x3e1e4c7d	0.15458865
17	0x3e3da7c8	0.18521035
18	0xbd828f96	-0.06375043
19	0x3c9113fc	0.017709725
20	0xbda95a22	-0.082691446
21	0xbddf5f27	-0.10906821
22	0xbd252e1f	-0.040327188
23	0xbd105bba	-0.035243727
24	0x3c1a04c3	0.009400549
25	0xbe323f35	-0.17406924
26	0xb90bedb1	-0.0001334462
27	0x3dd1963e	0.102337345
28	0x3d226f3b	0.03965686
29	0xbd21e6f5	-0.0395269
30	0xbcd92017	-0.02650456
31	0x3e31f59b	0.17378847
32	0x3db28eee	0.08718668
33	0x3dc5db6c	0.09660992
34	0xbdfdae3e	-0.1238675
35	0xbd00971d	-0.031394113
36	0x3d959402	0.07303621
37	0x3d94aaf9	0.07259173
38	0x3d071b15	0.03298481
39	0xbd08c095	-0.033386786
40	0xbdb9f9f8	-0.09080881
41	0x3e21cf83	0.15801816
42	0xbdd299b0	-0.1028322
43	0xbdcb9b4a	-0.099417284
44	0x3d8b9017	0.06814592
45	0xbd34e657	-0.04416498
46	0xbbfc5d89	-0.00770158
47	0xbce01d83	-0.027357822
48	0x3c820327	0.015870644
49	0xbd531390	-0.051532328
50	0x3e5a7ecf	0.21337436
51	0xbde1a6a4	-0.11018112
52	0x3d4671d4	0.0484484
53	0xbe06e81a	-0.13174477
54	0xbe0f08e1	-0.13968231
55	0xbd6b938f	-0.05751377
56	0xbdd55c0f	-0.104179494
57	0x3e2881cd	0.16455765
58	0x3dd77dae	0.105220184
59	0x3e44ba74	0.19211751
60	0x3ca45c79	0.020063626
61	0xbe6a5595	-0.2288421
62	0xbc663927	-0.014051712
63	0x3cc35262	0.023842994
64	0x3e8ceb39	0.2752321
65	0x3c0ce131	0.008598612
66	0xbd061795	-0.032737333
67	0x3bb5ee3c	0.0055520814
68	0xbde25838	-0.11051983
69	0x3cbaca84	0.022801645
70	0xbdd2e702	-0.102979675
71	0x3da09fb0	0.07842958
72	0xbe6fac4b	-0.23405568
73	0xbd1b4c06	-0.0379143
74	0xbdda0710	-0.10645878
75	0x3d6ed10d	0.058304835
76	0xbc814970	-0.015782088
77	0x3dd69285	0.10477165
78	0x3d29ec40	0.04148507
79	0xbd7c6573	-0.061620187
80	0xbd95c631	-0.07313193
81	0x3dc0af41	0.09408427
82	0xbe0d585c	-0.13803238
83	0xbe16ddaf	-0.14733003
84	0x3d9669ac	0.07344374
85	0x3d9681d5	0.07348982
86	0x3dc5fdb6	0.09667532
87	0x3df618e8	0.12016469
88	0xbcd1ebef	-0.025625197
89	0x3de78307	0.11304288
90	0x3d559651	0.052145306
91	0xbc2098d4	-0.009802062
92	0xbd6d63e4	-0.05795659
93	0x3c6dbb57	0.014509997
94	0x3e1d0c90	0.15336823
95	0x3e6e7843	0.23288064
96	0xbe0af5f1	-0.13570382
97	0xbe32a884	-0.17447096
98	0x3e17bdbc	0.14818472
99	0xbe5a394e	-0.21310923
100	0x3bb4bb32	0.0055154795
101	0xbdbc980e	-0.0920869
102	0x3bdd3041	0.006750137
103	0x3d409eeb	0.047026556
104	0x3d64a2b6	0.055819236
105	0x3d25f3e9	0.040515814
106	0xbdfed7f9	-0.12443537
107	0x3e296746	0.16543302
108	0xbd8c44ce	-0.06849061
109	0x3cf1694e	0.029469159
110	0xbad20748	-0.0016023898
111	0xbe169347	-0.1470462
112	0xbd3be1cd	-0.045869637
113	0xbd8c8ab2	-0.068623915
114	0x3d731a41	0.05935121
115	0xbd9fcbac	-0.07802519
116	0x3df3652f	0.118845336
117	0xbcd8031f	-0.026368676
118	0xbd46992f	-0.04848593
119	0xbc54d270	-0.012989625
120	0x3e27094c	0.1631214
121	0xbd318db7	-0.04334804
122	0xbded9b6e	-0.116019115
123	0xbce0ab74	-0.027425505
124	0x3d846f0c	0.06466493
125	0x3d8d763a	0.069073156
126	0x3dd40969	0.10353357
127	0x3e49a9ab	0.1969363
128	0x3d1320f5	0.035920102
129	0xbd4306af	-0.047613796
130	0xbc93bb8e	-0.018033769
131	0x3d875b13	0.06609168
132	0xbdf2f9a2	-0.1186402
133	0x3c5bacd4	0.013407905
134	0x3c38cf0d	0.0112798335
135	0x3daee238	0.085392416
136	0xbe12845e	-0.14308307
137	0xbd499352	-0.04921276
138	0x3eb2e084	0.34936917
139	0x3d8d4de0	0.06899619
140	0xbbe1982f	-0.006884597
141	0xbd54fd21	-0.051999215
142	0xbd4a584e	-0.04940062
143	0xbe09d2d3	-0.1345933
144	0x3e0c26b8	0.13686645
145	0x3e00474d	0.12527199
146	0xbd8e8304	-0.06958583
147	0x3dd81629	0.10551102
148	0xbda26ae0	-0.07930541
149	0x3e02e94e	0.12784311
150	0x3d9657fe	0.07341002
151	0xbdd3902f	-0.10330235
152	0xbbddeb04	-0.006772401
153	0x3b738c05	0.0037162316
154	0x3b39580d	0.0028281242
155	0x3cb96194	0.022629537
156	0xbe4ebd3d	-0.20189376
157	0x3d23d449	0.039997373
158	0xbc04c7c7	-0.008104271
159	0x3e2a62fc	0.16639322
160	0x3d882855	0.06648318
161	0x3da4d127	0.08047705
162	0xbd81a2e6	-0.063298985
163	0xbd8a323f	-0.06747865
164	0x3e57be11	0.21068598
165	0xbded3b9d	-0.11583636
166	0x3d992825	0.0747836
167	0x3d057c6e	0.03258937
168	0xbc84ae6c	-0.016196452
169	0x3dc5271d	0.09626601
170	0xbe275357	-0.16340385
171	0xbc95754d	-0.01824441
172	0x3ddd9ff2	0.10821523
173	0xbd59cf31	-0.05317611
174	0xbd3725bc	-0.04471372
175	0x3cf998b1	0.030468317
176	0xbde741c7	-0.11291843
177	0xbd91af02	-0.07113458
178	0x3d20acec	0.03922741
179	0xbe10effc	-0.14154047
180	0xbd55709f	-0.052109357
181	0x3cb0ec01	0.02159691
182	0xbd9fdf4b	-0.07806262
183	0x3da82428	0.08210021
184	0xbdcf8f4b	-0.10134753
185	0xbdef2ab5	-0.116780676
186	0x3d0f236d	0.034945894
187	0xbd540081	-0.051758293
188	0xbd05047b	-0.032474976
189	0xbe3046cc	-0.17214507
190	0x3dc89ddf	0.097957365
191	0xbd5cabcc	-0.053874776
192	0x3cecc85a	0.028904129
193	0x3d9ba0e6	0.07599048
194	0xbc1403b0	-0.009034082
195	0xbd89253d	-0.06696556
196	0xbd9ca918	-0.076494396
197	0xbe1474db	-0.14497702
198	0xbb292e09	-0.0025814793
199	0xbb9dc06f	-0.0048141996
200	0xbe4f690c	-0.20254916
201	0xbceffe14	-0.029295959
202	0xbd0c9b38	-0.034327716
203	0xbbdce115	-0.006740699
204	0x3da9a99c	0.082843035
205	0x3dea7bcd	0.114493944
206	0xbcd8d36d	-0.026468003
207	0xbd4f3104	-0.050583854
208	0x3d9280a7	0.07153445
209	0x3bc78ee6	0.006090033
210	0x3c8e2768	0.017352775
211	0x3c3fef6b	0.011714797
212	0x3e5e882d	0.21731634
213	0x3dc87d0c	0.09789476
214	0x3beb946d	0.0071893246
215	0xbd1cc442	-0.038273104
216	0x3e0415d0	0.12898946
217	0xbcc33f0e	-0.023833778
218	0x3e041504	0.12898642
219	0xbc3471e9	-0.011013486
220	0xbd390ecf	-0.04518014
221	0xbd93951f	-0.07206177
222	0xbd4358e6	-0.047692202
223	0x3eb513ae	0.35366577
224	0x3bbb4868	0.0057154186
225	0xbd4be1e5	-0.049775977
226	0x3c846005	0.016159067
227	0xbed7375e	-0.4203443
228	0x3e4a683b	0.19766323
229	0x3c040f0c	0.008060228
230	0x3e3ee5b0	0.18642306
231	0x3d8cd7a4	0.06877068
232	0xbcd02d91	-0.025412353
233	0xbd4a5ef3	-0.049406957
234	0xbe0ef8bd	-0.13962074
235	0x3b742b10	0.0037257113
236	0x3ccab08e	0.024742391
237	0x3d840859	0.06446905
238	0x3d9e3057	0.07724064
239	0xbdf81947	-0.12114196
240	0xbc186e72	-0.009303676
241	0x3dceb7e3	0.10093667
242	0xbd089f85	-0.033355255
243	0xbcd26a80	-0.025685549
244	0x3ac95576	0.0015360552
245	0x3b489660	0.0030607209
246	0xbd618537	-0.055058684
247	0xbd88a947	-0.06672912
248	0xbd8a1119	-0.06741542
249	0xbc1b02af	-0.009461089
250	0xbc948a5e	-0.018132385
251	0x3cd0b708	0.025477901
252	0x3db97fd7	0.09057587
253	0x3cd2706b	0.02568837
254	0x3de1e44b	0.110298716
255	0x3e8958ce	0.26825565

transformer.layers.0.1.fn.fn.net.0.bias f4 [8]
0	0x3be2913a	0.006914285
1	0xbe598be6	-0.21244773
2	0xbd6d6b04	-0.057963386
3	0xbe30dab9	-0.17270936
4	0xbd5fafa8	-0.05461088
5	0xbdc481f0	-0.09595096
6	0xbe628c24	-0.22123772
7	0xbe872e2f	-0.26402423

transformer.layers.0.1.fn.fn.net.3.weight f4 [64, 8]
0	0xbda2d509	-0.079507895
1	0x3e5c0098	0.21484601
2	0xbe662641	-0.2247553
3	0x3e1b7eab	0.15185039
4	0x3e2535f1	0.16133858
5	0xbe2a7145	-0.16644771
6	0x3eb791c1	0.3585339
7	0xbe91b3ae	-0.28457397
8	0x3dab3a4c	0.083607286
9	0x3d11fd03	0.03564168
10	0xbda6735b	-0.08127471
11	0x3dcf2f42	0.101164356
12	0x3ca3865b	0.019961527
13	0x3da0ba60	0.07848048
14	0xbe45c329	-0.19312729
15	0x3db5fbf4	0.08885947
16	0xbe2c1ce1	-0.16807891
17	0x3ea9ed14	0.3318869
18	0xbec2b735	-0.380304
19	0x3e141f42	0.14465049
20	0x3d23fd73	0.04003663
21	0x3dccd1dc	0.10000965
22	0xbe42d910	-0.19028115
23	0xbe9e20e4	-0.3088447
24	0xbe45b585	-0.19307525
25	0x3e6422fe	0.22278973
26	0xbd2a665d	-0.041601527
27	0x3e703d60	0.23460913
28	0xbda908ea	-0.08253653
29	0x3eaf68c7	0.34259626
30	0xbdd39aa8	-0.10332233
31	0x3e748d69	0.23882069
32	0x3e39b12c	0.18133992
33	0xbe82503d	-0.25451842
34	0x3dc0faa9	0.0942281
35	0xbe90761b	-0.28215107
36	0x3e17703d	0.1478891
37	0xba3d0e64	-0.0007211922
38	0x3e2ec084	0.17065626
39	0xbc8cf2fe	-0.017205711
40	0x3d6349da	0.055490352
41	0xbe7e96ec	-0.2486226
42	0xbd1466a3	-0.036230695
43	0x3dcb4222	0.09924723
44	0x3e409a10	0.1880877
45	0xbe8d7e3d	-0.27635375
46	0xbe6d349c	-0.231646
47	0xbe192b9c	-0.14958042
48	0x3e8bcb89	0.27303723
49	0xbe55045d	-0.20802446
50	0x3e7df2a6	0.24799594
51	0xbe84f0eb	-0.25965056
52	0xbd09a035	-0.03360005
53	0x3b1fe73e	0.0024399306
54	0x3e40b0e8	0.18817484
55	0x3ed28b9d	0.4112214
56	0x3e87c047	0.26513883
57	0x3d6c9b5b	0.057765346
58	0x3e34adc2	0.17644408
59	0xbe3096dc	-0.17245048
60	0x3e38b899	0.18039168
61	0xbe1fddfc	-0.15612024
62	0xbe314037	-0.17309652
63	0xbda6aff3	-0.081390284
64	0x3e3805c7	0.17970954
65	0x3da7b7d5	0.0818936
66	0xbdad86b8	-0.08472961
67	0xbd66a480	-0.056309223
68	0xbe1dfd56	-0.15428671
69	0x3d74e74d	0.059790898
70	0x3d2a3979	0.041558716
71	0x3e3b983b	0.1831979
72	0x3e3f7790	0.18697953
73	0xbedf15a1	-0.4357119
74	0xbdc4f466	-0.09616928
75	0x3eca7a0a	0.39546233
76	0xbd19462b	-0.037420433
77	0x3e66c472	0.22535875
78	0xbd46b978	-0.04851672
79	0x3e8a8225	0.27052417
80	0x3dd1494b	0.10219058
81	0xbde3b4d3	-0.11118474
82	0x3d902950	0.0703913
83	0x3d2bc2b1	0.04193372
84	0xbe59df1b	-0.21276514
85	0x3e3b0842	0.18264869
86	0xbd949260	-0.07254481
87	0xbeb411c5	-0.35169807
88	0xbe8a58fc	-0.27021015
89	0xbd2cfbd5	-0.042232353
90	0xbe50c457	-0.20387398
91	0xbe8167b9	-0.25274447
92	0xbb7f9fa5	-0.0039005068
93	0xbe731324	-0.2373777
94	0xbdedc43d	-0.11609695
95	0x3eb7d7b3	0.35906753
96	0xbe0ce08c	-0.13757533
97	0x3e29f203	0.16596226
98	0xbe748138	-0.23877418
99	0xbd678433	-0.05652256
100	0x3e7f45a1	0.24928905
101	0xbe42952f	-0.19002222
102	0xbe0d67b7	-0.13809095
103	0xbc81049c	-0.015749268
104	0xbd09bda2	-0.033628114
105	0x3e5bf990	0.2148192
106	0xbd50ebc2	-0.051006086
107	0x3e66770c	0.2250635
108	0x3e264172	0.16235903
109	0xbd8215b0	-0.06351793
110	0xbd3cad4f	-0.046063717
111	0x3eac5bd5	0.33663812
112	0xbe1c8d32	-0.15288237
113	0xbe33b76b	-0.17550437
114	0xbd9f2bc6	-0.07772021
115	0x3e1a1cb7	0.15050016
116	0xbed90efe	-0.4239425
117	0x3d2fae15	0.042890627
118	0x3d1c3332	0.03813476
119	0x3e76b243	0.24091439
120	0x3e45e947	0.1932727
121	0x3df6e800	0.12055969
122	0xbe86381e	-0.2621469
123	0xbdea6989	-0.114459105
124	0xbe911438	-0.28335738
125	0xbe81965e	-0.25310034
126	0x3d91d45f	0.07120585
127	0x3e0f156d	0.13973017
128	0xbd8e3130	-0.069429755
129	0xbe502eb7	-0.2033032
130	0x3e944a07	0.28962728
131	0xbd409c64	-0.047024146
132	0xbd94ef3f	-0.07272195
133	0x3db35a6d	0.08757482
134	0x3d39c73e	0.045356028
135	0x3ccef4f4	0.025263287
136	0x3eedfdbd	0.4648265
137	0xbe8b09c4	-0.27155888
138	0x3d649830	0.0558092
139	0xbdf2af4c	-0.118498415
140	0xbc2a5960	-0.010397285
141	0x3ea32403	0.31863412
142	0x3cd069d4	0.025441088
143	0xbcf4149f	-0.02979499
144	0xbe5f5ce0	-0.21812773
145	0xbcda104b	-0.026619097
146	0xbe66ba90	-0.22532105
147	0x3e09a29a	0.13440934
148	0x3ce438e2	0.027859155
149	0xbea01a04	-0.31269848
150	0x3ea389e2	0.31941134
151	0xbd25bebd	-0.040465105
152	0x3e168a10	0.14701104
153	0x3e06fbde	0.13182017
154	0x3dac64e1	0.084176786
155	0xbe18d1c8	-0.14923775
156	0xbc5915ea	-0.013249854
157	0x3de6c407	0.11267858
158	0x3d96bddd	0.07360432
159	0x3e1e8ed2	0.15484169
160	0xbe741c32	-0.2383888
161	0x3e0e9208	0.13922894
162	0x3e1660c7	0.14685355
163	0x3d947c14	0.072502285
164	0x3e3ba923	0.1832624
165	0xbdc95172	-0.098299876
166	0x3ead7b8e	0.33883327
167	0x3c1403ff	0.009034156
168	0xbcc5d8bd	-0.0241512
169	0x3d6a86ce	0.057257466
170	0x3e29de21	0.16588642
171	0x3e84364a	0.2582267
172	0x3d92947d	0.07157228
173	0x3e8876ad	0.26653042
174	0x3d33fba8	0.04394117
175	0xbd0a8674	-0.03381963
176	0xbe6cbf53	-0.2311986
177	0xbe508274	-0.20362264
178	0x3e9fac47	0.31186125
179	0xbd053259	-0.03251872
180	0xbd7338a4	-0.05938019
181	0x3e0f04bc	0.1396665
182	0xbe24f6f3	-0.16109829
183	0xbdbc008f	-0.09179794
184	0x3c6a5e1d	0.014304665
185	0xbd0093dd	-0.031391013
186	0x3e388126	0.18018016
187	0xbec61f3f	-0.38695714
188	0xbe464742	-0.1936312
189	0xbe83b91e	-0.2572717
190	0x3e881ec6	0.26585978
191	0xbe8b32ad	-0.271871
192	0x3e38bacb	0.18040006
193	0xbe54b1c5	-0.20770939
194	0x3ea561d0	0.32301188
195	0xbe561a87	-0.20908557
196	0x3dd5055c	0.10401413
197	0x3defe335	0.11713258
198	0xbe87172c	-0.26384866
199	0x3eb250a4	0.3482715
200	0xbe780a13	-0.24222593
201	0xbde9719f	-0.11398625
202	0x3e8253ab	0.2545446
203	0x3e11e26c	0.1424653
204	0xbd80ea70	-0.062947154
205	0xbde297d0	-0.11064112
206	0xbe6ff93a	-0.23434916
207	0xbe41a29e	-0.1890969
208	0xbe4f22c5	-0.20228107
209	0x3e675b17	0.22593342
210	0x3e3dff29	0.18554367
211	0xbd30119b	-0.04298554
212	0x3e942999	0.28937986
213	0x3cf48425	0.029848168
214	0x3d80ee95	0.06295506
215	0xbe6c4b58	-0.23075616
216	0x3b48387c	0.0030551245
217	0xbcfd291e	-0.030903395
218	0x3e506dfb	0.20354454
219	0x3e6eb1bd	0.2330999
220	0x3e90cf50	0.28283167
221	0x3ea8247c	0.32840335
222	0x3e4ea208	0.20178998
223	0x3dffa6d0	0.12482989
224	0xbbaae23b	-0.005214957
225	0x3e65057d	0.22365375
226	0xbe41a46d	-0.1891038
227	0xbe330ad6	-0.17484602
228	0xbe344de9	-0.17607845
229	0xbc0a6e64	-0.008449171
230	0xbcc7f664	-0.02440948
231	0xbe3a95c9	-0.18221201
232	0x3e7b5c03	0.24546818
233	0x3e72e891	0.2372153
234	0xbd53eb31	-0.051737968
235	0xbe4e1417	-0.20124851
236	0xbc707022	-0.014675172
237	0x3ea3ac57	0.31967422
238	0x3d2157ff	0.03939056
239	0xbe2ae405	-0.16688545
240	0x3d453baa	0.048152603
241	0x3e8332cb	0.2562469
242	0x3e36b429	0.17842163
243	0xbd0539d6	-0.03252586
244	0xbde6db1c	-0.112722605
245	0xbd0895f2	-0.033346124
246	0x3da15200	0.078769684
247	0x3e866c6d	0.26254597
248	0xbca06ba1	-0.019582571
249	0xbe825791	-0.25457433
250	0x3d959f92	0.07305826
251	0xbe4149fd	-0.1887588
252	0x3eb814e7	0.35953447
253	0xbd21c979	-0.03949878
254	0x3d30995f	0.043115016
255	0xbdc30390	-0.09522164

transformer.layers.0.1.fn.fn.net.3.bias f4 [64]
0	0xbd04113e	-0.032243006
1	0x3e05c9d5	0.13065274
2	0xbda3ecbc	-0.08004138
3	0x3de673a9	0.11252529
4	0xbda425ee	-0.08015047
5	0x3d3eebfd	0.046611775
6	0x3e4ae1dd	0.19812723
7	0x3e166079	0.14685239
8	0x3cfae735	0.030627826
9	0x3e691f39	0.22765817
10	0xbc59989f	-0.013281017
11	0x3d09695f	0.033547755
12	0xbd5577ae	-0.05211609
13	0x3dbc6f90	0.09200966
14	0xbd96ffca	-0.07373007
15	0xbe16dddb	-0.14733069
16	0x3d3343e1	0.043765906
17	0xbde72fd4	-0.11288419
18	0xbdb7153a	-0.089395955
19	0x3c836f53	0.016044294
20	0x3d633025	0.055465836
21	0x3dc8b71e	0.09800552
22	0x3df3c5fa	0.119029954
23	0xbdc8be9b	-0.0980198
24	0x3ddef31e	0.10886215
25	0xbdf7df2d	-0.12103114
26	0x3d0e7ecd	0.034788895
27	0x3e1d8f29	0.15386643
28	0xbd6c9270	-0.05775684
29	0x3d884619	0.06653995
30	0x3d87aece	0.06625138
31	0x3c0a0bf8	0.008425705
32	0xbd4a0817	-0.04932412
33	0x3d52064a	0.05127553
34	0x3d523fef	0.051330503
35	0x3c82c359	0.01596229
36	0xbde4c02e	-0.11169468
37	0xbd3a05c3	-0.04541565
38	0x3df2ac35	0.11849252
39	0xbbcfd76a	-0.006342818
40	0x3d3dee38	0.04636976
41	0xbd88ccbf	-0.06679677
42	0xbd5ddca7	-0.05416551
43	0x3d4ac2f8	0.049502343
44	0xbdb75dea	-0.089534596
45	0xbd159b7d	-0.03652524
46	0xbd3b0120	-0.04565537
47	0xbd458321	-0.048220757
48	0x3d673475	0.05644651
49	0xbdd73ea5	-0.10509995
50	0x3d103b15	0.035212595
51	0x3e312bde	0.1730189
52	0xbdc042dc	-0.093877524
53	0xbd57d2da	-0.052691318
54	0x3d7d432b	0.061831634
55	0x3cef8f2d	0.029243076
56	0x3d3b2448	0.045688897
57	0xbdcd5830	-0.10026586
58	0xbdec678a	-0.11543186
59	0x3e129ba4	0.14317185
60	0xbd541d34	-0.051785663
61	0xbdfd6975	-0.1237363
62	0xbe0ede03	-0.13951878
63	0x3d88a83a	0.06672712

transformer.layers.1.0.fn.norm.weight f4 [64]
0	0x3f8e5c35	1.1121889
1	0x3f6b5bc9	0.9193693
2	0x3f7f2cbd	0.9967764
3	0x3f6c9295	0.92411166
4	0x3f42e9e9	0.7613817
5	0x3f6a6579	0.91561085
6	0x3f6088cd	0.8770874
7	0x3f404afb	0.7511441
8	0x3f9f6e32	1.2455504
9	0x3f33901c	0.7014177
10	0x3f846a01	1.034485
11	0x3f483d7a	0.78218806
12	0x3f82d337	1.0220708
13	0x3f5467fb	0.8297116
14	0x3f512367	0.81694645
15	0x3f4dfe16	0.8046583
16	0x3fa8b0e5	1.3178984
17	0x3f716dca	0.9430815
18	0x3f69d13e	0.91334903
19	0x3f5b1ef3	0.855941
20	0x3f80d3f5	1.0064684
21	0x3f765048	0.9621625
22	0x3f4c418f	0.79787534
23	0x3f78f56c	0.97249484
24	0x3f6a17c4	0.91442513
25	0x3f4cf778	0.8006511
26	0x3f77522d	0.96609765
27	0x3f7620bb	0.9614369
28	0x3f8a9741	1.0827409
29	0x3f6a1d11	0.914506
30	0x3f95c404	1.1700444
31	0x3f87f156	1.0620525
32	0x3f592141	0.84816366
33	0x3f6ea0f8	0.9321437
34	0x3f6afe1a	0.9179398
35	0x3f67a9d5	0.9049352
36	0x3f7d7b1e	0.99015987
37	0x3f72ae76	0.94797456
38	0x3f83e2b8	1.0303564
39	0x3f537e55	0.8261464
40	0x3f7331fc	0.94998145
41	0x3f6650fa	0.8996731
42	0x3f8fdded	1.1239601
43	0x3f736c19	0.9508682
44	0x3f89bcdf	1.0760764
45	0x3f680c72	0.9064399
46	0x3f5eb1c4	0.8699
47	0x3f779699	0.9671417
48	0x3f6ba07a	0.9204174
49	0x3f59b249	0.85037667
50	0x3f6c1872	0.922248
51	0x3f7174da	0.94318926
52	0x3f85d914	1.0456872
53	0x3f78836e	0.97075546
54	0x3f769059	0.9631401
55	0x3f5b589d	0.8568209
56	0x3f8c47ed	1.095945
57	0x3f842b42	1.0325701
58	0x3f6774de	0.904127
59	0x3f81e6f2	1.0148604
60	0x3f3aaf53	0.72923774
61	0x3f67b130	0.9050474
62	0x3f3f4037	0.7470736
63	0x3f911db7	1.1337193
